optimal_weights.npz (npz, 5336 bytes, 4 tensors)

weights_real f8 [125]
0	0x3f9429a380b692c2	0.019690088969258175
1	0x3fa44002859bba20	0.03955085640869904
2	0xbfb7ca0acbdc7491	-0.09292666890219638
3	0x3f89b530e5e08370	0.012552625670709111
4	0x3f7e91d76a968637	0.007463304014352404
5	0xbfd37195c12ab651	-0.303807676925179
6	0xbfd722833b91256b	-0.3614814836224329
7	0xbfd80400fb73f9eb	-0.37524437480888534
8	0xbfd4aa04c870dcc3	-0.32287711691192217
9	0xbfd28f95d8712fcd	-0.29001375328948314
10	0xbfd875a3a2dd13bf	-0.38218012718817457
11	0xbfd10e30ecd6f51b	-0.2664911568534351
12	0xbfd52654c975e539	-0.330464550722883
13	0xbfdb55daa10c82b8	-0.427115113519942
14	0xbfc3244d81b6020e	-0.14954537232917214
15	0xbfc00b24a59c64ca	-0.12534006201238973
16	0xbfd2c63dfe956cb6	-0.29334974157036287
17	0xbfbc050295ebba52	-0.10945144806076115
18	0xbfc80f307de69437	-0.18796354434485504
19	0xbfc5dbd7bcd06b75	-0.17077156753006376
20	0xbfaf348a76ea72c2	-0.06094773007973721
21	0xbfb913822b39d1ac	-0.09795392566031208
22	0xbfc411be014d6bfb	-0.15679144919963037
23	0xbfc3404447d470b9	-0.15039876468006755
24	0xbfac78eef51aebaa	-0.055610148830474174
25	0xbf9c89340ff02dce	-0.027867139313497984
26	0x3fba60067f9f2e9c	0.10302773109213564
27	0x3f9d0f6e2d4f367e	0.02837917472407136
28	0x3f7d7d40a26e7564	0.007199528196818992
29	0x3fc032cd17040cb2	0.12655032752818368
30	0x3fb3952cebdd140b	0.07649498709095341
31	0x3f836a77856d4011	0.009480413207398926
32	0xbf559bc7a32664ca	-0.0013188790877392436
33	0x3fbc8a38619d5246	0.11148407347838782
34	0x3f805d827d733b6d	0.007990855649408346
35	0x3f82c7c47919dbb9	0.009170088716229917
36	0x3fc0f401b5a7c5cf	0.1324464928616593
37	0x3fbf83db59b9f56a	0.123105725675449
38	0x3fb6610d8882101e	0.08741840918270369
39	0x3fb88b3f6a804d35	0.0958747515690462
40	0x3fc11aa5d5622fd4	0.13362572592848088
41	0x3fd32285f2c6af9d	0.298982131086399
42	0x3fd0aa077fa66d50	0.2603777643759786
43	0x3fc53d35f731b267	0.16593050546670726
44	0x3fcd264f5b0aca78	0.22773162789743018
45	0x3fcc2d2d302a1a98	0.2201286778619831
46	0x3fc4fca3b4b38856	0.16395994494729632
47	0x3fd2140914ae2f2d	0.2824728681523421
48	0x3fc7ea12d8b02d2a	0.18683085995176302
49	0x3fcdaf966d71b2f6	0.23192100852920533
50	0x3fd2f6cc3aa9b0d1	0.2963133404616772
51	0x3fd52695dde134b2	0.3304800669473692
52	0x3fd519dfe0eaa425	0.32970425571926604
53	0x3fcd6c795ec23b54	0.22987286688700215
54	0x3fd7c884515877b3	0.3716135782614131
55	0x3fd3095b0d44e457	0.2974460248547692
56	0x3fd38465a8313fab	0.30495587754284753
57	0x3fd57abb44a7d688	0.3356159372773182
58	0x3fd5bb4d872606f3	0.33955705831623034
59	0x3fd1c2af8e8430bd	0.2775076762925542
60	0x3fdbab0459807bde	0.4323130487481971
61	0x3fd9708d5cad160f	0.397494640831014
62	0x3fe2cab0e3ebbad0	0.5872425510004522
63	0x3fd74ebf1c84c329	0.3641813066961271
64	0x3fda60067f9f2841	0.41211092436845226
65	0x3fe1b8845dbeedc1	0.553774054620071
66	0x3fddb8bd4c899845	0.46440060114253284
67	0x3fdf0275c0524b75	0.4845251443995758
68	0x3fd2b1a6889f9746	0.29209292738083936
69	0x3fdd8afaf111f790	0.4616076807213796
70	0x3fdff1adced907d3	0.49912591171243753
71	0x3fdc078d621d149a	0.4379609544888098
72	0x3fe2c96b7dd310d9	0.5870873887547773
73	0x3fe61eb3b7148d43	0.6912478042399147
74	0x3fe02205d35831f7	0.5041531684706219
75	0x3fe0a8e2a3c37171	0.5206158827309492
76	0x3fe14ea2a51f7114	0.5408490395598471
77	0x3fe508144b917548	0.6572362399998974
78	0x3fdc0543aa571681	0.43782130846771145
79	0x3fe36e06a34c116f	0.6071808995625768
80	0x3fdfa320294ba66d	0.4943313983227203
81	0x3fe5866ceff11c7b	0.6726593672145919
82	0x3fe1989cdb20d977	0.5498794822549787
83	0x3fdd1d69905e2e46	0.454920187935134
84	0x3fe35ee66459de3b	0.605334468839778
85	0x3fde17d121577e94	0.47020366912873013
86	0x3fe2275b248b5dd4	0.5673042024381467
87	0x3fe405288e8c8985	0.6256296905669819
88	0x3fe332285a8f91a8	0.5998727577939933
89	0x3fdfa199aec7b02c	0.49423830097544186
90	0x3fe287734b069844	0.579034468207063
91	0x3fe240657fd7815e	0.5703608986769202
92	0x3fe2647ed3608ac0	0.5747675064524955
93	0x3fe287734b069844	0.579034468207063
94	0x3fe093a87ac1456f	0.5180246732290196
95	0x3fde4656ba1120c4	0.4730431382236129
96	0x3fe3549aa95ef383	0.6040776546502545
97	0x3fe3d006e2ec4939	0.61914390869996
98	0x3fe4d8083853d34c	0.6513711071153039
99	0x3fe55046f2a38b3a	0.6660494555511385
100	0x3fe3c5bb27f161af	0.6178870945105269
101	0x3fe854b7ce91ae7f	0.7603415522148252
102	0x3fe6f5639325d1be	0.7174547075251707
103	0x3fe600d4d7d1213d	0.687601491467866
104	0x3fe25726235da6cf	0.573138302873497
105	0x3fe603e1ccd91749	0.6879738808572508
106	0x3fe4c0e5f62cb04a	0.6485471542450878
107	0x3fde2d6ce8faab53	0.47152254821655964
108	0x3fe42d943d363617	0.6305638499777072
109	0x3fe60463f5afbfc3	0.6880359457554664
110	0x3fe531022311ca54	0.6622324643088384
111	0x3fe29408bdc78114	0.580570574438783
112	0x3fe6da711eb4b735	0.7141652679181109
113	0x3fe30aa0735d8e4e	0.5950472119552133
114	0x3fe7866b94565434	0.7351587197505354
115	0x3fe59d8f321842aa	0.6754833200848982
116	0x3fe851aad989b219	0.75996916282526
117	0x3fe77ecb2fc26525	0.7342277462768477
118	0x3fe9da2e00e1368d	0.8078832642729182
119	0x3fe37dc9954a9e63	0.6091049114083485
120	0x3fe5bfc06c7c51df	0.6796571844920968
121	0x3fe24b95024a154e	0.5717263264383889
122	0x3fe64823b76b8ac9	0.6963060934470714
123	0x3fe66377ca7da93d	0.6996420817279511
124	0x3fe428e043749557	0.6299897496689181

weights_minus_imag f8 [125]
0	0xbf8405080456ddfc	-0.009775221474099809
1	0xbfb7561e6cad62bf	-0.09115781930212118
2	0xbf80a6b976331f08	-0.00813050167052111
3	0x3fa397358f37bf9e	0.038263009770047804
4	0xbf99e1eeefaad22d	-0.025275929811600917
5	0x3fa6ed618ff0f1d4	0.044779824086137815
6	0xbfd4682d1fda1244	-0.31885841475039833
7	0xbfd90ff30d5b266f	-0.3915984754972674
8	0xbfd56c7ecd2d4fb9	-0.33474702870193657
9	0xbfd3c475c1d8be13	-0.3088659661325163
10	0xbfcf140041402151	-0.24279788194713572
11	0xbfd4f3bdea06f27f	-0.3273768220349566
12	0xbfdbee627c9b42f9	-0.43642484825708966
13	0xbfc76a74ce37dc00	-0.1829362875866707
14	0xbfcf09d5107ad19f	-0.24248755745578607
15	0xbfc1b4b42b74dffb	-0.13832714197064874
16	0xbfc7eda1f68ed20b	-0.1869394735237083
17	0xbfc71caa65ec8271	-0.180562305228722
18	0xbfb7a98096320fcf	-0.0924301497162212
19	0xbfd0d3b89468ca33	-0.26292242520426895
20	0xbfbdcf9e7a456573	-0.11644926533826609
21	0xbfa4b8002b802729	-0.04046631365788606
22	0xbfca8cc489697e5d	-0.20742088994574007
23	0xbfc425923a013994	-0.15739658195748218
24	0x3f9ada0cc8de5266	0.0262224195099229
25	0xbf92f893c998a3ed	-0.018526372127016733
26	0xbf906193c428fe5d	-0.015997227523483527
27	0xbfb91fb5ff59b691	-0.09814012035504961
28	0x3f99700b33d6116e	0.024841475523787286
29	0x3fa23f81b85f8be1	0.03564076781892545
30	0x3fa212c3ae95bb3c	0.03529941087878405
31	0x3fb6829c0fd9d24a	0.08793044459327706
32	0x3fb6f78cc0b60eae	0.08971481041776982
33	0x3fb8081242297d4c	0.09387315860066286
34	0x3fa60dab5efd630e	0.043073039384301834
35	0x3fc00fb8152860fb	0.12547970803348804
36	0x3fbff1adced8e80c	0.12478147792799649
37	0x3f9c6498938fe697	0.02772749329230936
38	0x3fc394289a2fc971	0.1529589417328441
39	0x3faea013e210d68d	0.059815045686645175
40	0x3fc8b77b4b73e498	0.19309941467489433
41	0x3facce59c1fa2ded	0.056261830262055536
42	0x3fb5e602ed95ae70	0.08554094601066153
43	0x3fb79f55656cd98a	0.0922749874706367
44	0x3fc236dd021e7eb5	0.1422992954585333
45	0x3fcb02b98bf33832	0.21102065404414955
46	0x3fc0946bb8034d46	0.12952944264416483
47	0x3fc7559c43d6b718	0.18230012237966586
48	0x3fd0d1f105796b0d	0.26281381163214307
49	0x3fcb710e29e8efe8	0.21438767477400167
50	0x3fd01fbc1b9233de	0.2519369382142126
51	0x3fc7b120fac60539	0.18509304280090946
52	0x3fd156227f7db20c	0.270882248404434
53	0x3fc8d98bfba23900	0.19413900172043697
54	0x3fcb27d7312985d4	0.21215333843706097
55	0x3fcb3db40d38020d	0.21282053609321885
56	0x3fcba4ea6f709621	0.21597032967945132
57	0x3fcd49e685bd21d7	0.22881776361670234
58	0x3fd03598f7a0b017	0.25327133352652836
59	0x3fca7f0a3ac589cb	0.20700195188244516
60	0x3fd26296ba3b9093	0.2872673815420594
61	0x3fd656e257bcc6c7	0.34905298774820576
62	0x3fd5c37014909b4f	0.3400535775021369
63	0x3fccda0b6d43672a	0.2254041942131207
64	0x3fd432894b632cab	0.3155844913678247
65	0x3fdc7f8b08017058	0.4452846124820602
66	0x3fd0ed248e55e4f2	0.26447404766038496
67	0x3fd6d5bd24f31cd0	0.3567955838047512
68	0x3fdf900f2dd9d3f5	0.4931676814806559
69	0x3fd69ac2a3ae398b	0.3531958197062514
70	0x3fcd369475dff331	0.22822814708333675
71	0x3fd4ca4de9aff1ca	0.324847677431333
72	0x3fd51e735076a056	0.32998354776146266
73	0x3fdcfc9e46486d95	0.45291859496657
74	0x3fd985a6fb7990cc	0.3987824874696002
75	0x3fdd3b27e56be906	0.45673558620877974
76	0x3fd6a3e982c62536	0.35375440379046397
77	0x3fd6ca8da2808285	0.3561128699239265
78	0x3fd6e4fdee1afaee	0.35772655727843883
79	0x3fd695ee1fb6ede1	0.3529010114395686
80	0x3fdb931eda175760	0.4308545236393595
81	0x3fdb925b9cd55c40	0.4308079749657203
82	0x3fd701b7f17b64bb	0.3594798906538689
83	0x3fda2d6fa0303586	0.4090231956805258
84	0x3fda0440b4448aa6	0.4065095673014788
85	0x3fdace1a092996d8	0.41882944960376056
86	0x3fd925cfe969a903	0.3929328708096735
87	0x3fd898367be21a2a	0.3842903337285032
88	0x3fdb2eb4587b7366	0.42472561493723615
89	0x3fd793a3ba2386e1	0.36838620355238844
90	0x3fda4f3f3bf340d0	0.4110868535472152
91	0x3fe19ffc2b4975df	0.5507794232796036
92	0x3fdff88af62af566	0.4995448497755518
93	0x3fd828dd8c3f04c9	0.37749422737040256
94	0x3fdcac4911cbc01a	0.4480154680049978
95	0x3fd7f1b33d442294	0.3741272066404602
96	0x3fdb2343c19d8ffd	0.4240273848320156
97	0x3fde4aa91531c722	0.47330691404123304
98	0x3fdb05c680fb24b6	0.42222750278285603
99	0x3fd8f06d295e12e3	0.38967446365158603
100	0x3fdef16d683b1ae6	0.48348555735394283
101	0x3fdcab44c01e68ca	0.44795340310669174
102	0x3fe14b95b01777db	0.540476650170372
103	0x3fd9a15cad2caffe	0.4004737559469048
104	0x3fdcf12daf6a9088	0.4522203648614398
105	0x3fe0a3ed95967add	0.520010749973007
106	0x3fdadee14cd577ee	0.4198535204249073
107	0x3fdd3f7a408c95bf	0.4569993620264902
108	0x3fdce57c04214a95	0.45150661853146207
109	0x3fe101dc8e81654c	0.5314772399243934
110	0x3fde2711ea7f630d	0.4711346426025081
111	0x3fe0b6de06d2a8c7	0.52232266743274
112	0x3fe19e55268fcb2b	0.5505777123601993
113	0x3fe2f03027c312b7	0.5918198372460982
114	0x3fe00e11106eafeb	0.5017171212143671
115	0x3fe057eabc3a6d64	0.5107320476849222
116	0x3fe4cc77174044f9	0.6499591306802862
117	0x3fe14bf74eb8756b	0.5405231988440112
118	0x3fde95257409d1a3	0.47785316783781634
119	0x3fdd79f298fac702	0.4605680936757467
120	0x3fddb09abf1efd8e	0.463904081956536
121	0x3fdc7e048d7d73bd	0.4451915151346915
122	0x3fe22fbec6614b32	0.5683282732592032
123	0x3fe0bd187b184623	0.5230829624362666
124	0x3fdebccde5718643	0.480273698869585

weights_imag f8 [125]
0	0x3f8405080456ddfc	0.009775221474099809
1	0x3fb7561e6cad62bf	0.09115781930212118
2	0x3f80a6b976331f08	0.00813050167052111
3	0xbfa397358f37bf9e	-0.038263009770047804
4	0x3f99e1eeefaad22d	0.025275929811600917
5	0xbfa6ed618ff0f1d4	-0.044779824086137815
6	0x3fd4682d1fda1244	0.31885841475039833
7	0x3fd90ff30d5b266f	0.3915984754972674
8	0x3fd56c7ecd2d4fb9	0.33474702870193657
9	0x3fd3c475c1d8be13	0.3088659661325163
10	0x3fcf140041402151	0.24279788194713572
11	0x3fd4f3bdea06f27f	0.3273768220349566
12	0x3fdbee627c9b42f9	0.43642484825708966
13	0x3fc76a74ce37dc00	0.1829362875866707
14	0x3fcf09d5107ad19f	0.24248755745578607
15	0x3fc1b4b42b74dffb	0.13832714197064874
16	0x3fc7eda1f68ed20b	0.1869394735237083
17	0x3fc71caa65ec8271	0.180562305228722
18	0x3fb7a98096320fcf	0.0924301497162212
19	0x3fd0d3b89468ca33	0.26292242520426895
20	0x3fbdcf9e7a456573	0.11644926533826609
21	0x3fa4b8002b802729	0.04046631365788606
22	0x3fca8cc489697e5d	0.20742088994574007
23	0x3fc425923a013994	0.15739658195748218
24	0xbf9ada0cc8de5266	-0.0262224195099229
25	0x3f92f893c998a3ed	0.018526372127016733
26	0x3f906193c428fe5d	0.015997227523483527
27	0x3fb91fb5ff59b691	0.09814012035504961
28	0xbf99700b33d6116e	-0.024841475523787286
29	0xbfa23f81b85f8be1	-0.03564076781892545
30	0xbfa212c3ae95bb3c	-0.03529941087878405
31	0xbfb6829c0fd9d24a	-0.08793044459327706
32	0xbfb6f78cc0b60eae	-0.08971481041776982
33	0xbfb8081242297d4c	-0.09387315860066286
34	0xbfa60dab5efd630e	-0.043073039384301834
35	0xbfc00fb8152860fb	-0.12547970803348804
36	0xbfbff1adced8e80c	-0.12478147792799649
37	0xbf9c6498938fe697	-0.02772749329230936
38	0xbfc394289a2fc971	-0.1529589417328441
39	0xbfaea013e210d68d	-0.059815045686645175
40	0xbfc8b77b4b73e498	-0.19309941467489433
41	0xbfacce59c1fa2ded	-0.056261830262055536
42	0xbfb5e602ed95ae70	-0.08554094601066153
43	0xbfb79f55656cd98a	-0.0922749874706367
44	0xbfc236dd021e7eb5	-0.1422992954585333
45	0xbfcb02b98bf33832	-0.21102065404414955
46	0xbfc0946bb8034d46	-0.12952944264416483
47	0xbfc7559c43d6b718	-0.18230012237966586
48	0xbfd0d1f105796b0d	-0.26281381163214307
49	0xbfcb710e29e8efe8	-0.21438767477400167
50	0xbfd01fbc1b9233de	-0.2519369382142126
51	0xbfc7b120fac60539	-0.18509304280090946
52	0xbfd156227f7db20c	-0.270882248404434
53	0xbfc8d98bfba23900	-0.19413900172043697
54	0xbfcb27d7312985d4	-0.21215333843706097
55	0xbfcb3db40d38020d	-0.21282053609321885
56	0xbfcba4ea6f709621	-0.21597032967945132
57	0xbfcd49e685bd21d7	-0.22881776361670234
58	0xbfd03598f7a0b017	-0.25327133352652836
59	0xbfca7f0a3ac589cb	-0.20700195188244516
60	0xbfd26296ba3b9093	-0.2872673815420594
61	0xbfd656e257bcc6c7	-0.34905298774820576
62	0xbfd5c37014909b4f	-0.3400535775021369
63	0xbfccda0b6d43672a	-0.2254041942131207
64	0xbfd432894b632cab	-0.3155844913678247
65	0xbfdc7f8b08017058	-0.4452846124820602
66	0xbfd0ed248e55e4f2	-0.26447404766038496
67	0xbfd6d5bd24f31cd0	-0.3567955838047512
68	0xbfdf900f2dd9d3f5	-0.4931676814806559
69	0xbfd69ac2a3ae398b	-0.3531958197062514
70	0xbfcd369475dff331	-0.22822814708333675
71	0xbfd4ca4de9aff1ca	-0.324847677431333
72	0xbfd51e735076a056	-0.32998354776146266
73	0xbfdcfc9e46486d95	-0.45291859496657
74	0xbfd985a6fb7990cc	-0.3987824874696002
75	0xbfdd3b27e56be906	-0.45673558620877974
76	0xbfd6a3e982c62536	-0.35375440379046397
77	0xbfd6ca8da2808285	-0.3561128699239265
78	0xbfd6e4fdee1afaee	-0.35772655727843883
79	0xbfd695ee1fb6ede1	-0.3529010114395686
80	0xbfdb931eda175760	-0.4308545236393595
81	0xbfdb925b9cd55c40	-0.4308079749657203
82	0xbfd701b7f17b64bb	-0.3594798906538689
83	0xbfda2d6fa0303586	-0.4090231956805258
84	0xbfda0440b4448aa6	-0.4065095673014788
85	0xbfdace1a092996d8	-0.41882944960376056
86	0xbfd925cfe969a903	-0.3929328708096735
87	0xbfd898367be21a2a	-0.3842903337285032
88	0xbfdb2eb4587b7366	-0.42472561493723615
89	0xbfd793a3ba2386e1	-0.36838620355238844
90	0xbfda4f3f3bf340d0	-0.4110868535472152
91	0xbfe19ffc2b4975df	-0.5507794232796036
92	0xbfdff88af62af566	-0.4995448497755518
93	0xbfd828dd8c3f04c9	-0.37749422737040256
94	0xbfdcac4911cbc01a	-0.4480154680049978
95	0xbfd7f1b33d442294	-0.3741272066404602
96	0xbfdb2343c19d8ffd	-0.4240273848320156
97	0xbfde4aa91531c722	-0.47330691404123304
98	0xbfdb05c680fb24b6	-0.42222750278285603
99	0xbfd8f06d295e12e3	-0.38967446365158603
100	0xbfdef16d683b1ae6	-0.48348555735394283
101	0xbfdcab44c01e68ca	-0.44795340310669174
102	0xbfe14b95b01777db	-0.540476650170372
103	0xbfd9a15cad2caffe	-0.4004737559469048
104	0xbfdcf12daf6a9088	-0.4522203648614398
105	0xbfe0a3ed95967add	-0.520010749973007
106	0xbfdadee14cd577ee	-0.4198535204249073
107	0xbfdd3f7a408c95bf	-0.4569993620264902
108	0xbfdce57c04214a95	-0.45150661853146207
109	0xbfe101dc8e81654c	-0.5314772399243934
110	0xbfde2711ea7f630d	-0.4711346426025081
111	0xbfe0b6de06d2a8c7	-0.52232266743274
112	0xbfe19e55268fcb2b	-0.5505777123601993
113	0xbfe2f03027c312b7	-0.5918198372460982
114	0xbfe00e11106eafeb	-0.5017171212143671
115	0xbfe057eabc3a6d64	-0.5107320476849222
116	0xbfe4cc77174044f9	-0.6499591306802862
117	0xbfe14bf74eb8756b	-0.5405231988440112
118	0xbfde95257409d1a3	-0.47785316783781634
119	0xbfdd79f298fac702	-0.4605680936757467
120	0xbfddb09abf1efd8e	-0.463904081956536
121	0xbfdc7e048d7d73bd	-0.4451915151346915
122	0xbfe22fbec6614b32	-0.5683282732592032
123	0xbfe0bd187b184623	-0.5230829624362666
124	0xbfdebccde5718643	-0.480273698869585

weights_minus_real f8 [125]
0	0xbf9429a380b692c2	-0.019690088969258175
1	0xbfa44002859bba20	-0.03955085640869904
2	0x3fb7ca0acbdc7491	0.09292666890219638
3	0xbf89b530e5e08370	-0.012552625670709111
4	0xbf7e91d76a968637	-0.007463304014352404
5	0x3fd37195c12ab651	0.303807676925179
6	0x3fd722833b91256b	0.3614814836224329
7	0x3fd80400fb73f9eb	0.37524437480888534
8	0x3fd4aa04c870dcc3	0.32287711691192217
9	0x3fd28f95d8712fcd	0.29001375328948314
10	0x3fd875a3a2dd13bf	0.38218012718817457
11	0x3fd10e30ecd6f51b	0.2664911568534351
12	0x3fd52654c975e539	0.330464550722883
13	0x3fdb55daa10c82b8	0.427115113519942
14	0x3fc3244d81b6020e	0.14954537232917214
15	0x3fc00b24a59c64ca	0.12534006201238973
16	0x3fd2c63dfe956cb6	0.29334974157036287
17	0x3fbc050295ebba52	0.10945144806076115
18	0x3fc80f307de69437	0.18796354434485504
19	0x3fc5dbd7bcd06b75	0.17077156753006376
20	0x3faf348a76ea72c2	0.06094773007973721
21	0x3fb913822b39d1ac	0.09795392566031208
22	0x3fc411be014d6bfb	0.15679144919963037
23	0x3fc3404447d470b9	0.15039876468006755
24	0x3fac78eef51aebaa	0.055610148830474174
25	0x3f9c89340ff02dce	0.027867139313497984
26	0xbfba60067f9f2e9c	-0.10302773109213564
27	0xbf9d0f6e2d4f367e	-0.02837917472407136
28	0xbf7d7d40a26e7564	-0.007199528196818992
29	0xbfc032cd17040cb2	-0.12655032752818368
30	0xbfb3952cebdd140b	-0.07649498709095341
31	0xbf836a77856d4011	-0.009480413207398926
32	0x3f559bc7a32664ca	0.0013188790877392436
33	0xbfbc8a38619d5246	-0.11148407347838782
34	0xbf805d827d733b6d	-0.007990855649408346
35	0xbf82c7c47919dbb9	-0.009170088716229917
36	0xbfc0f401b5a7c5cf	-0.1324464928616593
37	0xbfbf83db59b9f56a	-0.123105725675449
38	0xbfb6610d8882101e	-0.08741840918270369
39	0xbfb88b3f6a804d35	-0.0958747515690462
40	0xbfc11aa5d5622fd4	-0.13362572592848088
41	0xbfd32285f2c6af9d	-0.298982131086399
42	0xbfd0aa077fa66d50	-0.2603777643759786
43	0xbfc53d35f731b267	-0.16593050546670726
44	0xbfcd264f5b0aca78	-0.22773162789743018
45	0xbfcc2d2d302a1a98	-0.2201286778619831
46	0xbfc4fca3b4b38856	-0.16395994494729632
47	0xbfd2140914ae2f2d	-0.2824728681523421
48	0xbfc7ea12d8b02d2a	-0.18683085995176302
49	0xbfcdaf966d71b2f6	-0.23192100852920533
50	0xbfd2f6cc3aa9b0d1	-0.2963133404616772
51	0xbfd52695dde134b2	-0.3304800669473692
52	0xbfd519dfe0eaa425	-0.32970425571926604
53	0xbfcd6c795ec23b54	-0.22987286688700215
54	0xbfd7c884515877b3	-0.3716135782614131
55	0xbfd3095b0d44e457	-0.2974460248547692
56	0xbfd38465a8313fab	-0.30495587754284753
57	0xbfd57abb44a7d688	-0.3356159372773182
58	0xbfd5bb4d872606f3	-0.33955705831623034
59	0xbfd1c2af8e8430bd	-0.2775076762925542
60	0xbfdbab0459807bde	-0.4323130487481971
61	0xbfd9708d5cad160f	-0.397494640831014
62	0xbfe2cab0e3ebbad0	-0.5872425510004522
63	0xbfd74ebf1c84c329	-0.3641813066961271
64	0xbfda60067f9f2841	-0.41211092436845226
65	0xbfe1b8845dbeedc1	-0.553774054620071
66	0xbfddb8bd4c899845	-0.46440060114253284
67	0xbfdf0275c0524b75	-0.4845251443995758
68	0xbfd2b1a6889f9746	-0.29209292738083936
69	0xbfdd8afaf111f790	-0.4616076807213796
70	0xbfdff1adced907d3	-0.49912591171243753
71	0xbfdc078d621d149a	-0.4379609544888098
72	0xbfe2c96b7dd310d9	-0.5870873887547773
73	0xbfe61eb3b7148d43	-0.6912478042399147
74	0xbfe02205d35831f7	-0.5041531684706219
75	0xbfe0a8e2a3c37171	-0.5206158827309492
76	0xbfe14ea2a51f7114	-0.5408490395598471
77	0xbfe508144b917548	-0.6572362399998974
78	0xbfdc0543aa571681	-0.43782130846771145
79	0xbfe36e06a34c116f	-0.6071808995625768
80	0xbfdfa320294ba66d	-0.4943313983227203
81	0xbfe5866ceff11c7b	-0.6726593672145919
82	0xbfe1989cdb20d977	-0.5498794822549787
83	0xbfdd1d69905e2e46	-0.454920187935134
84	0xbfe35ee66459de3b	-0.605334468839778
85	0xbfde17d121577e94	-0.47020366912873013
86	0xbfe2275b248b5dd4	-0.5673042024381467
87	0xbfe405288e8c8985	-0.6256296905669819
88	0xbfe332285a8f91a8	-0.5998727577939933
89	0xbfdfa199aec7b02c	-0.49423830097544186
90	0xbfe287734b069844	-0.579034468207063
91	0xbfe240657fd7815e	-0.5703608986769202
92	0xbfe2647ed3608ac0	-0.5747675064524955
93	0xbfe287734b069844	-0.579034468207063
94	0xbfe093a87ac1456f	-0.5180246732290196
95	0xbfde4656ba1120c4	-0.4730431382236129
96	0xbfe3549aa95ef383	-0.6040776546502545
97	0xbfe3d006e2ec4939	-0.61914390869996
98	0xbfe4d8083853d34c	-0.6513711071153039
99	0xbfe55046f2a38b3a	-0.6660494555511385
100	0xbfe3c5bb27f161af	-0.6178870945105269
101	0xbfe854b7ce91ae7f	-0.7603415522148252
102	0xbfe6f5639325d1be	-0.7174547075251707
103	0xbfe600d4d7d1213d	-0.687601491467866
104	0xbfe25726235da6cf	-0.573138302873497
105	0xbfe603e1ccd91749	-0.6879738808572508
106	0xbfe4c0e5f62cb04a	-0.6485471542450878
107	0xbfde2d6ce8faab53	-0.47152254821655964
108	0xbfe42d943d363617	-0.6305638499777072
109	0xbfe60463f5afbfc3	-0.6880359457554664
110	0xbfe531022311ca54	-0.6622324643088384
111	0xbfe29408bdc78114	-0.580570574438783
112	0xbfe6da711eb4b735	-0.7141652679181109
113	0xbfe30aa0735d8e4e	-0.5950472119552133
114	0xbfe7866b94565434	-0.7351587197505354
115	0xbfe59d8f321842aa	-0.6754833200848982
116	0xbfe851aad989b219	-0.75996916282526
117	0xbfe77ecb2fc26525	-0.7342277462768477
118	0xbfe9da2e00e1368d	-0.8078832642729182
119	0xbfe37dc9954a9e63	-0.6091049114083485
120	0xbfe5bfc06c7c51df	-0.6796571844920968
121	0xbfe24b95024a154e	-0.5717263264383889
122	0xbfe64823b76b8ac9	-0.6963060934470714
123	0xbfe66377ca7da93d	-0.6996420817279511
124	0xbfe428e043749557	-0.6299897496689181
