optimal_weights.npz (npz, 241070 bytes, 4 tensors)

weights_real f8 [7500]
000000 5e 31 7d 77 d7 09 c1 bf ea 22 b3 1a 18 19 c5 3f
       -0.13311284384179606 0.16482831290911487
000010 db 3f 76 14 95 f5 b6 3f 8e 97 ea 26 c4 82 a8 bf
       0.08968478917654414 -0.04787266707471281
000020 61 f3 54 fa 59 5d cd bf f8 75 e5 c7 a3 0e 7d 3f
       -0.22941136096224127 0.0070940396966228045
000030 75 a2 40 78 65 13 b9 bf 15 ad 2d 5a 2c 69 c3 bf
       -0.09795221505977188 -0.15164713290446544
000040 0a 17 c4 9f 06 34 a2 3f b7 0c 73 21 ff 75 c2 3f
       0.0355531759287669 0.14422597058555706
000050 89 e2 1f a2 44 d4 b1 3f aa e2 f4 24 32 c8 b6 3f
       0.06964520414465815 0.08899224664936392
000060 8d 26 60 af 4d 10 ab 3f d9 6d 4c 9c c2 0d a4 bf
       0.0528587605077294 -0.039167481974995595
000070 18 01 8d 68 a0 dc be 3f 3b cd ff 48 ef 1e 99 3f
       0.12055399467954364 0.024532069044608234
000080 3f b4 03 1b 66 77 d0 bf 15 06 d2 af 38 a3 91 bf
       -0.25728752744800326 -0.017224202853418264
000090 d5 76 81 b4 aa 39 b8 bf ad 11 1e f6 7c 48 c2 3f
       -0.09462992579343717 0.14283716218427625
0000a0 05 ea b1 73 d0 99 a2 3f 95 a1 04 39 86 d7 a4 bf
       0.036329759715005884 -0.04070681997319806
0000b0 c5 08 6b bf 0a 94 d5 bf a7 82 91 18 2a ac b5 bf
       -0.3371607655827911 -0.08465827083410692
0000c0 2a fa 8f 93 af 41 c1 3f 1b af 4a 67 ab 51 d3 3f
       0.13481707291789863 0.3018597134312004
0000d0 85 31 45 ee 14 8b ac bf 0b d5 87 f0 bf a0 b9 3f
       -0.05574860962460363 0.10010909674004524
0000e0 b5 f5 54 69 03 8d bf 3f dc b9 a3 f3 36 d3 ce bf
       0.12324544259623489 -0.24082075973951944
0000f0 3e 66 d8 3b 99 e1 d4 3f 5b b4 39 b4 1e 00 d0 bf
       0.3262694439341408 -0.2500073204053643
000100 dd ed 72 4f ad e6 c9 bf 8a 12 f3 b6 26 ed 87 bf
       -0.2023522031721389 -0.011682798822570523
000110 2d 0b e4 b7 60 2a d0 bf b4 c8 af f6 a4 54 c0 bf
       -0.2525865360077429 -0.12758314175841223
000120 ee 87 05 0a aa a8 92 bf 3c 5a ff 6f 8c 62 ca 3f
       -0.01822152792136216 0.20613246410967345
000130 6a 8c 20 e1 53 ad 9f bf b5 65 85 c6 4e ef c6 3f
       -0.03093463002745659 0.1791780919400431
000140 64 64 62 8f 21 b5 c3 bf 71 21 95 78 c8 00 92 3f
       -0.15396518231571854 0.01758111225106646
000150 83 eb a4 e3 98 88 ca bf 3a 21 7b f6 7e e0 be 3f
       -0.2072936164421116 0.12061303632356593
000160 22 83 98 bd 0a ca 9d bf ec 4a a9 aa 81 ad c5 3f
       -0.02909104139519337 0.16935749848433745
000170 e7 88 ad c6 85 d8 d5 bf f0 93 50 06 a9 00 d0 bf
       -0.3413404884542061 -0.25004029862094423
000180 2f b9 ef 85 e4 f6 b3 bf 2f 8b ce 1e 9d 95 c2 bf
       -0.07798603315288653 -0.14519084934462387
000190 ef 10 8c 07 04 d7 b7 bf b5 59 61 1b 28 27 68 3f
       -0.09312462982422053 0.002948358854193612
0001a0 ce ea bb fa a5 e6 a3 3f 02 e6 b5 2c 3c 9f 9d bf
       0.03886908231466678 -0.02892774603740201
0001b0 bb 92 09 23 77 62 d9 bf 68 7b 53 bb a2 43 d6 bf
       -0.39663484975453017 -0.34787815373959186
0001c0 56 9f 09 c9 a3 04 d3 bf 10 03 a2 86 f9 59 c3 bf
       -0.29715819008423716 -0.1511833102595337
0001d0 c4 f9 c1 77 e6 ba c3 bf 91 c8 0e fe 07 9b d5 bf
       -0.15414124343437952 -0.3375873547585196
0001e0 27 06 ed 12 79 83 da 3f d0 9b 0f b0 d5 b0 d3 bf
       0.41427447174291604 -0.3076681346269057
0001f0 fb af e9 43 11 8b a9 3f 56 86 82 bb 6b 44 c8 3f
       0.04988912538541964 0.1895880380225658
000200 37 51 7f 78 8a ed 91 3f 97 f2 93 cb e2 f0 b8 3f
       0.017507709126065776 0.09742562742389747
000210 87 13 85 0f 89 99 c2 bf e6 3a 14 98 75 03 c4 bf
       -0.1453105283527771 -0.1563555710385664
000220 e0 d3 ee 5c 66 11 67 bf 3a df f4 58 6e 8f b3 bf
       -0.002815914085170665 -0.0764073340586692
000230 e9 f5 50 c5 75 f6 d0 3f 01 7b f5 48 10 2d a4 bf
       0.265042727176335 -0.039406308084599224
000240 14 ff f6 59 21 73 b4 bf 90 c9 85 64 c8 91 e0 3f
       -0.07988174864203429 0.5177957499820867
000250 bb b4 71 3e 7c 2c c7 3f 30 a9 96 bf 86 ba c5 bf
       0.18104508446723408 -0.16975483279140624
000260 a9 69 e5 13 0d 8d a1 bf a6 87 a5 f2 98 7e bb 3f
       -0.03427925937531324 0.10740047382344517
000270 d2 15 07 ab 33 23 bc bf 12 39 f8 5d 83 fb 97 3f
       -0.1099121372745551 0.023420384035540094
000280 73 a0 a4 2e 44 df bc bf 5f d6 2d 45 3e c0 85 bf
       -0.112781773936719 -0.010620581136872418
000290 dc 15 ae 56 c6 c1 da bf d4 58 18 d0 98 78 7a 3f
       -0.4180770727619725 0.00646266644027645
0002a0 8d 1f ce b1 94 c0 ba 3f 91 f3 a0 7f 38 4f c3 bf
       0.10450105038591868 -0.15085512382384228
0002b0 13 c5 54 12 97 4e c6 bf 1c 52 65 53 5b d6 bf bf
       -0.17427338023257075 -0.12436457429914366
0002c0 48 10 cb 8d 01 88 d3 3f 0a 48 6c 2a 07 0f be 3f
       0.3051761517238032 0.11741680894581932
0002d0 05 a2 fa c3 3f b1 a4 bf 7f 7a 45 9e a9 3f b8 3f
       -0.04041480319330407 0.09472141374633657
0002e0 fe bc 6c 53 b5 a2 de bf cd 00 83 b5 9d 05 ce bf
       -0.4786809267706785 -0.23454638827207078
0002f0 36 84 d0 58 5c 6f b3 bf 93 03 a4 e1 87 38 ab 3f
       -0.07591797989199808 0.053165670675304665
000300 29 8f 55 ea fb fa ad 3f 2a b4 8a 91 b9 10 c8 bf
       0.05855548129582495 -0.18801040274175423
000310 8e 69 46 a2 2b 3c ae 3f d3 51 4c 0d ed 23 ce 3f
       0.059052814063039624 0.23547137402841986
000320 af f2 89 37 3e 72 a8 bf 0c e4 6e de 85 18 d4 bf
       -0.04774660518612472 -0.3139967605780505
000330 55 47 15 f2 d0 2d c1 bf 6f f1 96 31 5f be b0 3f
       -0.1342106992765887 0.06540484390911215
000340 91 1a 21 56 5b 85 d3 3f 55 19 46 3b b1 bd ab bf
       0.3050144520861205 -0.05418161247785017
000350 88 cf fd 30 dd e5 d3 bf 4f 3e 28 41 f7 56 c8 3f
       -0.31090478691407286 0.19015398675445502
000360 e7 78 ac eb f1 57 85 3f 41 84 da a1 75 0b c4 3f
       0.010421648029986531 0.1565997162151991
000370 0a 1b 53 2d c3 cc b6 3f 5d 05 57 16 89 40 d1 3f
       0.08906192642744429 0.26956393415101393
000380 1c 92 14 4c ec 10 cd 3f fa 1d fb 39 ea d3 cb bf
       0.22707895007000978 -0.2174046309576026
000390 d8 78 d4 a5 6d 8d d7 bf 50 a7 d5 33 f5 44 d0 3f
       -0.3680070990975657 0.2542088514515983
0003a0 c3 4b 08 5a 8a df bb 3f 76 a5 7d ad 54 cf c0 3f
       0.10887970636421955 0.13132723304014932
0003b0 d7 a9 68 26 e8 15 d0 3f 12 de 00 17 b4 6d ca 3f
       0.25133708716262276 0.20647288439953165
0003c0 ab 65 07 f3 4f 49 ce 3f f2 cb 0b 52 c0 df cf 3f
       0.23661231390614765 0.2490158463111523
0003d0 b1 38 05 4b d5 15 b1 bf 00 57 0f 0a c1 e5 db 3f
       -0.06673939782669681 0.4358980749360484
0003e0 66 57 6f d6 46 2d d3 bf 7f 00 3d b6 ec c0 c9 bf
       -0.29963847103987573 -0.20120009325365015
0003f0 e3 e0 74 e4 15 1d c5 3f 9c 44 41 2c bc ac cf 3f
       0.16495011954407976 0.247458955391754
000400 60 0d 8c 86 cb 80 94 bf dc 92 fe 25 2f 3e b5 bf
       -0.020022564017393107 -0.08298010518644666
000410 7c 73 23 4a 27 60 d3 bf 8b b7 9c b3 7f fb 94 3f
       -0.3027437423714259 0.02049064191594811
000420 34 99 3d f9 28 7e 87 3f b8 37 23 c9 06 e1 b1 3f
       0.011471099954814969 0.0698398819979208
000430 ad a0 b1 a4 dd 8c c6 bf 24 9c 3d f1 19 41 ca bf
       -0.17617388288204464 -0.2051117351468018
000440 35 69 fa 3a 10 f5 d5 3f d1 7f 7a 80 e4 f7 98 3f
       0.34308248290621474 0.02438313516779528
000450 e8 a0 cd ad e2 15 d1 3f 42 82 ee 2e e8 4e d3 bf
       0.26696078274700463 -0.30169109900638
000460 fb 3e 3a d5 b5 b9 c2 3f a5 91 1c 3a 77 ce b5 bf
       0.14629242812633678 -0.08518166702976389
000470 98 bb 2e b9 47 88 b2 bf 03 23 59 5d 07 12 c0 bf
       -0.07239197035845135 -0.1255501943399154
000480 f8 79 c7 f6 d7 23 8f bf a4 fb 75 f7 c7 bd 9f 3f
       -0.015205085009196914 0.030997395018399168
000490 fc 69 c6 1b 44 a3 ce 3f 0b 63 a5 e5 d9 86 cd 3f
       0.23935748439983218 0.2306778308218543
0004a0 fe d3 41 b3 52 ab a4 bf 06 c3 4f c3 84 1a c4 bf
       -0.0403695911235573 -0.15705928360650762
0004b0 55 91 4b 5b 17 71 8f bf e3 e0 ae a9 08 22 c1 3f
       -0.015352423165901167 0.13385113034542603
0004c0 c1 91 fe c8 14 35 d4 bf bc 19 5d af d8 24 b6 3f
       -0.31573981884346486 0.08649973183955856
0004d0 25 f6 be 7e a2 70 c7 3f 0e 52 fa c6 ae 6d b2 3f
       0.18312483967558638 0.07198612554413605
0004e0 09 42 41 53 29 42 bd 3f c6 98 4f 30 cd d7 d0 bf
       0.11429079325285597 -0.26317147939552077
0004f0 ba 84 e1 46 56 29 ac 3f 65 eb ed 86 82 4b d7 3f
       0.05500287642713304 0.36398375679680434
000500 18 2e d7 d2 0d 13 73 bf cd e6 c5 ee b3 b6 b0 3f
       -0.004656843183919367 0.06528782443447341
000510 e6 b8 28 f0 9d 35 ce 3f 8f b9 27 10 42 23 db 3f
       0.23601125933186679 0.42402698114065
000520 a5 8d ec 68 92 99 d6 3f 39 26 a4 9e fb 58 c7 bf
       0.3531232857369225 -0.1824030422797465
000530 59 dd 96 6a 63 17 d0 bf 7d 5e a3 35 40 dc 91 bf
       -0.2514275113021163 -0.017441752694905766
000540 d5 b7 a6 66 82 d2 a5 3f fc 69 db e9 51 49 b1 3f
       0.04262168410365034 0.06752502402688515
000550 02 e0 fe df 43 dc d4 bf 8c 74 a5 d3 42 c3 db bf
       -0.3259439170319639 -0.4337927882059567
000560 35 a0 b3 57 c6 7f cd bf 84 65 30 e9 a6 ec d1 3f
       -0.2304618767004755 0.28006909153335635
000570 7e 65 c4 20 1f 16 83 3f c4 0e 4d 3e 8a 80 a9 3f
       0.009319537341570646 0.04980880747328123
000580 54 8e 8a 72 6b f2 b8 3f e6 80 96 7c 1a 4f c4 3f
       0.09744903131882526 0.15866404612916724
000590 b4 f9 32 8a c0 d0 c2 3f 4a b1 28 1a 5a 13 a7 3f
       0.14699560878757512 0.04506951875041183
0005a0 fa b0 07 12 8e 2d bc bf 08 1c 03 ac fc 2f b3 bf
       -0.1100701135653174 -0.07495097350611968
0005b0 5d c9 8e 96 7e 5a c6 bf b5 f3 6e 31 18 9b b0 bf
       -0.17463667251065376 -0.06486655432577389
0005c0 75 96 42 b5 73 35 c5 3f e3 ab c1 7f 15 6c d3 3f
       0.1656937251147387 0.3034719226477007
0005d0 83 da 3a 5b 6e 1c b3 bf 3c c0 42 74 58 02 98 3f
       -0.07465257384579087 0.023446447463982376
0005e0 36 34 45 7c 1c 13 9f bf 1c 1d 7e 64 0a eb c3 3f
       -0.030346341214045412 0.15561036974779874
0005f0 b1 13 e3 17 32 75 d4 bf 5e 98 29 29 3a 95 a5 3f
       -0.3196530564567253 0.04215413811179823
000600 c7 33 64 bf 70 df c1 bf e3 60 c1 ca c0 c2 65 bf
       -0.1396313604858774 -0.002656342074299643
000610 14 98 01 50 60 07 d3 bf 11 c6 72 e0 13 f1 c8 bf
       -0.29732520878894886 -0.19485710582152696
000620 43 2a 09 eb 80 53 b2 bf 38 ff 82 84 b0 86 9c 3f
       -0.0715866636102556 0.027857549751160365
000630 76 1e b8 f0 00 34 c1 bf 9b 8e dd 7d cc a9 96 bf
       -0.13439952615611944 -0.022132106001108025
000640 5c 06 b8 01 c2 f8 de bf d9 ce 5f 27 04 8d c1 bf
       -0.48393297355514675 -0.13711597368784714
000650 15 5b e1 3c e6 79 c9 3f 0b 17 27 3d 8d 31 d4 bf
       0.1990325734393187 -0.315524396628789
000660 8f 1b 3f 24 d8 27 a6 3f be 91 d1 0f d2 a2 d1 3f
       0.043272737908004115 0.27556277794635864
000670 7d 99 38 19 c0 79 c7 bf 1d b9 85 8f a3 6b bc bf
       -0.18340302688120494 -0.11101743940318838
000680 82 c6 c7 27 a5 2e ae bf 73 8b 44 9a 27 43 b2 bf
       -0.058949624162676365 -0.07133719936659393
000690 97 05 d2 db 65 2d b1 3f b0 4e f7 37 54 5e b6 3f
       0.06709896675785952 0.08737684599264628
0006a0 42 4f b3 b2 8f 50 ca bf 23 3b 37 72 88 34 86 bf
       -0.20558353639227717 -0.010842386231983142
0006b0 37 5b f0 84 c6 72 ba bf 7e 68 e2 3e e7 8f b7 bf
       -0.10331383462503828 -0.09203954015029756
0006c0 a9 a2 ed 40 d7 d1 ab 3f 86 fb 05 6c 54 f8 c1 bf
       0.054335333514989266 -0.14039092325762342
0006d0 7e 0a 0c e9 94 cc c1 bf d7 30 48 28 64 ce a4 3f
       -0.13905583743333588 0.04063714019511771
0006e0 c1 65 8f 0f 68 8b 97 bf f0 21 fc ca d0 0d c1 3f
       -0.02299273104640576 0.13323411857005807
0006f0 5b ce dc 35 e0 31 c8 3f b0 fa e9 d9 07 dc b6 bf
       0.18902208929067651 -0.08929490156331599
000700 1a 9f 27 85 91 80 c4 bf 3f d2 2a 78 27 00 b9 bf
       -0.16017359735200715 -0.0976586025597692
000710 c5 7e 77 60 33 18 bf 3f 5d 6c 28 bf d0 2a bf bf
       0.12146302323480558 -0.12174706141415599
000720 7d 17 ee b4 10 48 cc 3f ae 94 dc b9 7f a7 d8 3f
       0.2209492572257509 0.3852233233504404
000730 cc f9 d2 91 0d ff bb bf 2d f3 1b bc cd a8 b2 bf
       -0.10936055002364425 -0.07288823931226025
000740 5d d2 ee e0 ed af 95 3f 95 1b 50 3e ff 6b be 3f
       0.021178929189505136 0.1188354041224627
000750 bf 80 27 87 12 67 bc bf c5 75 8b a0 a9 cc b7 bf
       -0.11094775962510804 -0.09296665353345819
000760 c1 ab 4f 9a ae 75 e0 3f ab 4e bb eb a5 f0 d2 bf
       0.5143654836550625 -0.29593799610777677
000770 90 84 a3 be 77 35 c1 bf 6d 96 9f ea 8f 30 c3 bf
       -0.13444420631916332 -0.14991949993343515
000780 3f f2 e0 e5 91 12 d2 3f 4c d0 48 4e b3 df b8 3f
       0.2823834175976891 0.09716339741936614
000790 72 f4 25 17 76 6b c4 bf 1d 36 48 8f fe c0 c9 bf
       -0.1595294583347911 -0.20120222088046172
0007a0 7e ca 13 98 a5 b1 c7 3f 0a 97 47 88 0d 08 96 bf
       0.18510885167741614 -0.021515094225740085
0007b0 62 9c 86 b3 61 5c b7 bf 28 b5 0d 57 b0 e1 91 bf
       -0.0912533820434063 -0.017462497056319
0007c0 91 ea 3c 54 1a 60 d7 bf 95 86 14 d6 11 40 c2 bf
       -0.365240652335765 -0.1425802512467739
0007d0 05 79 fc c9 d2 fd c9 3f 39 e8 a6 53 05 d6 ce 3f
       0.20305857527359464 0.24090639671868688
0007e0 bd 31 34 3e d7 81 c4 bf 4f a4 15 e1 b4 a3 af bf
       -0.1602124265413191 -0.06179585692991251
0007f0 66 97 ef bb a1 a4 c8 bf af 73 b6 cd 70 01 c1 3f
       -0.19252416302259262 0.13285646481099664

weights_minus_imag f8 [7500]
000000 74 b8 32 65 e4 5b 8e bf 85 aa 5a 3a dc 90 c3 bf
       -0.014823707903215168 -0.1528582844669765
000010 d0 24 6d d5 9b e6 b2 bf 85 42 fe 09 40 a2 c2 bf
       -0.07383130989650799 -0.1455764817042288
000020 6a 4e 72 29 5e d5 b5 3f d4 b1 b5 54 97 0a c1 3f
       0.08528698455693876 0.13313571583002093
000030 b2 f5 61 75 b3 ff a8 bf 43 c5 9a 5c d3 75 ca bf
       -0.04882584388631574 -0.20672075292308464
000040 32 57 16 18 f0 90 c1 bf 5e f9 d5 35 46 7d b4 bf
       -0.1372356526960004 -0.08003653349257919
000050 87 ab 28 df ec aa b1 3f 0f b5 00 96 8b 51 78 3f
       0.0690143627950147 0.00593714261780788
000060 f1 2a 35 c4 67 d3 e1 bf 97 a8 fd b4 74 be b3 3f
       -0.5570563156300904 0.07712487620088591
000070 91 12 4d 29 ac 11 bd 3f a3 cd 7d 3b 4c 1d a2 3f
       0.11355091102911731 0.035379774343620406
000080 66 59 75 8e fc 06 c9 3f c2 34 64 67 16 cb c2 3f
       0.19552571254707657 0.14682273910913152
000090 06 c5 7e 53 ce ec bf 3f df ea d6 5d e6 c6 bc 3f
       0.12470712221581345 0.1124099711513895
0000a0 73 5c 91 da 7d 35 c6 3f f0 ff 46 76 be c9 b9 bf
       0.17350743458038984 -0.10073461902265968
0000b0 38 8d 6c ef 79 32 b6 bf 4b 8f e0 7e 1f 31 b0 bf
       -0.0867077073603938 -0.06324955794894753
0000c0 b2 ea 65 e1 22 76 bd 3f c8 63 28 41 e7 1c a7 bf
       0.11508386614688496 -0.04514238996870962
0000d0 60 db c6 c3 b9 e0 bb bf 31 20 9c 37 47 82 a8 bf
       -0.10889779119211829 -0.0478689437277925
0000e0 3f 74 2a 9d c7 ab e2 bf 40 18 a0 50 1c d9 7f 3f
       -0.583469206776165 0.007775412183042063
0000f0 b3 bf 47 ea d7 cb d7 3f ea 9d 65 46 6c 30 ce bf
       0.37181661490376 -0.23585275113440157
000100 be 72 e5 65 c9 10 ba 3f 3e 8b da ee 71 9a ca 3f
       0.1018186448831768 0.20783828890588468
000110 ba 3d 82 2a 35 e8 dc bf 0f fc 7d d8 83 49 c9 bf
       -0.45167283202405495 -0.19755600043205887
000120 f0 4b 0b 87 0a f1 a4 3f 73 de b0 0c a6 3d c6 bf
       0.04090149782646069 -0.1737563669173486
000130 03 8d 02 44 c4 89 ce 3f 48 a2 b4 5c 16 de f6 3e
       0.23857930489348442 2.180817481903439e-05
000140 bb b5 f6 8a 2e 66 88 3f cf 14 64 38 aa 32 a9 bf
       0.011913646331630603 -0.04921466768613813
000150 a0 b8 94 4e 3c d1 cc 3f d6 fc 2f 74 8f da bc bf
       0.22513536297760073 -0.11270996653182705
000160 22 a8 57 53 27 6d 88 bf 27 e0 f1 88 08 87 ab 3f
       -0.011926943999203191 0.053764597622773906
000170 38 9f 5b c4 56 d8 be 3f a7 c1 a6 f6 fa 06 af bf
       0.12048857015508652 -0.06060013066178565
000180 e3 62 85 83 d2 49 b4 bf d4 23 db 7c 39 3a b8 3f
       -0.07925143919909376 0.09463843630068364
000190 7d 57 92 fb e4 40 d5 3f 1f 37 ed 5b 7b e2 d1 3f
       0.3320858437303896 0.2794483564110681
0001a0 6e 02 75 44 6f 34 a0 3f 20 f9 aa 99 d5 18 c9 bf
       0.031650044542861674 -0.1960703850108496
0001b0 ba 2a f2 69 8a ba a8 bf 84 e5 97 32 92 72 cb 3f
       -0.04829819243703555 0.21443393202188699
0001c0 ea 7a b6 84 56 cb a7 bf 05 9a bf 18 5b a6 af 3f
       -0.04647322053937393 0.06181606938462284
0001d0 69 39 46 1f 92 73 c5 bf b2 dc 7b ab a3 db c8 3f
       -0.1675894406038865 0.19420286057695574
0001e0 b4 a1 90 63 15 eb 9c bf d4 0e cd 98 44 8f c9 3f
       -0.028240522577250807 0.1996846910570783
0001f0 7f 6f 74 3c a0 df a7 bf d5 04 4d f9 9c 2e b0 3f
       -0.04662800538991884 0.06321126066633849
000200 2b ef 47 2f b5 e3 7f 3f fc b9 ec 00 0a d1 cb bf
       0.007785518410397245 -0.2173168663516235
000210 a0 25 d1 ce f6 57 b9 bf ad 20 73 33 86 ff d2 bf
       -0.0989984755443829 -0.29684596084963283
000220 c5 cf 6b ea 09 60 ca 3f 93 a6 09 80 89 ce c9 3f
       0.20605586954445534 0.20161551238861772
000230 ed 1a 99 a3 2c 7e 4a bf 40 8a 4e d1 b1 b8 91 bf
       -0.0008084981884131905 -0.01730611648566538
000240 d5 d1 d7 b7 51 2b bb 3f e1 99 92 aa a3 f6 cc 3f
       0.10612974871020893 0.22627683476203145
000250 6c 4b 8d df 38 d5 bb 3f 93 88 e2 22 c8 45 c1 3f
       0.10872226198016016 0.13494207099308095
000260 50 da 8d 92 fc 5d c0 bf 9a 75 fc fd 0e c5 a6 bf
       -0.12786824375116845 -0.044472187523051335
000270 51 50 75 3c 40 83 b0 bf 29 51 c5 58 dd d9 d5 bf
       -0.06450273014098797 -0.3414224020864532
000280 9a 9c e3 52 67 92 c5 bf 83 4a 3a 4b 90 8a bd 3f
       -0.1685303835613226 0.11539556347478634
000290 39 17 a3 6b 0d c4 b7 bf a5 55 20 30 1c ae c0 3f
       -0.09283527257784109 0.13031341886441541
0002a0 6e 46 25 fb ae e0 d4 bf 70 12 ec 30 a4 27 b0 3f
       -0.326213593730336 0.06310487932575781
0002b0 ff 0b 75 6a fe 2d 99 3f 9d 4a 5d 70 2e 9e cf 3f
       0.024589514968521794 0.2470148132948297
0002c0 76 27 88 11 6f 31 ce bf c6 01 0d 4c a2 7e cf bf
       -0.23588360172316997 -0.24605206216257453
0002d0 21 87 94 04 9f c4 c2 bf 90 1c 0d c9 e8 41 a4 bf
       -0.1466254017223543 -0.039565348188767335
0002e0 24 d9 41 65 78 80 d9 bf 84 39 d0 c2 65 1e c6 bf
       -0.3984662045326266 -0.17280265819904284
0002f0 92 80 59 d5 32 1b 8f 3f 7f 80 aa 3a 7a 11 c5 3f
       0.015188595901406896 0.16459586967994608
000300 a7 4b 6f 23 4b 59 aa 3f 00 33 ac e8 c2 83 bc 3f
       0.05146250541260793 0.11138551884159753
000310 a7 a4 13 79 57 93 c8 bf 96 8c 3a 63 9d cd 82 3f
       -0.1919965115733124 0.009181241598815764
000320 2e f0 7f ca 06 89 c5 bf fc ea e3 1e 0b 57 b6 bf
       -0.16824421775516057 -0.08726567749173947
000330 01 41 ee 09 0c da be bf 91 be fc ad a3 79 b2 bf
       -0.12051463358352878 -0.07216856954323193
000340 a7 48 c9 e8 6a 9d 6c bf 09 a4 4d b5 02 05 b4 3f
       -0.0034930313179667052 0.07820145536756241
000350 1d 8a b4 a9 22 a7 ce 3f 71 e0 7e 59 5c 43 c5 3f
       0.23947556768787673 0.16611818666365566
000360 39 e2 3a e6 26 5c 8a 3f b3 9a 54 ca 6a ee c2 bf
       0.012871078396856738 -0.14790091399591673
000370 34 27 21 29 50 5f af bf 32 6f 6a 89 9d 08 a7 3f
       -0.06127405645436426 0.0449876051181647
000380 b6 e1 97 47 70 e1 b7 bf ba c3 ac 36 5d c6 92 bf
       -0.09328366992838863 -0.01833482404908058
000390 84 30 52 52 1f 12 c5 bf 9c 50 c2 0c ff 6f bc 3f
       -0.1646155502279535 0.1110839277410513
0003a0 74 e0 62 ba 40 f5 ba 3f 74 e5 d4 ba 1b 4e d0 3f
       0.10530476141400574 0.25476735348964685
0003b0 4d 4d 0b 4e 0e 35 b6 bf f6 62 7b ef 2d cb a3 3f
       -0.08674706845640863 0.03865951107372283
0003c0 b1 98 d6 a6 20 71 c8 bf 6f 68 9c a9 1f 86 c3 bf
       -0.190952378715513 -0.15253062993798802
0003d0 5c 37 66 c7 64 9e ac bf 9e a5 e6 67 ba ec b6 3f
       -0.05589594778130788 0.08954968487400669
0003e0 47 80 bb ea b7 1a cd bf b2 21 5f fe 6d d0 d2 3f
       -0.2273778816370415 0.29397153702714285
0003f0 13 64 a0 43 2d 33 8e bf 49 80 96 f3 d2 bb d3 3f
       -0.014746049524591276 0.3083388689792668
000400 08 95 af 1f 9b 6d d6 3f c7 a4 90 10 7b cb bf 3f
       0.3504398164207747 0.12419861940783782
000410 4c 51 2c 8c 87 8e a4 3f 30 69 be ee 61 87 d2 3f
       0.04014991365525819 0.2895130950434064
000420 a5 34 82 d8 78 64 c4 3f 1a d7 69 cf a8 de 79 bf
       0.15931616374692684 -0.0063158601902751025
000430 58 45 47 a5 1a 28 b2 bf 9f 72 db 1c b0 74 59 3f
       -0.07092443976514085 0.00155369947918086
000440 e9 04 fa 0c 9a cf c2 3f 3a 6b b4 aa 08 e0 d3 bf
       0.1469605029451835 -0.31054894132983046
000450 97 8e d7 15 62 a7 d2 bf a7 6d 74 a1 c9 25 b6 bf
       -0.2914662564564678 -0.08651409332053693
000460 ea 69 d8 71 46 55 b8 3f aa 4d 0b 6d 6c 8d c6 bf
       0.09505119590213665 -0.17619090389653752
000470 82 04 0e cb f9 91 b3 3f ab ac 23 f2 b4 74 c2 3f
       0.07644616324798117 0.14418660948954218
000480 c0 a5 40 8f b4 2e 8c 3f 40 63 bf 67 23 a7 c0 bf
       0.013760958310814142 -0.13010065618325406
000490 3f 25 fc e1 1f 29 c4 bf 6c 8c 44 42 cd 2e b3 bf
       -0.1575050214235407 -0.07493288867822095
0004a0 ff 31 52 ce 97 73 d6 bf 44 3f 26 62 e1 d9 81 3f
       -0.35080523632566946 0.0087163551404782
0004b0 dd c8 b9 f4 32 0e c1 bf 5a c1 c7 75 7f 59 b9 bf
       -0.1332458205175219 -0.09902187943931065
0004c0 41 cd dc d8 c5 28 c7 bf 9d 91 30 17 35 e9 b6 bf
       -0.18093178833951565 -0.08949596229701347
0004d0 e4 bf 14 33 14 72 d1 bf 1d bd 38 7e d9 85 c4 bf
       -0.27258782375701984 -0.16033476508298686
0004e0 7d 40 26 74 70 00 a3 3f 1e 9c b8 4c 0d f3 b9 3f
       0.03711272638167971 0.10136492846560016
0004f0 ea 77 99 cf 31 f7 d6 3f 7b 0e 43 8b 87 a9 a8 bf
       0.35883755944621376 -0.04816840720152712
000500 57 46 a8 90 53 e0 cf 3f 4a 0d bb 11 55 5e be 3f
       0.2490333992323481 0.11862689669492457
000510 8f a8 aa 13 fd 41 a6 3f 33 27 de 0b 94 49 94 bf
       0.04347220292159292 -0.019811928963043356
000520 57 6b 81 6b 98 a0 df bf bb 9a 40 ed ac d3 c1 bf
       -0.4941769647463636 -0.13927232346141757
000530 80 1f 38 f3 60 2e a2 bf a2 22 9e b5 58 00 d0 bf
       -0.03551009148583173 -0.25002114997963976
000540 5c b3 4f 70 f2 97 d7 3f 7a b3 ec 87 e0 b7 c5 3f
       0.3686491104879701 0.16967398297256492
000550 81 0d d5 93 9e 7e b1 bf 58 5e 85 5a f4 07 c0 3f
       -0.06833830937562448 0.1252427522656372
000560 ba ac 32 85 20 50 83 3f d3 dd 20 2d 95 1a d1 3f
       0.0094301739357746 0.2672474804598696
000570 d3 4b 47 69 cf 23 78 3f 1d ef 31 cb 3b 60 c7 bf
       0.0058935262681698184 -0.1826243154681543
000580 1f 62 50 ca 75 d3 b7 3f a9 79 13 a8 e3 9f d4 3f
       0.09307037534052441 0.3222588673942491
000590 fd b8 bf 9f 21 53 d8 bf 12 bc 6f 23 1b ab c6 3f
       -0.3800739345596325 0.17709674101158207
0005a0 96 02 5b e1 83 6c cd 3f 51 5b b4 ed 8c 22 b7 bf
       0.2298741197937672 -0.09037094882328957
0005b0 2f b5 f3 3e 50 fc be bf f9 d5 00 6d 9d d5 d2 3f
       -0.12103749787248284 0.2942880215153703
0005c0 a3 53 4a 21 08 75 c8 bf 13 6d d2 6b b6 50 d7 bf
       -0.19107152581696338 -0.36430130509843756
0005d0 5b 92 34 36 a0 33 d4 bf 5b 68 b5 d0 2f e0 c4 3f
       -0.31565099042408 0.16309163752413522
0005e0 f6 f7 64 a7 f3 05 b4 bf 34 7d 63 52 88 7e cc 3f
       -0.07821581684854081 0.22261146567232404
0005f0 48 63 19 da a8 cb c5 bf da 89 53 fc a5 9f c1 3f
       -0.17027769708036034 0.1376845819532509
000600 bb 3c 2a 97 c5 40 ae 3f a3 10 39 fc a2 1f aa 3f
       0.05908791990543124 0.05102261856930681
000610 3d 39 76 e6 f6 be c0 3f ab 13 20 cd 83 88 cb 3f
       0.13082777264612303 0.21510360256084246
000620 de 57 bb f2 d6 91 bb 3f 7e 14 49 6b 80 17 c0 3f
       0.10769408632344787 0.12571721304462707
000630 ec cb 52 23 63 57 c5 bf 50 23 c4 53 9d b5 ad 3f
       -0.16672934746529167 0.05802623412643604
000640 7d 22 42 34 6b 8d b5 bf 14 09 34 dc 0c be c2 3f
       -0.08418912912214611 0.14642487289535977
000650 5c 2f 2a 86 14 b6 c1 bf 4e 7f a5 de 98 ab 83 bf
       -0.13836914587988758 -0.009604639334326894
000660 37 f1 f0 39 fb a7 75 3f ed 18 17 dc 54 6a 81 3f
       0.005287152626859907 0.008503592459316834
000670 b7 08 86 6d d6 56 be 3f f3 ad f3 87 6a 32 b8 3f
       0.11851253675380034 0.09451928919923329
000680 ab 69 ba e1 85 63 b6 3f f8 af 39 6d 7d 13 be bf
       0.08745610009137887 -0.11748489300379095
000690 18 13 39 20 c1 6c ac bf cf b9 85 63 76 e1 5c bf
       -0.05551723020884064 -0.0017627388134219162
0006a0 c2 4b 33 8c 11 09 d7 bf 62 b6 50 86 fb 1d 8e 3f
       -0.3599285000938687 0.014705624615170613
0006b0 a5 b2 71 39 bc 37 a5 bf 4a 69 d6 61 43 59 c0 3f
       -0.04144085122320477 0.12772409703468163
0006c0 a4 20 24 73 bd 1c c2 3f 87 b9 d8 4f 79 40 ca 3f
       0.14150207635998868 0.2050925865054973
0006d0 9d a6 4d 8e 95 6f c6 3f d3 45 23 18 74 1c bf bf
       0.1752802796211669 -0.12152791585255977
0006e0 30 29 72 93 57 4a d7 bf c1 a4 c8 4e b2 67 a4 bf
       -0.3639124812986152 -0.039853641621740994
0006f0 62 8e 0f 81 61 7b 49 bf bb 01 de 0b a4 83 c5 3f
       -0.0007776475996447813 0.16807985858396343
000700 a5 e9 d6 4b 57 a0 bb 3f df 4c 08 b7 a4 e8 ac 3f
       0.10791535951185567 0.056462428419900006
000710 70 ea bb db 47 8e d3 bf 64 00 79 4d 26 11 bd 3f
       -0.30555912454989365 0.11354293242857377
000720 b1 b7 9e ef af 81 cc 3f eb 59 e4 a2 62 47 c1 bf
       0.22270774078554958 -0.134991006409748
000730 ba 30 66 99 c6 67 c6 3f ae 10 6e 77 43 e5 b5 3f
       0.17504198541826615 0.08552953401346272
000740 5f dd b2 36 47 9d bc 3f 1b 80 93 c6 52 aa ca bf
       0.11177487454812284 -0.20832285591222974
000750 b2 81 16 15 91 0e d5 bf 79 e2 65 82 97 c0 b5 bf
       -0.3290140825211224 -0.08496996816200832
000760 82 68 99 e6 88 af aa bf 50 09 cd c7 c0 61 c4 3f
       -0.052120474004099485 0.15923318630127392
000770 17 ae ec 6b d1 a7 a0 3f 14 7f 7a 42 28 47 c8 3f
       0.032530350136166834 0.18967154737492165
000780 4f 5a 04 ba de a1 4a bf 33 51 3d f1 39 b5 bc 3f
       -0.0008127534420364154 0.11214029445301747
000790 66 4e e0 78 a1 14 9c 3f d9 2a 21 32 35 9b d0 3f
       0.027422450068185354 0.2594731320902333
0007a0 c8 18 92 82 d3 fe c0 bf db 8b 4e 02 9f 37 b3 bf
       -0.1327766788055611 -0.07506746107405553
0007b0 7b 65 53 59 d0 e2 a3 3f 41 08 ac 81 38 cb c8 bf
       0.03883982744600708 -0.19370180446282073
0007c0 f4 70 d3 74 f0 a4 ce bf 76 76 ef e4 8f 20 ae 3f
       -0.23940854744331086 0.05884217900868986
0007d0 bd 8c 1c f2 3a 34 d1 3f 44 ec 54 f8 e8 b0 d6 3f
       0.26881288188651437 0.3545477318872978
0007e0 2c f7 7f 17 03 18 cc bf 36 16 49 51 e2 b3 a1 3f
       -0.21948279044584618 0.03457553140883045
0007f0 9e c3 81 4f 61 7f b7 3f ae b2 14 04 a0 3c c7 3f
       0.09178741637312135 0.18153763007412266

weights_imag f8 [7500]
000000 74 b8 32 65 e4 5b 8e 3f 85 aa 5a 3a dc 90 c3 3f
       0.014823707903215168 0.1528582844669765
000010 d0 24 6d d5 9b e6 b2 3f 85 42 fe 09 40 a2 c2 3f
       0.07383130989650799 0.1455764817042288
000020 6a 4e 72 29 5e d5 b5 bf d4 b1 b5 54 97 0a c1 bf
       -0.08528698455693876 -0.13313571583002093
000030 b2 f5 61 75 b3 ff a8 3f 43 c5 9a 5c d3 75 ca 3f
       0.04882584388631574 0.20672075292308464
000040 32 57 16 18 f0 90 c1 3f 5e f9 d5 35 46 7d b4 3f
       0.1372356526960004 0.08003653349257919
000050 87 ab 28 df ec aa b1 bf 0f b5 00 96 8b 51 78 bf
       -0.0690143627950147 -0.00593714261780788
000060 f1 2a 35 c4 67 d3 e1 3f 97 a8 fd b4 74 be b3 bf
       0.5570563156300904 -0.07712487620088591
000070 91 12 4d 29 ac 11 bd bf a3 cd 7d 3b 4c 1d a2 bf
       -0.11355091102911731 -0.035379774343620406
000080 66 59 75 8e fc 06 c9 bf c2 34 64 67 16 cb c2 bf
       -0.19552571254707657 -0.14682273910913152
000090 06 c5 7e 53 ce ec bf bf df ea d6 5d e6 c6 bc bf
       -0.12470712221581345 -0.1124099711513895
0000a0 73 5c 91 da 7d 35 c6 bf f0 ff 46 76 be c9 b9 3f
       -0.17350743458038984 0.10073461902265968
0000b0 38 8d 6c ef 79 32 b6 3f 4b 8f e0 7e 1f 31 b0 3f
       0.0867077073603938 0.06324955794894753
0000c0 b2 ea 65 e1 22 76 bd bf c8 63 28 41 e7 1c a7 3f
       -0.11508386614688496 0.04514238996870962
0000d0 60 db c6 c3 b9 e0 bb 3f 31 20 9c 37 47 82 a8 3f
       0.10889779119211829 0.0478689437277925
0000e0 3f 74 2a 9d c7 ab e2 3f 40 18 a0 50 1c d9 7f bf
       0.583469206776165 -0.007775412183042063
0000f0 b3 bf 47 ea d7 cb d7 bf ea 9d 65 46 6c 30 ce 3f
       -0.37181661490376 0.23585275113440157
000100 be 72 e5 65 c9 10 ba bf 3e 8b da ee 71 9a ca bf
       -0.1018186448831768 -0.20783828890588468
000110 ba 3d 82 2a 35 e8 dc 3f 0f fc 7d d8 83 49 c9 3f
       0.45167283202405495 0.19755600043205887
000120 f0 4b 0b 87 0a f1 a4 bf 73 de b0 0c a6 3d c6 3f
       -0.04090149782646069 0.1737563669173486
000130 03 8d 02 44 c4 89 ce bf 48 a2 b4 5c 16 de f6 be
       -0.23857930489348442 -2.180817481903439e-05
000140 bb b5 f6 8a 2e 66 88 bf cf 14 64 38 aa 32 a9 3f
       -0.011913646331630603 0.04921466768613813
000150 a0 b8 94 4e 3c d1 cc bf d6 fc 2f 74 8f da bc 3f
       -0.22513536297760073 0.11270996653182705
000160 22 a8 57 53 27 6d 88 3f 27 e0 f1 88 08 87 ab bf
       0.011926943999203191 -0.053764597622773906
000170 38 9f 5b c4 56 d8 be bf a7 c1 a6 f6 fa 06 af 3f
       -0.12048857015508652 0.06060013066178565
000180 e3 62 85 83 d2 49 b4 3f d4 23 db 7c 39 3a b8 bf
       0.07925143919909376 -0.09463843630068364
000190 7d 57 92 fb e4 40 d5 bf 1f 37 ed 5b 7b e2 d1 bf
       -0.3320858437303896 -0.2794483564110681
0001a0 6e 02 75 44 6f 34 a0 bf 20 f9 aa 99 d5 18 c9 3f
       -0.031650044542861674 0.1960703850108496
0001b0 ba 2a f2 69 8a ba a8 3f 84 e5 97 32 92 72 cb bf
       0.04829819243703555 -0.21443393202188699
0001c0 ea 7a b6 84 56 cb a7 3f 05 9a bf 18 5b a6 af bf
       0.04647322053937393 -0.06181606938462284
0001d0 69 39 46 1f 92 73 c5 3f b2 dc 7b ab a3 db c8 bf
       0.1675894406038865 -0.19420286057695574
0001e0 b4 a1 90 63 15 eb 9c 3f d4 0e cd 98 44 8f c9 bf
       0.028240522577250807 -0.1996846910570783
0001f0 7f 6f 74 3c a0 df a7 3f d5 04 4d f9 9c 2e b0 bf
       0.04662800538991884 -0.06321126066633849
000200 2b ef 47 2f b5 e3 7f bf fc b9 ec 00 0a d1 cb 3f
       -0.007785518410397245 0.2173168663516235
000210 a0 25 d1 ce f6 57 b9 3f ad 20 73 33 86 ff d2 3f
       0.0989984755443829 0.29684596084963283
000220 c5 cf 6b ea 09 60 ca bf 93 a6 09 80 89 ce c9 bf
       -0.20605586954445534 -0.20161551238861772
000230 ed 1a 99 a3 2c 7e 4a 3f 40 8a 4e d1 b1 b8 91 3f
       0.0008084981884131905 0.01730611648566538
000240 d5 d1 d7 b7 51 2b bb bf e1 99 92 aa a3 f6 cc bf
       -0.10612974871020893 -0.22627683476203145
000250 6c 4b 8d df 38 d5 bb bf 93 88 e2 22 c8 45 c1 bf
       -0.10872226198016016 -0.13494207099308095
000260 50 da 8d 92 fc 5d c0 3f 9a 75 fc fd 0e c5 a6 3f
       0.12786824375116845 0.044472187523051335
000270 51 50 75 3c 40 83 b0 3f 29 51 c5 58 dd d9 d5 3f
       0.06450273014098797 0.3414224020864532
000280 9a 9c e3 52 67 92 c5 3f 83 4a 3a 4b 90 8a bd bf
       0.1685303835613226 -0.11539556347478634
000290 39 17 a3 6b 0d c4 b7 3f a5 55 20 30 1c ae c0 bf
       0.09283527257784109 -0.13031341886441541
0002a0 6e 46 25 fb ae e0 d4 3f 70 12 ec 30 a4 27 b0 bf
       0.326213593730336 -0.06310487932575781
0002b0 ff 0b 75 6a fe 2d 99 bf 9d 4a 5d 70 2e 9e cf bf
       -0.024589514968521794 -0.2470148132948297
0002c0 76 27 88 11 6f 31 ce 3f c6 01 0d 4c a2 7e cf 3f
       0.23588360172316997 0.24605206216257453
0002d0 21 87 94 04 9f c4 c2 3f 90 1c 0d c9 e8 41 a4 3f
       0.1466254017223543 0.039565348188767335
0002e0 24 d9 41 65 78 80 d9 3f 84 39 d0 c2 65 1e c6 3f
       0.3984662045326266 0.17280265819904284
0002f0 92 80 59 d5 32 1b 8f bf 7f 80 aa 3a 7a 11 c5 bf
       -0.015188595901406896 -0.16459586967994608
000300 a7 4b 6f 23 4b 59 aa bf 00 33 ac e8 c2 83 bc bf
       -0.05146250541260793 -0.11138551884159753
000310 a7 a4 13 79 57 93 c8 3f 96 8c 3a 63 9d cd 82 bf
       0.1919965115733124 -0.009181241598815764
000320 2e f0 7f ca 06 89 c5 3f fc ea e3 1e 0b 57 b6 3f
       0.16824421775516057 0.08726567749173947
000330 01 41 ee 09 0c da be 3f 91 be fc ad a3 79 b2 3f
       0.12051463358352878 0.07216856954323193
000340 a7 48 c9 e8 6a 9d 6c 3f 09 a4 4d b5 02 05 b4 bf
       0.0034930313179667052 -0.07820145536756241
000350 1d 8a b4 a9 22 a7 ce bf 71 e0 7e 59 5c 43 c5 bf
       -0.23947556768787673 -0.16611818666365566
000360 39 e2 3a e6 26 5c 8a bf b3 9a 54 ca 6a ee c2 3f
       -0.012871078396856738 0.14790091399591673
000370 34 27 21 29 50 5f af 3f 32 6f 6a 89 9d 08 a7 bf
       0.06127405645436426 -0.0449876051181647
000380 b6 e1 97 47 70 e1 b7 3f ba c3 ac 36 5d c6 92 3f
       0.09328366992838863 0.01833482404908058
000390 84 30 52 52 1f 12 c5 3f 9c 50 c2 0c ff 6f bc bf
       0.1646155502279535 -0.1110839277410513
0003a0 74 e0 62 ba 40 f5 ba bf 74 e5 d4 ba 1b 4e d0 bf
       -0.10530476141400574 -0.25476735348964685
0003b0 4d 4d 0b 4e 0e 35 b6 3f f6 62 7b ef 2d cb a3 bf
       0.08674706845640863 -0.03865951107372283
0003c0 b1 98 d6 a6 20 71 c8 3f 6f 68 9c a9 1f 86 c3 3f
       0.190952378715513 0.15253062993798802
0003d0 5c 37 66 c7 64 9e ac 3f 9e a5 e6 67 ba ec b6 bf
       0.05589594778130788 -0.08954968487400669
0003e0 47 80 bb ea b7 1a cd 3f b2 21 5f fe 6d d0 d2 bf
       0.2273778816370415 -0.29397153702714285
0003f0 13 64 a0 43 2d 33 8e 3f 49 80 96 f3 d2 bb d3 bf
       0.014746049524591276 -0.3083388689792668
000400 08 95 af 1f 9b 6d d6 bf c7 a4 90 10 7b cb bf bf
       -0.3504398164207747 -0.12419861940783782
000410 4c 51 2c 8c 87 8e a4 bf 30 69 be ee 61 87 d2 bf
       -0.04014991365525819 -0.2895130950434064
000420 a5 34 82 d8 78 64 c4 bf 1a d7 69 cf a8 de 79 3f
       -0.15931616374692684 0.0063158601902751025
000430 58 45 47 a5 1a 28 b2 3f 9f 72 db 1c b0 74 59 bf
       0.07092443976514085 -0.00155369947918086
000440 e9 04 fa 0c 9a cf c2 bf 3a 6b b4 aa 08 e0 d3 3f
       -0.1469605029451835 0.31054894132983046
000450 97 8e d7 15 62 a7 d2 3f a7 6d 74 a1 c9 25 b6 3f
       0.2914662564564678 0.08651409332053693
000460 ea 69 d8 71 46 55 b8 bf aa 4d 0b 6d 6c 8d c6 3f
       -0.09505119590213665 0.17619090389653752
000470 82 04 0e cb f9 91 b3 bf ab ac 23 f2 b4 74 c2 bf
       -0.07644616324798117 -0.14418660948954218
000480 c0 a5 40 8f b4 2e 8c bf 40 63 bf 67 23 a7 c0 3f
       -0.013760958310814142 0.13010065618325406
000490 3f 25 fc e1 1f 29 c4 3f 6c 8c 44 42 cd 2e b3 3f
       0.1575050214235407 0.07493288867822095
0004a0 ff 31 52 ce 97 73 d6 3f 44 3f 26 62 e1 d9 81 bf
       0.35080523632566946 -0.0087163551404782
0004b0 dd c8 b9 f4 32 0e c1 3f 5a c1 c7 75 7f 59 b9 3f
       0.1332458205175219 0.09902187943931065
0004c0 41 cd dc d8 c5 28 c7 3f 9d 91 30 17 35 e9 b6 3f
       0.18093178833951565 0.08949596229701347
0004d0 e4 bf 14 33 14 72 d1 3f 1d bd 38 7e d9 85 c4 3f
       0.27258782375701984 0.16033476508298686
0004e0 7d 40 26 74 70 00 a3 bf 1e 9c b8 4c 0d f3 b9 bf
       -0.03711272638167971 -0.10136492846560016
0004f0 ea 77 99 cf 31 f7 d6 bf 7b 0e 43 8b 87 a9 a8 3f
       -0.35883755944621376 0.04816840720152712
000500 57 46 a8 90 53 e0 cf bf 4a 0d bb 11 55 5e be bf
       -0.2490333992323481 -0.11862689669492457
000510 8f a8 aa 13 fd 41 a6 bf 33 27 de 0b 94 49 94 3f
       -0.04347220292159292 0.019811928963043356
000520 57 6b 81 6b 98 a0 df 3f bb 9a 40 ed ac d3 c1 3f
       0.4941769647463636 0.13927232346141757
000530 80 1f 38 f3 60 2e a2 3f a2 22 9e b5 58 00 d0 3f
       0.03551009148583173 0.25002114997963976
000540 5c b3 4f 70 f2 97 d7 bf 7a b3 ec 87 e0 b7 c5 bf
       -0.3686491104879701 -0.16967398297256492
000550 81 0d d5 93 9e 7e b1 3f 58 5e 85 5a f4 07 c0 bf
       0.06833830937562448 -0.1252427522656372
000560 ba ac 32 85 20 50 83 bf d3 dd 20 2d 95 1a d1 bf
       -0.0094301739357746 -0.2672474804598696
000570 d3 4b 47 69 cf 23 78 bf 1d ef 31 cb 3b 60 c7 3f
       -0.0058935262681698184 0.1826243154681543
000580 1f 62 50 ca 75 d3 b7 bf a9 79 13 a8 e3 9f d4 bf
       -0.09307037534052441 -0.3222588673942491
000590 fd b8 bf 9f 21 53 d8 3f 12 bc 6f 23 1b ab c6 bf
       0.3800739345596325 -0.17709674101158207
0005a0 96 02 5b e1 83 6c cd bf 51 5b b4 ed 8c 22 b7 3f
       -0.2298741197937672 0.09037094882328957
0005b0 2f b5 f3 3e 50 fc be 3f f9 d5 00 6d 9d d5 d2 bf
       0.12103749787248284 -0.2942880215153703
0005c0 a3 53 4a 21 08 75 c8 3f 13 6d d2 6b b6 50 d7 3f
       0.19107152581696338 0.36430130509843756
0005d0 5b 92 34 36 a0 33 d4 3f 5b 68 b5 d0 2f e0 c4 bf
       0.31565099042408 -0.16309163752413522
0005e0 f6 f7 64 a7 f3 05 b4 3f 34 7d 63 52 88 7e cc bf
       0.07821581684854081 -0.22261146567232404
0005f0 48 63 19 da a8 cb c5 3f da 89 53 fc a5 9f c1 bf
       0.17027769708036034 -0.1376845819532509
000600 bb 3c 2a 97 c5 40 ae bf a3 10 39 fc a2 1f aa bf
       -0.05908791990543124 -0.05102261856930681
000610 3d 39 76 e6 f6 be c0 bf ab 13 20 cd 83 88 cb bf
       -0.13082777264612303 -0.21510360256084246
000620 de 57 bb f2 d6 91 bb bf 7e 14 49 6b 80 17 c0 bf
       -0.10769408632344787 -0.12571721304462707
000630 ec cb 52 23 63 57 c5 3f 50 23 c4 53 9d b5 ad bf
       0.16672934746529167 -0.05802623412643604
000640 7d 22 42 34 6b 8d b5 3f 14 09 34 dc 0c be c2 bf
       0.08418912912214611 -0.14642487289535977
000650 5c 2f 2a 86 14 b6 c1 3f 4e 7f a5 de 98 ab 83 3f
       0.13836914587988758 0.009604639334326894
000660 37 f1 f0 39 fb a7 75 bf ed 18 17 dc 54 6a 81 bf
       -0.005287152626859907 -0.008503592459316834
000670 b7 08 86 6d d6 56 be bf f3 ad f3 87 6a 32 b8 bf
       -0.11851253675380034 -0.09451928919923329
000680 ab 69 ba e1 85 63 b6 bf f8 af 39 6d 7d 13 be 3f
       -0.08745610009137887 0.11748489300379095
000690 18 13 39 20 c1 6c ac 3f cf b9 85 63 76 e1 5c 3f
       0.05551723020884064 0.0017627388134219162
0006a0 c2 4b 33 8c 11 09 d7 3f 62 b6 50 86 fb 1d 8e bf
       0.3599285000938687 -0.014705624615170613
0006b0 a5 b2 71 39 bc 37 a5 3f 4a 69 d6 61 43 59 c0 bf
       0.04144085122320477 -0.12772409703468163
0006c0 a4 20 24 73 bd 1c c2 bf 87 b9 d8 4f 79 40 ca bf
       -0.14150207635998868 -0.2050925865054973
0006d0 9d a6 4d 8e 95 6f c6 bf d3 45 23 18 74 1c bf 3f
       -0.1752802796211669 0.12152791585255977
0006e0 30 29 72 93 57 4a d7 3f c1 a4 c8 4e b2 67 a4 3f
       0.3639124812986152 0.039853641621740994
0006f0 62 8e 0f 81 61 7b 49 3f bb 01 de 0b a4 83 c5 bf
       0.0007776475996447813 -0.16807985858396343
000700 a5 e9 d6 4b 57 a0 bb bf df 4c 08 b7 a4 e8 ac bf
       -0.10791535951185567 -0.056462428419900006
000710 70 ea bb db 47 8e d3 3f 64 00 79 4d 26 11 bd bf
       0.30555912454989365 -0.11354293242857377
000720 b1 b7 9e ef af 81 cc bf eb 59 e4 a2 62 47 c1 3f
       -0.22270774078554958 0.134991006409748
000730 ba 30 66 99 c6 67 c6 bf ae 10 6e 77 43 e5 b5 bf
       -0.17504198541826615 -0.08552953401346272
000740 5f dd b2 36 47 9d bc bf 1b 80 93 c6 52 aa ca 3f
       -0.11177487454812284 0.20832285591222974
000750 b2 81 16 15 91 0e d5 3f 79 e2 65 82 97 c0 b5 3f
       0.3290140825211224 0.08496996816200832
000760 82 68 99 e6 88 af aa 3f 50 09 cd c7 c0 61 c4 bf
       0.052120474004099485 -0.15923318630127392
000770 17 ae ec 6b d1 a7 a0 bf 14 7f 7a 42 28 47 c8 bf
       -0.032530350136166834 -0.18967154737492165
000780 4f 5a 04 ba de a1 4a 3f 33 51 3d f1 39 b5 bc bf
       0.0008127534420364154 -0.11214029445301747
000790 66 4e e0 78 a1 14 9c bf d9 2a 21 32 35 9b d0 bf
       -0.027422450068185354 -0.2594731320902333
0007a0 c8 18 92 82 d3 fe c0 3f db 8b 4e 02 9f 37 b3 3f
       0.1327766788055611 0.07506746107405553
0007b0 7b 65 53 59 d0 e2 a3 bf 41 08 ac 81 38 cb c8 3f
       -0.03883982744600708 0.19370180446282073
0007c0 f4 70 d3 74 f0 a4 ce 3f 76 76 ef e4 8f 20 ae bf
       0.23940854744331086 -0.05884217900868986
0007d0 bd 8c 1c f2 3a 34 d1 bf 44 ec 54 f8 e8 b0 d6 bf
       -0.26881288188651437 -0.3545477318872978
0007e0 2c f7 7f 17 03 18 cc 3f 36 16 49 51 e2 b3 a1 bf
       0.21948279044584618 -0.03457553140883045
0007f0 9e c3 81 4f 61 7f b7 bf ae b2 14 04 a0 3c c7 bf
       -0.09178741637312135 -0.18153763007412266
