optimal_weights.npz (npz, 161070 bytes, 4 tensors)

weights_real f8 [5000]
0	0x3fc8efdb7c454866	0.19481986587431094
1	0x3f8535b9f2d2cb11	0.01035638115204088
2	0xbfc470f02556ae0e	-0.15969659636662964
3	0x3fb7bea5e80c6705	0.0927528087162522
4	0x3f9c616f5313a65e	0.02771543449936186
5	0xbfb408a4748ac0f0	-0.07825687260879355
6	0xbfc4dfd08b6bf296	-0.16308028037737604
7	0x3fd3831bf77b88c9	0.3048772732564769
8	0x3fa571d6a03f0be0	0.041884142934143886
9	0xbfcc55027eb51dfd	-0.22134429156197646
10	0xbfb39f50be429dff	-0.07664971013092979
11	0x3fc3ac7a28d54cd2	0.15370108598526727
12	0xbfc967a7e10b092a	-0.19847582329209362
13	0xbfc099bfe8f799bc	-0.12969206691123059
14	0xbfa2b44500bab49d	-0.03653159746077359
15	0xbf948ebf9f50c1a6	-0.02007579240688675
16	0xbfb068ffa8baff19	-0.06410215253253816
17	0x3fbd53e9b20a68e9	0.1145616588277424
18	0xbfb383394d6ce419	-0.07622106685893505
19	0x3fa535986c08198a	0.04142452543969728
20	0xbfd1aca418e4f7b4	-0.2761621707066937
21	0xbf54af18ace20456	-0.0012624493570288129
22	0x3fd00d1eb3e0ef44	0.2508007771136713
23	0x3fb2a1ef49e1a284	0.07278342775101448
24	0xbfc26ca1fda16fbc	-0.14394020923907458
25	0x3fc6eb6ffe9eaec2	0.17905998165712417
26	0x3fa8a136cdcfeb3c	0.04810496580463172
27	0x3f85e70cdee19afa	0.010694599677845574
28	0x3fb5bf66b6ac30a7	0.08495180091648767
29	0xbf5723b8056227ad	-0.0014123246269570442
30	0xbfc6786f829892f6	-0.1755504024196381
31	0x3fc0c27aa9353c74	0.13093503248316873
32	0x3fba25e12a1724ee	0.10214049604032358
33	0x3fd5a617b629b2a6	0.3382624892172238
34	0x3fbf97afa535ec84	0.12340829642737289
35	0xbfd8a74998c7d2d4	-0.3852104179380096
36	0xbfb293db2fc41931	-0.07256860653078402
37	0x3faf815b5f36b4a5	0.06153378999020135
38	0x3fdbf3eac3755368	0.4367625149509906
39	0xbfc1dea70a807ec9	-0.13960731518544936
40	0xbfd5f6400b26b42b	-0.34315491761191436
41	0x3facf3c938e17b68	0.05654743975968907
42	0xbfa99b38f34d8c12	-0.050012378406585026
43	0x3fc35c001b4a3aa2	0.15124512989537658
44	0xbfcb58596faef2c3	-0.213633708508402
45	0xbfaf1da0eb47b5dc	-0.06077292320319902
46	0xbfc4ae6047873412	-0.16157153599343183
47	0x3fae8f34d13aaddb	0.05968632749621935
48	0xbfc18a3b005b4966	-0.13703095929538306
49	0x3fb21f54f4c9adf2	0.0707905862452021
50	0x3fb4857b9ecc337c	0.0801617872895814
51	0x3f91493d75f0b4ab	0.016880951236249924
52	0x3fc85e5320ea48bf	0.19037856204210432
53	0x3fd2847c0294f70c	0.28933620693338535
54	0x3f7b52ff0a11db69	0.0066709482645056295
55	0xbfc18ea254bad9dd	-0.1371653474540854
56	0x3fa19e5db4976420	0.03441136197552219
57	0x3fd59196b6d384b2	0.33701103071332306
58	0x3f59166d0c727a56	0.0015312256744334416
59	0x3fa9609dd3fc4483	0.04956525051796581
60	0xbfaf0922045e3303	-0.060616553338240585
61	0xbf742c22251ca782	-0.004924901369841696
62	0x3fb76020221677e3	0.0913105090353095
63	0xbfc6a44684242d51	-0.1768882889958641
64	0xbfcaefcee226f8d5	-0.21044336359586305
65	0x3f9fe935e9168ab2	0.0311630652919443
66	0xbfb94421cec6761b	-0.09869586275313973
67	0x3f7ec5afda9b1e2b	0.00751274769726921
68	0xbfc82ca400497d6b	-0.1888623238946637
69	0xbfb4201e15f789f1	-0.07861507450392204
70	0xbfd2d0c536c9d934	-0.2939923319858224
71	0x3fce1a6b88aadf9b	0.23518127606598402
72	0xbfa49b73b21e0339	-0.040248504154993765
73	0xbf974ba99cdfa166	-0.022749567222406418
74	0x3fc87a6660e6ac75	0.1912353490018607
75	0xbfc9077f062f6f48	-0.19554126550689888
76	0xbfc1af5364202e79	-0.13816301716757431
77	0xbfdae9b5cde90ff4	-0.42051453693807095
78	0xbf863e458a336279	-0.010860961227465925
79	0xbfb5ee27af55b867	-0.08566520720134606
80	0x3fbbc8460c19c34e	0.10852468295503323
81	0xbfaf00297321b433	-0.060548110298306666
82	0xbfc1fab1e8ca361f	-0.14046310297673956
83	0x3fb0df9e5060825c	0.06591214620903812
84	0x3f94cba5757d2b7c	0.020308099075275518
85	0x3fd1ec116a3be583	0.28003344892893994
86	0xbfa5d27d3492bf63	-0.04262152926219078
87	0x3fcf12878bad72ae	0.2427529747027583
88	0x3fdcf49ef42da6f8	0.45243047566928807
89	0x3fba596178f44f16	0.10292634203898063
90	0xbfa7cf47c69a759c	-0.046503298753332006
91	0x3faea7a183e4fdbb	0.05987267241516344
92	0x3fd01cc307121f81	0.25175548258311414
93	0x3fce3c28ce65c036	0.2362109191703909
94	0xbfb663fd2e3b12aa	-0.08746321085625178
95	0xbfd47f8629c5a733	-0.32028345183663304
96	0xbfc7a24f9a7aa04f	-0.18464083712501853
97	0xbfa944eaf7869f1a	-0.04935392638736698
98	0xbfa9738a6965755a	-0.049709630361329984
99	0xbfc041448c46e5d3	-0.12699181413135693
100	0xbfc7db79ef16475d	-0.18638538526698314
101	0x3fc1d07dfc244686	0.13917517482382297
102	0xbfc1b245bcf0c83c	-0.13825294232953123
103	0x3fa09c1b633814c1	0.03244100176019905
104	0x3fa05b47c14adde7	0.03194641336943587
105	0xbf94da506e2ad38e	-0.02036405250938205
106	0x3fbe88dac7d40d12	0.11927573565121843
107	0xbfcdc001a7cc718f	-0.23242207234660525
108	0x3fd11e5fcee8a27a	0.26747889715128503
109	0xbfc87a3c78694e95	-0.19123035315952977
110	0xbf819f26dd578d26	-0.008604339246579839
111	0x3fc99fefe7ce8218	0.2001933938854712
112	0x3fd631b94776d3ad	0.3467848966495762
113	0x3fd3b5a71cae80f6	0.307962205895833
114	0xbfb8be1fc9187a84	-0.09665106448708555
115	0xbfdebd00a03a03a1	-0.4802857937539163
116	0xbfd7dc29f2be6b3e	-0.3728127356095462
117	0xbfd0ebedcecdaf6d	-0.26439995952272605
118	0xbfb632cff7ebb726	-0.08671283533814442
119	0x3fadc63e5b41b706	0.058153103484853516
120	0xbfdc6160a81af8b6	-0.44344345490015813
121	0xbfd115673dac23ae	-0.2669313528318139
122	0xbfc8023dc9738392	-0.18756840073095
123	0x3f94189eb123580a	0.019625167428635883
124	0x3fb8a734a48923e3	0.09630135552391965
125	0x3fb224ee3722d21a	0.0708760151490612
126	0xbfb6ab97cfa1ab2d	-0.0885558015740286
127	0x3fcae73ae54a8e89	0.21018158145772173
128	0xbfd1db47bb9d2424	-0.2790088016668639
129	0xbfac1a84b55531be	-0.05488981927428281
130	0x3fbd16b00ae34355	0.11362743631185641
131	0x3fcd22e664386b47	0.22762756246160107
132	0x3fd68ee767cf276d	0.35247216355911953
133	0x3fcc8046d289efc9	0.2226646926900442
134	0xbfce4828acb187b8	-0.2365771144132489
135	0xbfd19ae971755a8c	-0.27508007125781186
136	0xbfa672220bbdf4be	-0.04383951562247422
137	0x3fab270ee36e3bef	0.053032365095638904
138	0x3f934c72d4c46471	0.018846315609242163
139	0x3fc88aa3ab14a68c	0.19173093656109008
140	0x3fd1c10bf3232089	0.27740763419979736
141	0x3fb4940d7261d66e	0.08038410227330825
142	0x3fc65a97a6ebd2fd	0.17463966036270753
143	0x3fc64c59a450ebca	0.17420502207991567
144	0x3fc5c33b5d54f88e	0.1700205045435194
145	0x3fd99fb53bebcb78	0.40037279941241577
146	0x3fb696bcb60ac030	0.08823756641754765
147	0x3fc8412f79bf02d8	0.18948930210719683
148	0xbfc011238c4d1651	-0.12552303648606025
149	0xbfd825b7492c1412	-0.3773019995281298
150	0xbfcae57218c0dc16	-0.21012712677631445
151	0xbf9be675e99a9535	-0.02724632490448649
152	0x3fc2a4250c7e15d8	0.1456342993734967
153	0x3fd080517a171551	0.25783192561023777
154	0xbfbfeddc1a3227fa	-0.12472320212887658
155	0xbfb2dca38e4aef34	-0.07367918228095222
156	0xbfae0388c5ce355f	-0.05862071432702964
157	0xbfb0efdb9a8e7c71	-0.06615993998865279
158	0x3fc85db3e0a77d9d	0.1903595778412467
159	0x3fc280ff5dc04118	0.14456169202504365
160	0x3f83178a1ce44625	0.009322241789536065
161	0x3f8ed242669dae3d	0.01504947543772694
162	0xbfb7590db35506d9	-0.09120259884096117
163	0x3fa9711e2bbfa198	0.04969114574470551
164	0x3f9fb40a23a10968	0.030960234093308087
165	0xbfb13b4ae29ddcd8	-0.06731098206170161
166	0xbfbeb1740146fe48	-0.1198952201002551
167	0xbf93900685522acc	-0.019104101073518717
168	0xbfd8591829ab37d1	-0.38043788975926157
169	0xbfa1ea20cda18043	-0.03498938093321204
170	0xbfb1136a0e85bbe3	-0.066702488465793
171	0xbfcbbff51cd2bc02	-0.21679557711965464
172	0x3fc161996535abcd	0.13579099122884344
173	0xbfd0dda982ecc6f2	-0.26352918420444305
174	0x3fbe3a68638eba25	0.11807873182872493
175	0xbfb7b3b670ef81b5	-0.09258594758239876
176	0xbfc1ffda04374337	-0.14062047201016423
177	0x3fa18b3ed4fe2908	0.03426548337945873
178	0xbfcbeae59facd20d	-0.2181059865630605
179	0xbfa9228a40af9d2c	-0.04909164466499258
180	0x3fcb74c8e258be9b	0.2145014863212865
181	0x3fcfb9cd4e778b73	0.2478577263965139
182	0x3fb6de9a6506bbb2	0.08933415380918922
183	0x3fc3810bec831d26	0.1523756890148686
184	0x3fd49c90abd8e7fa	0.3220559766956509
185	0x3fdcdb30854d228e	0.4508782674570647
186	0x3fcaa5c3d241365e	0.20818374410957835
187	0x3f92d3f66c567fcc	0.018386698114795583
188	0xbfb409653b983d92	-0.07826836304615473
189	0xbfdfc41f9dbe50b9	-0.4963454285109595
190	0x3fb9ef1ab16ea545	0.10130469161835716
191	0xbfcddcc91c4a4f53	-0.2333003414283846
192	0xbfc238bd1a643114	-0.14235652722016623
193	0x3fb7684728e0214e	0.09143490550934993
194	0xbf6bfe4bbdb4c652	-0.003417156154363701
195	0x3fa36a812b7a84d8	0.037921940381474506
196	0xbfb49d6a97fe69bb	-0.08052698336397317
197	0x3fa70f1797adf355	0.0450370190292008
198	0xbfa39f26d5c54020	-0.03832360610488217
199	0x3fdc2e9f07dea018	0.44034553307074153
200	0x3fc50d20b95fd9d4	0.16446312953458053
201	0x3fac3bd935d6a7ab	0.05514410764892771
202	0x3fb54d5d7cbcf1ec	0.08321174903262091
203	0x3fd4cd87671ee30e	0.3250444895780199
204	0x3f7ef2bcfaf9a25f	0.007555711941315295
205	0xbfc31c884fd3f55d	-0.14930824182367078
206	0xbfc0a88406bd46f1	-0.1301426918894815
207	0x3f46e2c2dcaa3fc9	0.0006984187578655761
208	0x3fa7284d73186c38	0.045229358958942034
209	0xbfbd8897be07d093	-0.11536548985879085
210	0xbf474fb8ef6b1fca	-0.0007114079479260068
211	0x3fa8c2bd98816b6b	0.04836075293197591
212	0x3fbd84ecffdc668d	0.11530953642468429
213	0xbfafdbc970ee78e1	-0.062223715816104315
214	0x3fc2b1c3ced631ea	0.14604995345543098
215	0xbfc9229f34ee4c1b	-0.19636907658113575
216	0xbfaee7045b1c940f	-0.06035626995279852
217	0x3fb91c1f73e3a3a3	0.09808537082029871
218	0xbfa981292bbd916c	-0.049813543881813555
219	0x3fc035cac925e453	0.12664160558395796
220	0x3fccefe7ffacb0f2	0.22607135757551294
221	0x3fccf7808998e7fd	0.22630316465966863
222	0xbfa1fd6134056ce3	-0.03513625869774175
223	0xbfd30365503b8052	-0.2970822604675095
224	0x3fcd0aabfbbe25a5	0.22688817779662176
225	0x3fcdd29a6c3ae6a8	0.23298960003540015
226	0x3fc64b12c218a927	0.1741660545097343
227	0x3f9a3f302a99a2f4	0.025631668663126342
228	0xbfaa6d5a44b30bf1	-0.051615544210584015
229	0xbfc3d270a99909d7	-0.15485962182181254
230	0x3fc2e93e7c002ba6	0.14774304442138692
231	0x3fc0d40f9900d1eb	0.13147158594951178
232	0xbfc75dab82bdf7bf	-0.18254608043565487
233	0xbfaa054d70a32ba7	-0.05082170486419751
234	0x3fb36e450ebdf3fb	0.0759013329497548
235	0xbfac998d7159c16d	-0.05585901268648539
236	0xbf864db9aba13386	-0.010890436697218463
237	0x3fd664c86f67e6c3	0.34990130309561723
238	0x3fbff7287c696287	0.12486508405107531
239	0x3f7d2fb39c1db1f8	0.00712556991662127
240	0x3f629f0db476618d	0.0022731082605781995
241	0x3fb1fcca55754e23	0.07026352487928782
242	0x3fb56e01f99643fa	0.08370983451301575
243	0x3f925fcc64097cab	0.017943566900041102
244	0x3fc88477bb04b9d3	0.1915425933052136
245	0x3fc674f70e9d3331	0.17544449056222214
246	0x3fb00f73e4db68fe	0.06273578965502577
247	0xbfbd086144e30362	-0.1134091180019943
248	0x3fb0f10957aeb9f4	0.06617792502104419
249	0xbfb858a0b9791f78	-0.0951023533644938
250	0xbfd2fa7d82645a46	-0.29653871282190314
251	0xbf903f84216fdfc2	-0.015867294827301988
252	0x3f9088335adeb0a3	0.01614456407666921
253	0x3fb1134887bb0a62	0.06670049012886062
254	0xbfd11987539cfaf3	-0.2671831432852933
255	0xbfcc47fecbc676dd	-0.2209471220966667

weights_minus_imag f8 [5000]
0	0x3fc41e7f31eb355c	0.15718069016876768
1	0x3f6c96368429132e	0.0034895958681623518
2	0x3fb1beae6075fa6b	0.06931581358910825
3	0xbfb73440bed83128	-0.09064106616296341
4	0xbfca4421cafd4f98	-0.20520422374340508
5	0x3fcc8d95f4c0a64a	0.2230708546715497
6	0x3fd1c4ae4f9bde2d	0.2776294495992911
7	0x3fc7c31dffd1503a	0.18564200392813907
8	0xbfd260dee3a509f3	-0.2871625159351929
9	0xbf9dbd45ca05383b	-0.029042330222459816
10	0x3fd62933f5931709	0.3462648294629252
11	0xbfb797afc37f208f	-0.0921583034788702
12	0x3fb46a4edd815416	0.07974713237611328
13	0x3fd730056b62a9aa	0.362305979603344
14	0x3fc8efc2572d4346	0.19481686836891238
15	0xbfca1adcbebb90b0	-0.20394477189177485
16	0x3fb502744fd85786	0.0820687003073016
17	0x3f934e8b416f7c70	0.018854308956971655
18	0xbfd332a4025d21b3	-0.29996586066092873
19	0xbfd48ac3289746fa	-0.3209693809886712
20	0xbfc07a061ba92230	-0.1287238726674942
21	0xbf9e33883efd535c	-0.029493454784943793
22	0x3fc81be09af0bd55	0.18835074963997536
23	0xbfd7367899e14f92	-0.3626996519790221
24	0xbfd934fb350d5f7e	-0.3938587205971017
25	0xbfcce045c4e82bcc	-0.22559425463290805
26	0xbfbf1e50eeefd9be	-0.12155633767529303
27	0xbfc1f072755574b2	-0.14015036324682267
28	0x3fda656588196cc5	0.4124387578101046
29	0x3fc6b90878a3132e	0.17752176180342744
30	0x3fd20725066ebfc9	0.2816860735720153
31	0x3fc6fbf056620bdb	0.1795635625640831
32	0x3fa0513236537a59	0.03186947739753938
33	0xbfbd03f5bfaa1cbe	-0.11334167413052662
34	0xbfbe72d1f11ce495	-0.11893951546234612
35	0xbfa0f646675a75fa	-0.03312892924916962
36	0x3fa12a65f67a6b43	0.03352659829871254
37	0x3fcbce9be4a70de5	0.21724270500827383
38	0xbfd17c3378c9c2a2	-0.2732056312152428
39	0xbfb0b30ee97a17be	-0.06523221206779703
40	0x3fa06355a2fc8232	0.032007862230106446
41	0x3fc730d4dd68d3f1	0.1811777192212101
42	0x3fac8530113af00f	0.055703641989993107
43	0x3fae5b36c8e56a13	0.05928965761514262
44	0xbfc7942abcf7be3b	-0.1842091963476252
45	0xbfad18b7b429029c	-0.056829205267154154
46	0x3fd4b9bcb4b6da42	0.3238364949023983
47	0xbfa0b26fa9374c9f	-0.032611359983684134
48	0xbfcd8de1603f8f2a	-0.23089234542487108
49	0xbfa4493508e294c7	-0.039621026358227555
50	0x3fc7859087af6ee6	0.18376356721170523
51	0x3fc32fe60c293d48	0.14989924997142112
52	0x3fd8b4a11cb135b6	0.38602474023795297
53	0xbfab9835cf854c8a	-0.053895646650425524
54	0x3fc784ae39d740c5	0.18373658966311815
55	0xbfb9e255db3c0af3	-0.10110985376745045
56	0x3fa5dc1d67c4b5b1	0.04269496814445562
57	0xbfc43483d7c907ac	-0.1578526309622793
58	0x3f89ac8273d11226	0.012536067161030461
59	0xbfd01506ddee8bde	-0.2512833754828402
60	0x3fb7a0223990d95b	0.09228719621100849
61	0xbfc1c9cbf0e993cd	-0.13897084487248748
62	0xbfcf201159c6dfd1	-0.24316613086352715
63	0xbfd44ecc32cf0dd8	-0.3173094268970238
64	0xbfc87bb9d5aaf1a8	-0.19127581532474136
65	0x3fcafaf9052694c4	0.21078408004283322
66	0x3fbd937671bf5d22	0.11553135182417809
67	0xbfcadd18c7c7286a	-0.20987233881743644
68	0xbfd1d2c0514cbc69	-0.2784882348959799
69	0xbfc9f8f15fa9fc02	-0.20290963336080386
70	0x3fd87141cec024b2	0.3819126624153554
71	0xbfcceced45296acd	-0.2259804332450898
72	0xbfbd7bb1610a84c1	-0.11516865367095176
73	0xbfd78aa1967121f5	-0.3678363770636957
74	0xbfdb37e52498ffdf	-0.42528656553258587
75	0xbfad0cee50e69b8c	-0.056739280105197215
76	0x3fc61e37ebea2f29	0.17279719371105642
77	0xbfbc43ef793af855	-0.11041161260342965
78	0x3fb8a4f24f60adff	0.09626688421183614
79	0xbfba2ba454eda6f7	-0.10222842286534815
80	0xbfc180a32edbff78	-0.1367382029347899
81	0x3f8c2e7d8113ee9c	0.013760548116344133
82	0x3fbd8a2a0f882294	0.11538946990197935
83	0x3fc39d623a14e3dd	0.1532404693223545
84	0x3fcc055199ea34d0	0.21891231551527435
85	0x3fd10aae41989ece	0.26627689748646055
86	0x3fb5a05ced05dcfd	0.08447819506351446
87	0x3fd0a056b6ad9c3d	0.2597862991301019
88	0xbfa11a4a331722ac	-0.03340370057737138
89	0x3f9c9c1b35ca46b0	0.027939248235788028
90	0xbfc467ac24d21fe1	-0.15941383169069837
91	0x3fbca40ff263e5da	0.11187839191179397
92	0xbfbf25a66b46adc7	-0.1216682445435061
93	0xbfc87535e3c6f300	-0.19107698079996993
94	0xbfc13ca2883b783b	-0.13466293003051696
95	0xbfc2824ea1ab301a	-0.1446016587636912
96	0xbfb79e122e986db9	-0.09225572240432357
97	0xbfc454eda8bfa318	-0.15884180774380563
98	0xbf9c70c1edb6c5f5	-0.02777388585463388
99	0xbfb99dbe560b64f4	-0.10006322479911828
100	0x3fc6c82cf9ef7eb4	0.17798387721903952
101	0x3fd53c7cc172d685	0.3318168534418436
102	0xbfbff539f83ba866	-0.12483560858132278
103	0xbfc74ec1ad5442dc	-0.18209095919930618
104	0x3fc3a4a2c22d08f6	0.15346178513761516
105	0xbfd0becbba307c3f	-0.2616452520614451
106	0xbfc85d70d3121a9e	-0.19035158449351725
107	0x3fb26ecb2db1e07d	0.07200307717892147
108	0x3fb87a38478ff866	0.09561492678764835
109	0x3fa318a7169f2ae7	0.037297460090106864
110	0x3fce19a690c40cc9	0.23515779560702857
111	0x3fc2f6b786b44009	0.14815420224522338
112	0xbf6387a4d2a5cad6	-0.002384015960325096
113	0xbfd16e0a6a6d8a5e	-0.27234135049198993
114	0xbfdb493f6881deb7	-0.4263456841067454
115	0xbfab0e4e5fc9304e	-0.05284352225552934
116	0xbfbd309e4ba88c7a	-0.11402310702446697
117	0xbfbb3bd0d7ed21cb	-0.10638146659505947
118	0xbfc638e2c2e39ec1	-0.17361101642676682
119	0xbfd10eb31a04c5dd	-0.26652219334490984
120	0xbfb7014eecd87962	-0.08986371309626898
121	0xbfc2494e358ce6ec	-0.1428621064640575
122	0x3f5b6fcee042659c	0.0016746063493314539
123	0x3f91db2203f91c73	0.01743748807191676
124	0xbfbf5d817bf765d5	-0.12252053524516467
125	0xbfabc0cf08f83dc2	-0.054205388874943874
126	0xbfb7fe75b556be3b	-0.0937264983865526
127	0x3fc0ae797bc3d338	0.13032454055032772
128	0xbfb31337bcc3649f	-0.0745119891975201
129	0x3fd3b5f28bf69056	0.3079801909282244
130	0x3f98f093e1a018a7	0.024355230947570885
131	0xbfc5b156cd67fd85	-0.16947445897674754
132	0xbfb4e04e44e40c36	-0.08154763395218442
133	0xbfca045e903efaf1	-0.20325834315550353
134	0xbfa9653341b28909	-0.04960022141428239
135	0x3fc617e644363ac2	0.17260435419708214
136	0x3fc4ae3a8fe32c63	0.161567039735334
137	0x3fb17570aa29b72a	0.06819824365967678
138	0xbfae0e13a88b062b	-0.05870114738855777
139	0x3fabd798a6bce2e0	0.054379244188060616
140	0xbfd106ba2c91d081	-0.2660355983018761
141	0xbfc1f9baa6b3590e	-0.140433627506987
142	0x3fbfd24ac4873415	0.12430255220461135
143	0x3f3cae4f65d8a753	0.00043763578819043975
144	0xbf97503f0a95e5ee	-0.022767052670564718
145	0xbfd5b8cbb81cd7f8	-0.33940403918984385
146	0xbfc6a00d491b50ec	-0.17675939626372583
147	0xbfb8ab6ddf920049	-0.09636580188998879
148	0xbfc594a44d28cead	-0.16859868781613355
149	0xbf9461d405bceee9	-0.01990443501493547
150	0xbfdb9185dcb744e9	-0.4307570128849663
151	0xbfb00ed4a4989ddf	-0.06272629755459701
152	0x3fbbe5a45f27bfd4	0.10897281001211861
153	0xbf31ae14e39a97ed	-0.00026977548587081465
154	0xbfb934be70bdfdc5	-0.09846105816358548
155	0x3f93fbad54281c5e	0.01951475931312207
156	0xbfc09ed740ff4e13	-0.12984743760772285
157	0xbf90b2e500fcb9e0	-0.016307428536657897
158	0x3fcc1350bfc90f33	0.2193394600345698
159	0x3fbd2435a8235a4a	0.11383376460012432
160	0x3f8f53638f4d55e8	0.015295770464642325
161	0xbf7430d9199d9db1	-0.004929397627939578
162	0x3fcaf46880b6938b	0.21058374676536248
163	0x3f9d78e8f0b748e4	0.028781547252784714
164	0x3fb47158ea9018c1	0.07985454298622853
165	0xbfd1d3726d618b61	-0.27853069955579285
166	0xbfd2ebefdfa80d82	-0.2956504520554618
167	0xbfbf811851a151a6	-0.12306358330653797
168	0xbfd8a8e44bfad136	-0.385308336447696
169	0x3fb20a93004ac816	0.07047384984142044
170	0x3fa1727e51591d65	0.03407664053934915
171	0x3fbb1da95c1efc44	0.10592134951637983
172	0x3fc0bc465772a35b	0.13074569005882605
173	0x3fd93df7f723347a	0.394407264085039
174	0x3fc23f1f857d7e3d	0.14255136507107294
175	0xbf819532d92adb15	-0.008585355045722257
176	0x3fc7f3c51af5e5be	0.1871267682688948
177	0x3fd230057e506a31	0.2841809972320873
178	0x3fa180c4b5a6b0fa	0.03418554990216367
179	0x3fc2853cc9a273ad	0.144691084341415
180	0xbfc5a108bfd4aaaf	-0.16897687308058582
181	0x3fc97f473a1bd9dc	0.19919672334044847
182	0x3fc9763152edffbe	0.1989194540910812
183	0x3fd41cf5421d8fbc	0.3142674585017138
184	0x3fb0f8e4ef3053ff	0.06629782523698678
185	0x3fd8a4fcc9800577	0.38507003476851004
186	0xbfbed9a044a72ea0	-0.12050820995426159
187	0xbfc7faf910820847	-0.18734658533145618
188	0xbfb8228a4478c3ae	-0.09427704021142233
189	0xbfacdd2121e787c8	-0.0563745836150385
190	0x3fca27f565e8e6c2	0.20434443927825013
191	0x3fd6471863cbd993	0.34808931108218494
192	0xbfc10cccf789b81a	-0.133203144901416
193	0x3fb1c553d924aa98	0.06941722918842641
194	0x3fc202e5821fe21c	0.14071339467751975
195	0xbfc836d2b058e619	-0.18917306528764824
196	0x3fbb7c3783c797c3	0.10736414878155558
197	0xbfbde9a2e6bb9897	-0.11684625752568177
198	0xbf80534aa2fe9258	-0.00797136602324959
199	0xbfab5e4252297c7d	-0.053453514604137255
200	0x3f97f3d1ad81e850	0.023391033377699266
201	0xbfb11127b95d45ff	-0.0666680171537095
202	0xbfc01e33d1c7c003	-0.12592170470406935
203	0x3fa15f0ba0c5268b	0.0339282640221202
204	0xbfa6e0cbf6c9d8d6	-0.04468381297640327
205	0x3fb2da0d6827bd93	0.07363971512653782
206	0x3fc8bbfefabab621	0.19323718302386886
207	0x3fda9ffe8efe093e	0.41601528133482535
208	0x3fd036c423a96c7d	0.25334266169165415
209	0x3fd804e4b2fc0df5	0.37529866675342244
210	0x3fb61cf109b1ec88	0.08637911307043755
211	0x3faeb290fb01e30c	0.05995610298209017
212	0x3fb6a29f3e652c5f	0.0884189154941608
213	0x3fa777bb4a4df263	0.045835354633685176
214	0x3fa06c1bea08f6bf	0.03207480651734106
215	0x3fb5060e4a9e68cb	0.08212365457294195
216	0xbfaf6f48b5f3058e	-0.06139590474186739
217	0x3f9a7371408449ba	0.025831002772130886
218	0xbfaa7c9c1bf0d2c7	-0.05173194733689495
219	0xbfba6554c4b41407	-0.10310869028405999
220	0xbfbaf3eac73e79e9	-0.10528437961918481
221	0xbfd6113438fb8809	-0.3448000484914933
222	0xbf8a7ae843a5cf44	-0.012929739536708625
223	0x3fae4e0d5e52bb41	0.059189241184290704
224	0xbfb14ed6b849d8d4	-0.06760923384885881
225	0x3fcae9c478e1bd9c	0.2102590170138513
226	0x3fc3fbfcf44981ee	0.15612756660540533
227	0x3fc133b258b1a5cf	0.1343901570392476
228	0x3fb4b843884e8d5f	0.08093664243511033
229	0x3fcc3dbf5851b56c	0.2206343823667497
230	0xbfd27c11ee35eaa1	-0.28882263434176464
231	0xbfb86c3d528a7431	-0.09540160432011714
232	0xbfa7f8134a3d7117	-0.04681453973054966
233	0x3fab648b982ac486	0.05350147469051429
234	0x3fd26f6a6df4ab9f	0.2880502771174011
235	0xbf81cd40340b9d61	-0.008692266071604395
236	0xbfa93d526d9a6811	-0.04929597461632807
237	0xbfac11be6e48bd2f	-0.05482287498704818
238	0xbfcc7f9f30947847	-0.22264470932072042
239	0xbfc3c28b613f21b1	-0.15437452553147815
240	0x3f94c625583c0c76	0.02028711653748557
241	0xbfc2ee98e19d42fd	-0.14790640846560868
242	0xbfa7f38e9fec854e	-0.046780068418466145
243	0xbf8442a8b54be9c1	-0.009892766983729541
244	0x3fbfac9b82323040	0.12372753075232001
245	0x3fa6d998013db64b	0.04462885871076291
246	0xbfd6150af810fb06	-0.34503435349681444
247	0xbfd5446703ed1e38	-0.3322999513952456
248	0x3fc902e136c67e62	0.19540038275316635
249	0xbfc1da720050f893	-0.13947892203754417
250	0x3fc8450c821a771c	0.189607203986207
251	0x3fca6b3da72e9dbf	0.20639773047626694
252	0x3fc37c486576248f	0.1522303100030382
253	0xbfc0c1017cccef92	-0.13089006990219026
254	0xbfc79cbeb9d42887	-0.18447097848576652
255	0xbfce0c1460f7f348	-0.2347436402777936

weights_imag f8 [5000]
0	0xbfc41e7f31eb355c	-0.15718069016876768
1	0xbf6c96368429132e	-0.0034895958681623518
2	0xbfb1beae6075fa6b	-0.06931581358910825
3	0x3fb73440bed83128	0.09064106616296341
4	0x3fca4421cafd4f98	0.20520422374340508
5	0xbfcc8d95f4c0a64a	-0.2230708546715497
6	0xbfd1c4ae4f9bde2d	-0.2776294495992911
7	0xbfc7c31dffd1503a	-0.18564200392813907
8	0x3fd260dee3a509f3	0.2871625159351929
9	0x3f9dbd45ca05383b	0.029042330222459816
10	0xbfd62933f5931709	-0.3462648294629252
11	0x3fb797afc37f208f	0.0921583034788702
12	0xbfb46a4edd815416	-0.07974713237611328
13	0xbfd730056b62a9aa	-0.362305979603344
14	0xbfc8efc2572d4346	-0.19481686836891238
15	0x3fca1adcbebb90b0	0.20394477189177485
16	0xbfb502744fd85786	-0.0820687003073016
17	0xbf934e8b416f7c70	-0.018854308956971655
18	0x3fd332a4025d21b3	0.29996586066092873
19	0x3fd48ac3289746fa	0.3209693809886712
20	0x3fc07a061ba92230	0.1287238726674942
21	0x3f9e33883efd535c	0.029493454784943793
22	0xbfc81be09af0bd55	-0.18835074963997536
23	0x3fd7367899e14f92	0.3626996519790221
24	0x3fd934fb350d5f7e	0.3938587205971017
25	0x3fcce045c4e82bcc	0.22559425463290805
26	0x3fbf1e50eeefd9be	0.12155633767529303
27	0x3fc1f072755574b2	0.14015036324682267
28	0xbfda656588196cc5	-0.4124387578101046
29	0xbfc6b90878a3132e	-0.17752176180342744
30	0xbfd20725066ebfc9	-0.2816860735720153
31	0xbfc6fbf056620bdb	-0.1795635625640831
32	0xbfa0513236537a59	-0.03186947739753938
33	0x3fbd03f5bfaa1cbe	0.11334167413052662
34	0x3fbe72d1f11ce495	0.11893951546234612
35	0x3fa0f646675a75fa	0.03312892924916962
36	0xbfa12a65f67a6b43	-0.03352659829871254
37	0xbfcbce9be4a70de5	-0.21724270500827383
38	0x3fd17c3378c9c2a2	0.2732056312152428
39	0x3fb0b30ee97a17be	0.06523221206779703
40	0xbfa06355a2fc8232	-0.032007862230106446
41	0xbfc730d4dd68d3f1	-0.1811777192212101
42	0xbfac8530113af00f	-0.055703641989993107
43	0xbfae5b36c8e56a13	-0.05928965761514262
44	0x3fc7942abcf7be3b	0.1842091963476252
45	0x3fad18b7b429029c	0.056829205267154154
46	0xbfd4b9bcb4b6da42	-0.3238364949023983
47	0x3fa0b26fa9374c9f	0.032611359983684134
48	0x3fcd8de1603f8f2a	0.23089234542487108
49	0x3fa4493508e294c7	0.039621026358227555
50	0xbfc7859087af6ee6	-0.18376356721170523
51	0xbfc32fe60c293d48	-0.14989924997142112
52	0xbfd8b4a11cb135b6	-0.38602474023795297
53	0x3fab9835cf854c8a	0.053895646650425524
54	0xbfc784ae39d740c5	-0.18373658966311815
55	0x3fb9e255db3c0af3	0.10110985376745045
56	0xbfa5dc1d67c4b5b1	-0.04269496814445562
57	0x3fc43483d7c907ac	0.1578526309622793
58	0xbf89ac8273d11226	-0.012536067161030461
59	0x3fd01506ddee8bde	0.2512833754828402
60	0xbfb7a0223990d95b	-0.09228719621100849
61	0x3fc1c9cbf0e993cd	0.13897084487248748
62	0x3fcf201159c6dfd1	0.24316613086352715
63	0x3fd44ecc32cf0dd8	0.3173094268970238
64	0x3fc87bb9d5aaf1a8	0.19127581532474136
65	0xbfcafaf9052694c4	-0.21078408004283322
66	0xbfbd937671bf5d22	-0.11553135182417809
67	0x3fcadd18c7c7286a	0.20987233881743644
68	0x3fd1d2c0514cbc69	0.2784882348959799
69	0x3fc9f8f15fa9fc02	0.20290963336080386
70	0xbfd87141cec024b2	-0.3819126624153554
71	0x3fcceced45296acd	0.2259804332450898
72	0x3fbd7bb1610a84c1	0.11516865367095176
73	0x3fd78aa1967121f5	0.3678363770636957
74	0x3fdb37e52498ffdf	0.42528656553258587
75	0x3fad0cee50e69b8c	0.056739280105197215
76	0xbfc61e37ebea2f29	-0.17279719371105642
77	0x3fbc43ef793af855	0.11041161260342965
78	0xbfb8a4f24f60adff	-0.09626688421183614
79	0x3fba2ba454eda6f7	0.10222842286534815
80	0x3fc180a32edbff78	0.1367382029347899
81	0xbf8c2e7d8113ee9c	-0.013760548116344133
82	0xbfbd8a2a0f882294	-0.11538946990197935
83	0xbfc39d623a14e3dd	-0.1532404693223545
84	0xbfcc055199ea34d0	-0.21891231551527435
85	0xbfd10aae41989ece	-0.26627689748646055
86	0xbfb5a05ced05dcfd	-0.08447819506351446
87	0xbfd0a056b6ad9c3d	-0.2597862991301019
88	0x3fa11a4a331722ac	0.03340370057737138
89	0xbf9c9c1b35ca46b0	-0.027939248235788028
90	0x3fc467ac24d21fe1	0.15941383169069837
91	0xbfbca40ff263e5da	-0.11187839191179397
92	0x3fbf25a66b46adc7	0.1216682445435061
93	0x3fc87535e3c6f300	0.19107698079996993
94	0x3fc13ca2883b783b	0.13466293003051696
95	0x3fc2824ea1ab301a	0.1446016587636912
96	0x3fb79e122e986db9	0.09225572240432357
97	0x3fc454eda8bfa318	0.15884180774380563
98	0x3f9c70c1edb6c5f5	0.02777388585463388
99	0x3fb99dbe560b64f4	0.10006322479911828
100	0xbfc6c82cf9ef7eb4	-0.17798387721903952
101	0xbfd53c7cc172d685	-0.3318168534418436
102	0x3fbff539f83ba866	0.12483560858132278
103	0x3fc74ec1ad5442dc	0.18209095919930618
104	0xbfc3a4a2c22d08f6	-0.15346178513761516
105	0x3fd0becbba307c3f	0.2616452520614451
106	0x3fc85d70d3121a9e	0.19035158449351725
107	0xbfb26ecb2db1e07d	-0.07200307717892147
108	0xbfb87a38478ff866	-0.09561492678764835
109	0xbfa318a7169f2ae7	-0.037297460090106864
110	0xbfce19a690c40cc9	-0.23515779560702857
111	0xbfc2f6b786b44009	-0.14815420224522338
112	0x3f6387a4d2a5cad6	0.002384015960325096
113	0x3fd16e0a6a6d8a5e	0.27234135049198993
114	0x3fdb493f6881deb7	0.4263456841067454
115	0x3fab0e4e5fc9304e	0.05284352225552934
116	0x3fbd309e4ba88c7a	0.11402310702446697
117	0x3fbb3bd0d7ed21cb	0.10638146659505947
118	0x3fc638e2c2e39ec1	0.17361101642676682
119	0x3fd10eb31a04c5dd	0.26652219334490984
120	0x3fb7014eecd87962	0.08986371309626898
121	0x3fc2494e358ce6ec	0.1428621064640575
122	0xbf5b6fcee042659c	-0.0016746063493314539
123	0xbf91db2203f91c73	-0.01743748807191676
124	0x3fbf5d817bf765d5	0.12252053524516467
125	0x3fabc0cf08f83dc2	0.054205388874943874
126	0x3fb7fe75b556be3b	0.0937264983865526
127	0xbfc0ae797bc3d338	-0.13032454055032772
128	0x3fb31337bcc3649f	0.0745119891975201
129	0xbfd3b5f28bf69056	-0.3079801909282244
130	0xbf98f093e1a018a7	-0.024355230947570885
131	0x3fc5b156cd67fd85	0.16947445897674754
132	0x3fb4e04e44e40c36	0.08154763395218442
133	0x3fca045e903efaf1	0.20325834315550353
134	0x3fa9653341b28909	0.04960022141428239
135	0xbfc617e644363ac2	-0.17260435419708214
136	0xbfc4ae3a8fe32c63	-0.161567039735334
137	0xbfb17570aa29b72a	-0.06819824365967678
138	0x3fae0e13a88b062b	0.05870114738855777
139	0xbfabd798a6bce2e0	-0.054379244188060616
140	0x3fd106ba2c91d081	0.2660355983018761
141	0x3fc1f9baa6b3590e	0.140433627506987
142	0xbfbfd24ac4873415	-0.12430255220461135
143	0xbf3cae4f65d8a753	-0.00043763578819043975
144	0x3f97503f0a95e5ee	0.022767052670564718
145	0x3fd5b8cbb81cd7f8	0.33940403918984385
146	0x3fc6a00d491b50ec	0.17675939626372583
147	0x3fb8ab6ddf920049	0.09636580188998879
148	0x3fc594a44d28cead	0.16859868781613355
149	0x3f9461d405bceee9	0.01990443501493547
150	0x3fdb9185dcb744e9	0.4307570128849663
151	0x3fb00ed4a4989ddf	0.06272629755459701
152	0xbfbbe5a45f27bfd4	-0.10897281001211861
153	0x3f31ae14e39a97ed	0.00026977548587081465
154	0x3fb934be70bdfdc5	0.09846105816358548
155	0xbf93fbad54281c5e	-0.01951475931312207
156	0x3fc09ed740ff4e13	0.12984743760772285
157	0x3f90b2e500fcb9e0	0.016307428536657897
158	0xbfcc1350bfc90f33	-0.2193394600345698
159	0xbfbd2435a8235a4a	-0.11383376460012432
160	0xbf8f53638f4d55e8	-0.015295770464642325
161	0x3f7430d9199d9db1	0.004929397627939578
162	0xbfcaf46880b6938b	-0.21058374676536248
163	0xbf9d78e8f0b748e4	-0.028781547252784714
164	0xbfb47158ea9018c1	-0.07985454298622853
165	0x3fd1d3726d618b61	0.27853069955579285
166	0x3fd2ebefdfa80d82	0.2956504520554618
167	0x3fbf811851a151a6	0.12306358330653797
168	0x3fd8a8e44bfad136	0.385308336447696
169	0xbfb20a93004ac816	-0.07047384984142044
170	0xbfa1727e51591d65	-0.03407664053934915
171	0xbfbb1da95c1efc44	-0.10592134951637983
172	0xbfc0bc465772a35b	-0.13074569005882605
173	0xbfd93df7f723347a	-0.394407264085039
174	0xbfc23f1f857d7e3d	-0.14255136507107294
175	0x3f819532d92adb15	0.008585355045722257
176	0xbfc7f3c51af5e5be	-0.1871267682688948
177	0xbfd230057e506a31	-0.2841809972320873
178	0xbfa180c4b5a6b0fa	-0.03418554990216367
179	0xbfc2853cc9a273ad	-0.144691084341415
180	0x3fc5a108bfd4aaaf	0.16897687308058582
181	0xbfc97f473a1bd9dc	-0.19919672334044847
182	0xbfc9763152edffbe	-0.1989194540910812
183	0xbfd41cf5421d8fbc	-0.3142674585017138
184	0xbfb0f8e4ef3053ff	-0.06629782523698678
185	0xbfd8a4fcc9800577	-0.38507003476851004
186	0x3fbed9a044a72ea0	0.12050820995426159
187	0x3fc7faf910820847	0.18734658533145618
188	0x3fb8228a4478c3ae	0.09427704021142233
189	0x3facdd2121e787c8	0.0563745836150385
190	0xbfca27f565e8e6c2	-0.20434443927825013
191	0xbfd6471863cbd993	-0.34808931108218494
192	0x3fc10cccf789b81a	0.133203144901416
193	0xbfb1c553d924aa98	-0.06941722918842641
194	0xbfc202e5821fe21c	-0.14071339467751975
195	0x3fc836d2b058e619	0.18917306528764824
196	0xbfbb7c3783c797c3	-0.10736414878155558
197	0x3fbde9a2e6bb9897	0.11684625752568177
198	0x3f80534aa2fe9258	0.00797136602324959
199	0x3fab5e4252297c7d	0.053453514604137255
200	0xbf97f3d1ad81e850	-0.023391033377699266
201	0x3fb11127b95d45ff	0.0666680171537095
202	0x3fc01e33d1c7c003	0.12592170470406935
203	0xbfa15f0ba0c5268b	-0.0339282640221202
204	0x3fa6e0cbf6c9d8d6	0.04468381297640327
205	0xbfb2da0d6827bd93	-0.07363971512653782
206	0xbfc8bbfefabab621	-0.19323718302386886
207	0xbfda9ffe8efe093e	-0.41601528133482535
208	0xbfd036c423a96c7d	-0.25334266169165415
209	0xbfd804e4b2fc0df5	-0.37529866675342244
210	0xbfb61cf109b1ec88	-0.08637911307043755
211	0xbfaeb290fb01e30c	-0.05995610298209017
212	0xbfb6a29f3e652c5f	-0.0884189154941608
213	0xbfa777bb4a4df263	-0.045835354633685176
214	0xbfa06c1bea08f6bf	-0.03207480651734106
215	0xbfb5060e4a9e68cb	-0.08212365457294195
216	0x3faf6f48b5f3058e	0.06139590474186739
217	0xbf9a7371408449ba	-0.025831002772130886
218	0x3faa7c9c1bf0d2c7	0.05173194733689495
219	0x3fba6554c4b41407	0.10310869028405999
220	0x3fbaf3eac73e79e9	0.10528437961918481
221	0x3fd6113438fb8809	0.3448000484914933
222	0x3f8a7ae843a5cf44	0.012929739536708625
223	0xbfae4e0d5e52bb41	-0.059189241184290704
224	0x3fb14ed6b849d8d4	0.06760923384885881
225	0xbfcae9c478e1bd9c	-0.2102590170138513
226	0xbfc3fbfcf44981ee	-0.15612756660540533
227	0xbfc133b258b1a5cf	-0.1343901570392476
228	0xbfb4b843884e8d5f	-0.08093664243511033
229	0xbfcc3dbf5851b56c	-0.2206343823667497
230	0x3fd27c11ee35eaa1	0.28882263434176464
231	0x3fb86c3d528a7431	0.09540160432011714
232	0x3fa7f8134a3d7117	0.04681453973054966
233	0xbfab648b982ac486	-0.05350147469051429
234	0xbfd26f6a6df4ab9f	-0.2880502771174011
235	0x3f81cd40340b9d61	0.008692266071604395
236	0x3fa93d526d9a6811	0.04929597461632807
237	0x3fac11be6e48bd2f	0.05482287498704818
238	0x3fcc7f9f30947847	0.22264470932072042
239	0x3fc3c28b613f21b1	0.15437452553147815
240	0xbf94c625583c0c76	-0.02028711653748557
241	0x3fc2ee98e19d42fd	0.14790640846560868
242	0x3fa7f38e9fec854e	0.046780068418466145
243	0x3f8442a8b54be9c1	0.009892766983729541
244	0xbfbfac9b82323040	-0.12372753075232001
245	0xbfa6d998013db64b	-0.04462885871076291
246	0x3fd6150af810fb06	0.34503435349681444
247	0x3fd5446703ed1e38	0.3322999513952456
248	0xbfc902e136c67e62	-0.19540038275316635
249	0x3fc1da720050f893	0.13947892203754417
250	0xbfc8450c821a771c	-0.189607203986207
251	0xbfca6b3da72e9dbf	-0.20639773047626694
252	0xbfc37c486576248f	-0.1522303100030382
253	0x3fc0c1017cccef92	0.13089006990219026
254	0x3fc79cbeb9d42887	0.18447097848576652
255	0x3fce0c1460f7f348	0.2347436402777936

weights_minus_real f8 [5000]
0	0xbfc8efdb7c454866	-0.19481986587431094
1	0xbf8535b9f2d2cb11	-0.01035638115204088
2	0x3fc470f02556ae0e	0.15969659636662964
3	0xbfb7bea5e80c6705	-0.0927528087162522
4	0xbf9c616f5313a65e	-0.02771543449936186
5	0x3fb408a4748ac0f0	0.07825687260879355
6	0x3fc4dfd08b6bf296	0.16308028037737604
7	0xbfd3831bf77b88c9	-0.3048772732564769
8	0xbfa571d6a03f0be0	-0.041884142934143886
9	0x3fcc55027eb51dfd	0.22134429156197646
10	0x3fb39f50be429dff	0.07664971013092979
11	0xbfc3ac7a28d54cd2	-0.15370108598526727
12	0x3fc967a7e10b092a	0.19847582329209362
13	0x3fc099bfe8f799bc	0.12969206691123059
14	0x3fa2b44500bab49d	0.03653159746077359
15	0x3f948ebf9f50c1a6	0.02007579240688675
16	0x3fb068ffa8baff19	0.06410215253253816
17	0xbfbd53e9b20a68e9	-0.1145616588277424
18	0x3fb383394d6ce419	0.07622106685893505
19	0xbfa535986c08198a	-0.04142452543969728
20	0x3fd1aca418e4f7b4	0.2761621707066937
21	0x3f54af18ace20456	0.0012624493570288129
22	0xbfd00d1eb3e0ef44	-0.2508007771136713
23	0xbfb2a1ef49e1a284	-0.07278342775101448
24	0x3fc26ca1fda16fbc	0.14394020923907458
25	0xbfc6eb6ffe9eaec2	-0.17905998165712417
26	0xbfa8a136cdcfeb3c	-0.04810496580463172
27	0xbf85e70cdee19afa	-0.010694599677845574
28	0xbfb5bf66b6ac30a7	-0.08495180091648767
29	0x3f5723b8056227ad	0.0014123246269570442
30	0x3fc6786f829892f6	0.1755504024196381
31	0xbfc0c27aa9353c74	-0.13093503248316873
32	0xbfba25e12a1724ee	-0.10214049604032358
33	0xbfd5a617b629b2a6	-0.3382624892172238
34	0xbfbf97afa535ec84	-0.12340829642737289
35	0x3fd8a74998c7d2d4	0.3852104179380096
36	0x3fb293db2fc41931	0.07256860653078402
37	0xbfaf815b5f36b4a5	-0.06153378999020135
38	0xbfdbf3eac3755368	-0.4367625149509906
39	0x3fc1dea70a807ec9	0.13960731518544936
40	0x3fd5f6400b26b42b	0.34315491761191436
41	0xbfacf3c938e17b68	-0.05654743975968907
42	0x3fa99b38f34d8c12	0.050012378406585026
43	0xbfc35c001b4a3aa2	-0.15124512989537658
44	0x3fcb58596faef2c3	0.213633708508402
45	0x3faf1da0eb47b5dc	0.06077292320319902
46	0x3fc4ae6047873412	0.16157153599343183
47	0xbfae8f34d13aaddb	-0.05968632749621935
48	0x3fc18a3b005b4966	0.13703095929538306
49	0xbfb21f54f4c9adf2	-0.0707905862452021
50	0xbfb4857b9ecc337c	-0.0801617872895814
51	0xbf91493d75f0b4ab	-0.016880951236249924
52	0xbfc85e5320ea48bf	-0.19037856204210432
53	0xbfd2847c0294f70c	-0.28933620693338535
54	0xbf7b52ff0a11db69	-0.0066709482645056295
55	0x3fc18ea254bad9dd	0.1371653474540854
56	0xbfa19e5db4976420	-0.03441136197552219
57	0xbfd59196b6d384b2	-0.33701103071332306
58	0xbf59166d0c727a56	-0.0015312256744334416
59	0xbfa9609dd3fc4483	-0.04956525051796581
60	0x3faf0922045e3303	0.060616553338240585
61	0x3f742c22251ca782	0.004924901369841696
62	0xbfb76020221677e3	-0.0913105090353095
63	0x3fc6a44684242d51	0.1768882889958641
64	0x3fcaefcee226f8d5	0.21044336359586305
65	0xbf9fe935e9168ab2	-0.0311630652919443
66	0x3fb94421cec6761b	0.09869586275313973
67	0xbf7ec5afda9b1e2b	-0.00751274769726921
68	0x3fc82ca400497d6b	0.1888623238946637
69	0x3fb4201e15f789f1	0.07861507450392204
70	0x3fd2d0c536c9d934	0.2939923319858224
71	0xbfce1a6b88aadf9b	-0.23518127606598402
72	0x3fa49b73b21e0339	0.040248504154993765
73	0x3f974ba99cdfa166	0.022749567222406418
74	0xbfc87a6660e6ac75	-0.1912353490018607
75	0x3fc9077f062f6f48	0.19554126550689888
76	0x3fc1af5364202e79	0.13816301716757431
77	0x3fdae9b5cde90ff4	0.42051453693807095
78	0x3f863e458a336279	0.010860961227465925
79	0x3fb5ee27af55b867	0.08566520720134606
80	0xbfbbc8460c19c34e	-0.10852468295503323
81	0x3faf00297321b433	0.060548110298306666
82	0x3fc1fab1e8ca361f	0.14046310297673956
83	0xbfb0df9e5060825c	-0.06591214620903812
84	0xbf94cba5757d2b7c	-0.020308099075275518
85	0xbfd1ec116a3be583	-0.28003344892893994
86	0x3fa5d27d3492bf63	0.04262152926219078
87	0xbfcf12878bad72ae	-0.2427529747027583
88	0xbfdcf49ef42da6f8	-0.45243047566928807
89	0xbfba596178f44f16	-0.10292634203898063
90	0x3fa7cf47c69a759c	0.046503298753332006
91	0xbfaea7a183e4fdbb	-0.05987267241516344
92	0xbfd01cc307121f81	-0.25175548258311414
93	0xbfce3c28ce65c036	-0.2362109191703909
94	0x3fb663fd2e3b12aa	0.08746321085625178
95	0x3fd47f8629c5a733	0.32028345183663304
96	0x3fc7a24f9a7aa04f	0.18464083712501853
97	0x3fa944eaf7869f1a	0.04935392638736698
98	0x3fa9738a6965755a	0.049709630361329984
99	0x3fc041448c46e5d3	0.12699181413135693
100	0x3fc7db79ef16475d	0.18638538526698314
101	0xbfc1d07dfc244686	-0.13917517482382297
102	0x3fc1b245bcf0c83c	0.13825294232953123
103	0xbfa09c1b633814c1	-0.03244100176019905
104	0xbfa05b47c14adde7	-0.03194641336943587
105	0x3f94da506e2ad38e	0.02036405250938205
106	0xbfbe88dac7d40d12	-0.11927573565121843
107	0x3fcdc001a7cc718f	0.23242207234660525
108	0xbfd11e5fcee8a27a	-0.26747889715128503
109	0x3fc87a3c78694e95	0.19123035315952977
110	0x3f819f26dd578d26	0.008604339246579839
111	0xbfc99fefe7ce8218	-0.2001933938854712
112	0xbfd631b94776d3ad	-0.3467848966495762
113	0xbfd3b5a71cae80f6	-0.307962205895833
114	0x3fb8be1fc9187a84	0.09665106448708555
115	0x3fdebd00a03a03a1	0.4802857937539163
116	0x3fd7dc29f2be6b3e	0.3728127356095462
117	0x3fd0ebedcecdaf6d	0.26439995952272605
118	0x3fb632cff7ebb726	0.08671283533814442
119	0xbfadc63e5b41b706	-0.058153103484853516
120	0x3fdc6160a81af8b6	0.44344345490015813
121	0x3fd115673dac23ae	0.2669313528318139
122	0x3fc8023dc9738392	0.18756840073095
123	0xbf94189eb123580a	-0.019625167428635883
124	0xbfb8a734a48923e3	-0.09630135552391965
125	0xbfb224ee3722d21a	-0.0708760151490612
126	0x3fb6ab97cfa1ab2d	0.0885558015740286
127	0xbfcae73ae54a8e89	-0.21018158145772173
128	0x3fd1db47bb9d2424	0.2790088016668639
129	0x3fac1a84b55531be	0.05488981927428281
130	0xbfbd16b00ae34355	-0.11362743631185641
131	0xbfcd22e664386b47	-0.22762756246160107
132	0xbfd68ee767cf276d	-0.35247216355911953
133	0xbfcc8046d289efc9	-0.2226646926900442
134	0x3fce4828acb187b8	0.2365771144132489
135	0x3fd19ae971755a8c	0.27508007125781186
136	0x3fa672220bbdf4be	0.04383951562247422
137	0xbfab270ee36e3bef	-0.053032365095638904
138	0xbf934c72d4c46471	-0.018846315609242163
139	0xbfc88aa3ab14a68c	-0.19173093656109008
140	0xbfd1c10bf3232089	-0.27740763419979736
141	0xbfb4940d7261d66e	-0.08038410227330825
142	0xbfc65a97a6ebd2fd	-0.17463966036270753
143	0xbfc64c59a450ebca	-0.17420502207991567
144	0xbfc5c33b5d54f88e	-0.1700205045435194
145	0xbfd99fb53bebcb78	-0.40037279941241577
146	0xbfb696bcb60ac030	-0.08823756641754765
147	0xbfc8412f79bf02d8	-0.18948930210719683
148	0x3fc011238c4d1651	0.12552303648606025
149	0x3fd825b7492c1412	0.3773019995281298
150	0x3fcae57218c0dc16	0.21012712677631445
151	0x3f9be675e99a9535	0.02724632490448649
152	0xbfc2a4250c7e15d8	-0.1456342993734967
153	0xbfd080517a171551	-0.25783192561023777
154	0x3fbfeddc1a3227fa	0.12472320212887658
155	0x3fb2dca38e4aef34	0.07367918228095222
156	0x3fae0388c5ce355f	0.05862071432702964
157	0x3fb0efdb9a8e7c71	0.06615993998865279
158	0xbfc85db3e0a77d9d	-0.1903595778412467
159	0xbfc280ff5dc04118	-0.14456169202504365
160	0xbf83178a1ce44625	-0.009322241789536065
161	0xbf8ed242669dae3d	-0.01504947543772694
162	0x3fb7590db35506d9	0.09120259884096117
163	0xbfa9711e2bbfa198	-0.04969114574470551
164	0xbf9fb40a23a10968	-0.030960234093308087
165	0x3fb13b4ae29ddcd8	0.06731098206170161
166	0x3fbeb1740146fe48	0.1198952201002551
167	0x3f93900685522acc	0.019104101073518717
168	0x3fd8591829ab37d1	0.38043788975926157
169	0x3fa1ea20cda18043	0.03498938093321204
170	0x3fb1136a0e85bbe3	0.066702488465793
171	0x3fcbbff51cd2bc02	0.21679557711965464
172	0xbfc161996535abcd	-0.13579099122884344
173	0x3fd0dda982ecc6f2	0.26352918420444305
174	0xbfbe3a68638eba25	-0.11807873182872493
175	0x3fb7b3b670ef81b5	0.09258594758239876
176	0x3fc1ffda04374337	0.14062047201016423
177	0xbfa18b3ed4fe2908	-0.03426548337945873
178	0x3fcbeae59facd20d	0.2181059865630605
179	0x3fa9228a40af9d2c	0.04909164466499258
180	0xbfcb74c8e258be9b	-0.2145014863212865
181	0xbfcfb9cd4e778b73	-0.2478577263965139
182	0xbfb6de9a6506bbb2	-0.08933415380918922
183	0xbfc3810bec831d26	-0.1523756890148686
184	0xbfd49c90abd8e7fa	-0.3220559766956509
185	0xbfdcdb30854d228e	-0.4508782674570647
186	0xbfcaa5c3d241365e	-0.20818374410957835
187	0xbf92d3f66c567fcc	-0.018386698114795583
188	0x3fb409653b983d92	0.07826836304615473
189	0x3fdfc41f9dbe50b9	0.4963454285109595
190	0xbfb9ef1ab16ea545	-0.10130469161835716
191	0x3fcddcc91c4a4f53	0.2333003414283846
192	0x3fc238bd1a643114	0.14235652722016623
193	0xbfb7684728e0214e	-0.09143490550934993
194	0x3f6bfe4bbdb4c652	0.003417156154363701
195	0xbfa36a812b7a84d8	-0.037921940381474506
196	0x3fb49d6a97fe69bb	0.08052698336397317
197	0xbfa70f1797adf355	-0.0450370190292008
198	0x3fa39f26d5c54020	0.03832360610488217
199	0xbfdc2e9f07dea018	-0.44034553307074153
200	0xbfc50d20b95fd9d4	-0.16446312953458053
201	0xbfac3bd935d6a7ab	-0.05514410764892771
202	0xbfb54d5d7cbcf1ec	-0.08321174903262091
203	0xbfd4cd87671ee30e	-0.3250444895780199
204	0xbf7ef2bcfaf9a25f	-0.007555711941315295
205	0x3fc31c884fd3f55d	0.14930824182367078
206	0x3fc0a88406bd46f1	0.1301426918894815
207	0xbf46e2c2dcaa3fc9	-0.0006984187578655761
208	0xbfa7284d73186c38	-0.045229358958942034
209	0x3fbd8897be07d093	0.11536548985879085
210	0x3f474fb8ef6b1fca	0.0007114079479260068
211	0xbfa8c2bd98816b6b	-0.04836075293197591
212	0xbfbd84ecffdc668d	-0.11530953642468429
213	0x3fafdbc970ee78e1	0.062223715816104315
214	0xbfc2b1c3ced631ea	-0.14604995345543098
215	0x3fc9229f34ee4c1b	0.19636907658113575
216	0x3faee7045b1c940f	0.06035626995279852
217	0xbfb91c1f73e3a3a3	-0.09808537082029871
218	0x3fa981292bbd916c	0.049813543881813555
219	0xbfc035cac925e453	-0.12664160558395796
220	0xbfccefe7ffacb0f2	-0.22607135757551294
221	0xbfccf7808998e7fd	-0.22630316465966863
222	0x3fa1fd6134056ce3	0.03513625869774175
223	0x3fd30365503b8052	0.2970822604675095
224	0xbfcd0aabfbbe25a5	-0.22688817779662176
225	0xbfcdd29a6c3ae6a8	-0.23298960003540015
226	0xbfc64b12c218a927	-0.1741660545097343
227	0xbf9a3f302a99a2f4	-0.025631668663126342
228	0x3faa6d5a44b30bf1	0.051615544210584015
229	0x3fc3d270a99909d7	0.15485962182181254
230	0xbfc2e93e7c002ba6	-0.14774304442138692
231	0xbfc0d40f9900d1eb	-0.13147158594951178
232	0x3fc75dab82bdf7bf	0.18254608043565487
233	0x3faa054d70a32ba7	0.05082170486419751
234	0xbfb36e450ebdf3fb	-0.0759013329497548
235	0x3fac998d7159c16d	0.05585901268648539
236	0x3f864db9aba13386	0.010890436697218463
237	0xbfd664c86f67e6c3	-0.34990130309561723
238	0xbfbff7287c696287	-0.12486508405107531
239	0xbf7d2fb39c1db1f8	-0.00712556991662127
240	0xbf629f0db476618d	-0.0022731082605781995
241	0xbfb1fcca55754e23	-0.07026352487928782
242	0xbfb56e01f99643fa	-0.08370983451301575
243	0xbf925fcc64097cab	-0.017943566900041102
244	0xbfc88477bb04b9d3	-0.1915425933052136
245	0xbfc674f70e9d3331	-0.17544449056222214
246	0xbfb00f73e4db68fe	-0.06273578965502577
247	0x3fbd086144e30362	0.1134091180019943
248	0xbfb0f10957aeb9f4	-0.06617792502104419
249	0x3fb858a0b9791f78	0.0951023533644938
250	0x3fd2fa7d82645a46	0.29653871282190314
251	0x3f903f84216fdfc2	0.015867294827301988
252	0xbf9088335adeb0a3	-0.01614456407666921
253	0xbfb1134887bb0a62	-0.06670049012886062
254	0x3fd11987539cfaf3	0.2671831432852933
255	0x3fcc47fecbc676dd	0.2209471220966667
