programs/data/2025-10-10/#15_resonator_spectroscopy_103137/optimal_weights_r0.npz (npz, 5336 bytes, 4 tensors)

weights_real f8 [125]
0	0xbfef858ed0633417	-0.9850534505909562
1	0xbf81ed5e9ed8d158	-0.00875352785360721
2	0xbf877c063c7ddc0d	-0.011467026444490736
3	0xbf733b3b88369eb2	-0.004695160433960831
4	0xbf58c269aa2f5a3e	-0.0015111953623453546
5	0xbf61ca7d08603c8d	-0.0021717493100435526
6	0xbf648e14195cadca	-0.0025091545639008605
7	0x3f63ee9f2059a17c	0.0024331195771091756
8	0x3f30819bc6ca3c29	0.00025186589372422574
9	0xbf34ddce95df4475	-0.00031839650716586977
10	0x3f5ee90cc52b96e4	0.0018866181096028273
11	0x3f6a96d145a7adcf	0.0032457434983734555
12	0xbf657d438ee07d9b	-0.0026232070440667782
13	0x3f40819bc6ca3c29	0.0005037317874484515
14	0x3f61ca7d08603c8d	0.0021717493100435526
15	0x3f654b6f010fbf49	0.002599446110700319
16	0xbf5e4997cc28d871	-0.0018486006162113067
17	0xbf6d1e9c794378f5	-0.0035546356321979286
18	0xbf63ee9f2059ef58	-0.0024331195771178198
19	0xbf7e71750a691343	-0.0074324199582108145
20	0xbf56945042a60d89	-0.001378134135479355
21	0x3f6b7c096b9be3b4	0.0033550437918816404
22	0xbf78cc60f9bfb6cf	-0.006054285822740104
23	0x0000000000000000	0.0
24	0xbf5adc947298d765	-0.0016395044025449776
25	0x3f74c4e44ef586ee	0.00507058318120966
26	0x3f5ca704be814330	0.0017488046960531627
27	0x3f4aa0c89536f9de	0.000812623921255636
28	0x3f5b2c4eef1a847b	0.00165851314924506
29	0xbf6e71750a691343	-0.0037162099791054073
30	0xbf6872af2dae48e1	-0.002984373231307833
31	0x3f5de5eeb086c015	0.0018248396828362036
32	0x3f6db41a22b601c4	0.0036259184323059485
33	0xbf6890951c5e9bed	-0.0029986297913242505
34	0xbf781df90964a7e8	-0.00588795928914896
35	0xbf779c69ff12636f	-0.005764402435624357
36	0xbf64841cc9ccc604	-0.0025044023772344843
37	0x3f5e4997cc283cb9	0.0018486006162026626
38	0x3f0170cb3c5ddcaf	3.326530672514407e-05
39	0x3f1170cb3c54212b	6.653061344164396e-05
40	0xbf65ccfe0b622ab0	-0.0026612245374669427
41	0x3f40d156434ab1ce	0.0005132361607898485
42	0x3f529bc68f33b951	0.0011357726150965262
43	0x3f3c078fc57e84be	0.0004276968006654106
44	0x3f60c75ef3bb65c0	0.002048192456510306
45	0x3f4fc44d9b8efb6d	0.0009694460815053825
46	0x3f74bfe8a72d6c1b	0.005065830994534638
47	0xbf71cf78b028575f	-0.004348250806762126
48	0x3f66ee020eb75489	0.002799037951016607
49	0xbf70a47d5d42f7e3	-0.0040631196063127565
50	0xbf3031e14a488f14	-0.0002471137070492052
51	0x3f6840da9fdd3cb3	0.0029606122979327298
52	0xbf53dab081393636	-0.001211807601879567
53	0x3f6c891ecfd0546c	0.0034833528320726195
54	0x3f8036dcf2111eaf	0.007917142998976471
55	0xbf55e0ecaa824819	-0.0013353644554041698
56	0xbf6b22579f8a4ed8	-0.0033122741118150993
57	0x3f6c1b7e649e544b	0.0034310787786560374
58	0xbf548e14195cfba6	-0.0012545772819547523
59	0xbf69b1991fb413a2	-0.003136443204882559
60	0x3f6d4679b78401a3	0.0035736443788893664
61	0x3f6eb738375a3cd9	0.003749475285821907
62	0x3f7d0aadda22bfd3	0.007090262517678486
63	0xbf4f9c705d4f5c53	-0.0009646938948390061
64	0xbf3e35a92d07d173	-0.0004609621073819105
65	0x3f4c2f6d03be23d8	0.0008601457879971975
66	0x3f5d328b1863965e	0.0017820700027696627
67	0xbf2170cb3c4a65a7	-0.00013306122686599956
68	0xbf40a979050b12b4	-0.0005084839741234721
69	0xbf2de5eeb088933e	-0.00022810496035776702
70	0x3f17ab5cf6622fd0	9.029154679945852e-05
71	0x3f6d4679b78401a3	0.0035736443788893664
72	0x3f6152e54d9e06c9	0.00211472306995195
73	0xbf66945042a60d89	-0.00275626827095871
74	0x3f4031e14a488f14	0.0004942274140984104
75	0xbf580f06120c3086	-0.0014684256822788135
76	0xbf4de5eeb0875bce	-0.000912419841422424
77	0xbf4ccee1fcc2b573	-0.000879154534705924
78	0xbf5b18604ffa1936	-0.0016537609625700395
79	0x3f776a9571417e31	0.0057168805688827965
80	0x3f6b5e237ceb42cd	0.003340787231856579
81	0x3f73274ce9165a5b	0.004676151687269393
82	0xbf7b81051363fe86	-0.006714839770438302
83	0xbf5d6e56f5c4d82e	-0.0017963265627947245
84	0x3f65556650a042c8	0.002604198297383984
85	0x3f670be7fd67f571	0.0028132945110416687
86	0xbf684ad1ef6d7256	-0.0029653644846077505
87	0x3f25ccfe0b61dcd4	0.00016632653359114366
88	0xbf5ce2d09be1e948	-0.0017630612560695803
89	0x3f60b370549b4857	0.002038688083168909
90	0x3f3170cb3c4f4369	0.0002661224537492875
91	0xbf669e479235f550	-0.0027610204576250866
92	0x3f621a3784e19bc7	0.0022097668034350734
93	0x3f548e14195cfba6	0.0012545772819547523
94	0x3f6b2c4eef1a847b	0.00331702629849012
95	0x3f312110bfcd9654	0.0002613702670742669
96	0x3f625ffab1d2c55d	0.002243032110151573
97	0xbf357d438ee02fbf	-0.00032790088050726676
98	0xbf78b8725a9f7278	-0.006035277076048666
99	0xbf50a979050bae6d	-0.0010169679482555885
100	0x3f55b90f6c420d46	0.0013258600820627727
101	0x3f63dab081398412	0.0024236152037677783
102	0x3f599daa80935a81	0.0015634694157619369
103	0x3f6a5b05684707b8	0.0032172303783406207
104	0xbf08ea46e85f28a2	-4.752186673291746e-05
105	0xbf40f933818cbfc9	-0.0005179883474735132
106	0xbf792612c5d14bab	-0.006139825182873186
107	0xbf27ab5cf66beb54	-0.0001805830936162054
108	0x3f63b2d342f8ad88	0.0024046064570676963
109	0xbf72bea825ac750b	-0.004576355767111249
110	0x3f7738c0e370bfdf	0.005669358702149878
111	0x3f724214c3224b63	0.004457551100261667
112	0xbf5fec2ad9cfd1f8	-0.0019483965363608063
113	0xbf4d963434047748	-0.0009029154680637386
114	0xbf2989bbe1711c13	-0.00019483965363262297
115	0xbf5273e950f2e2c7	-0.0011262682417464852
116	0xbf5b0471b0da49a9	-0.0016490087759036631
117	0xbefde5eeb0530beb	-2.851312003283514e-05
118	0xbf629bc68f33b951	-0.0022715452301930524
119	0x3f584ad1ef6d7256	0.0014826822423038752
120	0xbf6fe2338a3f9c55	-0.003892040886046592
121	0xbf7854c93efda7f9	-0.005940233342565542
122	0xbf566c73046536fe	-0.0013686297621293138
123	0x3f2d4679b7853913	0.00022335277368274643
124	0x3f3a2930da74763e	0.0003991836806152871

weights_minus_imag f8 [125]
0	0x3fc60c40e36c6d15	0.1722489462343694
1	0xbf730e62a22dd443	-0.004652390753894289
2	0x3f71b68e693fd148	0.004324489873387023
3	0x3f81e0e97b64a1c5	0.008729766920240753
4	0xbf642073ae2afb85	-0.0024568805104929225
5	0x3f687ca67d3e7e84	0.0029891254179828537
6	0x3f71b192c177b676	0.004319737686712002
7	0x3f6c574a41ff961b	0.003459591898706161
8	0x3f7031e14a48dcf1	0.003953819312804572
9	0xbf63e4a7d0c9b9b5	-0.002428367390442799
10	0x3f5ec12f86eac059	0.001877113736252786
11	0x3f611719703d12d6	0.002086209949910471
12	0xbf73b2d342f8d476	-0.004809212914144037
13	0x3f758c3686391bea	0.005260670648175906
14	0x3f7afa7a61499f3c	0.006586530730238679
15	0x3f361cb887e389e9	0.0003374052538573079
16	0x3f455566509f5934	0.0006510495743395129
17	0x3f6d0aadda22bfd3	0.003545131258839243
18	0x3f6fb05efc6ede04	0.003868279952680133
19	0xbf65a520cd21a201	-0.0026422157907755044
20	0xbf568061a385a244	-0.0013733819488043345
21	0xbf3b18604ffbec5f	-0.00041344024064899303
22	0xbf65a520cd21a201	-0.0026422157907755044
23	0xbf49b1991fb4617e	-0.0007841108012228008
24	0xbf776a9571417e31	-0.0057168805688827965
25	0x3f3bb7d548fcd7a9	0.00042294461399039
26	0x3f6287d7f0134e0c	0.0022620408568430114
27	0xbf79122426b10753	-0.006120816436181747
28	0x3f57837fb829dd59	0.0014351603755623137
29	0xbf510d2220ac8f57	-0.001040728881613403
30	0x3f6ca704be80f554	0.003497609392097681
31	0xbf4a78eb56f62353	-0.0008078717345806153
32	0x3f5b0471b0d91238	0.0016490087758863747
33	0xbf60bd67a42bcbd6	-0.002043440269852574
34	0xbf71032ad11ca790	-0.004153411153120859
35	0xbf692612c5d17298	-0.0030699125914409146
36	0xbf703bd899d91293	-0.003963323686154613
37	0xbf611719703d12d6	-0.002086209949910471
38	0xbf5c7f2780406ca6	-0.0017393003227031217
39	0xbf6f6a9bcf7db46d	-0.003835014645963633
40	0x3f55a520cd21a201	0.0013211078953877522
41	0xbf152d89125e82a9	-8.078717345806154e-05
42	0x3f252d89125e82a9	0.00016157434691612307
43	0x3f68a483bb7f550f	0.003008134164682936
44	0xbf73046b529d9ea1	-0.004642886380544249
45	0x3f70b86bfc636328	0.0040821283530128386
46	0x3f6993b3310372ba	0.003122186644857497
47	0x3f6a33282a06312d	0.0031982216316405383
48	0xbf70ea408a34217a	-0.004129650219745757
49	0xbf76855d4b4d6f39	-0.00549827998187507
50	0x3f65d6f55af21276	0.002665976724133319
51	0xbf53c6c1e21966a9	-0.0012070554152131907
52	0xbed3ee9f206b455a	-4.752186675020581e-06
53	0x3f6989bbe172ef3c	0.0031174344581738327
54	0x3f80050864403970	0.007822099265493349
55	0xbf606dad27aa1ec0	-0.002005422776452409
56	0x3f3d963434047748	0.0004514577340318693
57	0x3f6df9dd4fa72b5b	0.0036591837390224486
58	0x3f55199a733eb31b	0.001287842588662608
59	0xbf6f7e8a6e9dd1d7	-0.0038445190193050305
60	0xbf5ec12f86eac059	-0.001877113736252786
61	0x3f0170cb3c5ddcaf	3.326530672514407e-05
62	0x3f5dbe1172468544	0.001815335309494807
63	0x3f636318c6774e4e	0.0023665889636761755
64	0x3f801df2ab289899	0.007869621132226267
65	0xbf67dd31843b7235	-0.0029130904311911684
66	0x3f70d651eb13dd22	0.004110641473054318
67	0xbf1170cb3c54212b	-6.653061344164396e-05
68	0xbf6d00b68a92d80c	-0.0035403790721728664
69	0x3f744850ec6b5d46	0.0049517785143600775
70	0xbf4e0dcbeec83259	-0.0009171720280974446
71	0x3f643e599cdb4e92	0.0024711370705093405
72	0x3f5cf6bf3b02f046	0.0017678134427532451
73	0xbf70c75ef3bb8caf	-0.004096384913029257
74	0x3f728cd397db8fcb	0.004528833900369687
75	0xbee3ee9f206b455a	-9.504373350041163e-06
76	0x3f748918719492f9	0.005013556941126701
77	0x3f34ddce95e1b356	0.00031839650717451395
78	0xbf3d4679b7853913	-0.00044670554736549287
79	0x3f60e544e26c5484	0.002062449016544012
80	0xbf5e21ba8de801e6	-0.0018390962428612655
81	0xbf6c753030b03703	-0.0034738484587312226
82	0x3f606dad27aa6c9c	0.002005422776461053
83	0x3f7f15e5ab341375	0.007589242118460561
84	0xbf475ba279e906ce	-0.0007128280011061362
85	0x3f48ea46e87030c9	0.0007603498678476979
86	0xbf69bb906f43fb69	-0.0031411953915489355
87	0x3f7cf1c3933a8799	0.007066501584320672
88	0xbf634f2a2756e309	-0.0023570845903261345
89	0x3f642073ae2aada9	0.0024568805104842784
90	0x3f7031e14a48dcf1	0.003953819312804572
91	0xbf5f4cb5e0cdaf3e	-0.00191037904297793
92	0x3f55ccfe0b61dcd4	0.0013306122687291493
93	0x3f46945042a4d619	0.0006890670677310334
94	0xbf6840da9fdd8a8f	-0.002960612297941374
95	0xbf72153bdd1980f6	-0.0044147814201951265
96	0xbf6031e14a492acd	-0.00197690965641093
97	0xbf70fe2f29548cbe	-0.004148658966445838
98	0x3f76c624d0767dfe	0.005560058408633049
99	0x3f6e0dcbeec748c4	0.0036686881123638455
100	0x3f742073ae2ad497	0.004913761020977201
101	0x3f5b542c2d5b5b06	0.0016680175225951012
102	0x3f56bc2d80e6485b	0.0013876385088207519
103	0x3f5452483bfb1e1f	0.0012403207219210466
104	0xbf5f38c741aca840	-0.0019056268562942652
105	0xbf4031e14a49c685	-0.0004942274141070546
106	0x3f70819bc6ca8a05	0.0040298542996049
107	0xbf589a8c6bef1f6b	-0.0015016909890039575
108	0xbf53ee9f205a3d34	-0.001216559788563232
109	0xbf493a0164f1ddde	-0.000769854241197739
110	0xbf4fc44d9b9032de	-0.0009694460815140268
111	0x3f721a3784e19bc7	0.004419533606870147
112	0xbf4dbe1172454dd3	-0.0009076676547387592
113	0x3f70d156434be93e	0.004105889286387941
114	0x3f5b681acc7b2a94	0.0016727697092614778
115	0x3f5a3d1f79957d3c	0.0016014869091448133
116	0xbf32afb52e5388de	-0.00028513120044072564
117	0xbf6ec12f86eac059	-0.003754227472505572
118	0x3f6b0e690069e394	0.0033027697384650587
119	0x3f76d517c7cef560	0.005574314968666755
120	0x3f7291cf3fa3aa9d	0.004533586087044708
121	0xbf668061a385068c	-0.0027467638975913807
122	0xbf74167c5e9a9ef4	-0.004904256647627159
123	0x3f6b99ef5a4c849d	0.0033693003519067025
124	0x3f475ba279ea3e3e	0.0007128280011147803

weights_imag f8 [125]
0	0xbfc60c40e36c6d15	-0.1722489462343694
1	0x3f730e62a22dd443	0.004652390753894289
2	0xbf71b68e693fd148	-0.004324489873387023
3	0xbf81e0e97b64a1c5	-0.008729766920240753
4	0x3f642073ae2afb85	0.0024568805104929225
5	0xbf687ca67d3e7e84	-0.0029891254179828537
6	0xbf71b192c177b676	-0.004319737686712002
7	0xbf6c574a41ff961b	-0.003459591898706161
8	0xbf7031e14a48dcf1	-0.003953819312804572
9	0x3f63e4a7d0c9b9b5	0.002428367390442799
10	0xbf5ec12f86eac059	-0.001877113736252786
11	0xbf611719703d12d6	-0.002086209949910471
12	0x3f73b2d342f8d476	0.004809212914144037
13	0xbf758c3686391bea	-0.005260670648175906
14	0xbf7afa7a61499f3c	-0.006586530730238679
15	0xbf361cb887e389e9	-0.0003374052538573079
16	0xbf455566509f5934	-0.0006510495743395129
17	0xbf6d0aadda22bfd3	-0.003545131258839243
18	0xbf6fb05efc6ede04	-0.003868279952680133
19	0x3f65a520cd21a201	0.0026422157907755044
20	0x3f568061a385a244	0.0013733819488043345
21	0x3f3b18604ffbec5f	0.00041344024064899303
22	0x3f65a520cd21a201	0.0026422157907755044
23	0x3f49b1991fb4617e	0.0007841108012228008
24	0x3f776a9571417e31	0.0057168805688827965
25	0xbf3bb7d548fcd7a9	-0.00042294461399039
26	0xbf6287d7f0134e0c	-0.0022620408568430114
27	0x3f79122426b10753	0.006120816436181747
28	0xbf57837fb829dd59	-0.0014351603755623137
29	0x3f510d2220ac8f57	0.001040728881613403
30	0xbf6ca704be80f554	-0.003497609392097681
31	0x3f4a78eb56f62353	0.0008078717345806153
32	0xbf5b0471b0d91238	-0.0016490087758863747
33	0x3f60bd67a42bcbd6	0.002043440269852574
34	0x3f71032ad11ca790	0.004153411153120859
35	0x3f692612c5d17298	0.0030699125914409146
36	0x3f703bd899d91293	0.003963323686154613
37	0x3f611719703d12d6	0.002086209949910471
38	0x3f5c7f2780406ca6	0.0017393003227031217
39	0x3f6f6a9bcf7db46d	0.003835014645963633
40	0xbf55a520cd21a201	-0.0013211078953877522
41	0x3f152d89125e82a9	8.078717345806154e-05
42	0xbf252d89125e82a9	-0.00016157434691612307
43	0xbf68a483bb7f550f	-0.003008134164682936
44	0x3f73046b529d9ea1	0.004642886380544249
45	0xbf70b86bfc636328	-0.0040821283530128386
46	0xbf6993b3310372ba	-0.003122186644857497
47	0xbf6a33282a06312d	-0.0031982216316405383
48	0x3f70ea408a34217a	0.004129650219745757
49	0x3f76855d4b4d6f39	0.00549827998187507
50	0xbf65d6f55af21276	-0.002665976724133319
51	0x3f53c6c1e21966a9	0.0012070554152131907
52	0x3ed3ee9f206b455a	4.752186675020581e-06
53	0xbf6989bbe172ef3c	-0.0031174344581738327
54	0xbf80050864403970	-0.007822099265493349
55	0x3f606dad27aa1ec0	0.002005422776452409
56	0xbf3d963434047748	-0.0004514577340318693
57	0xbf6df9dd4fa72b5b	-0.0036591837390224486
58	0xbf55199a733eb31b	-0.001287842588662608
59	0x3f6f7e8a6e9dd1d7	0.0038445190193050305
60	0x3f5ec12f86eac059	0.001877113736252786
61	0xbf0170cb3c5ddcaf	-3.326530672514407e-05
62	0xbf5dbe1172468544	-0.001815335309494807
63	0xbf636318c6774e4e	-0.0023665889636761755
64	0xbf801df2ab289899	-0.007869621132226267
65	0x3f67dd31843b7235	0.0029130904311911684
66	0xbf70d651eb13dd22	-0.004110641473054318
67	0x3f1170cb3c54212b	6.653061344164396e-05
68	0x3f6d00b68a92d80c	0.0035403790721728664
69	0xbf744850ec6b5d46	-0.0049517785143600775
70	0x3f4e0dcbeec83259	0.0009171720280974446
71	0xbf643e599cdb4e92	-0.0024711370705093405
72	0xbf5cf6bf3b02f046	-0.0017678134427532451
73	0x3f70c75ef3bb8caf	0.004096384913029257
74	0xbf728cd397db8fcb	-0.004528833900369687
75	0x3ee3ee9f206b455a	9.504373350041163e-06
76	0xbf748918719492f9	-0.005013556941126701
77	0xbf34ddce95e1b356	-0.00031839650717451395
78	0x3f3d4679b7853913	0.00044670554736549287
79	0xbf60e544e26c5484	-0.002062449016544012
80	0x3f5e21ba8de801e6	0.0018390962428612655
81	0x3f6c753030b03703	0.0034738484587312226
82	0xbf606dad27aa6c9c	-0.002005422776461053
83	0xbf7f15e5ab341375	-0.007589242118460561
84	0x3f475ba279e906ce	0.0007128280011061362
85	0xbf48ea46e87030c9	-0.0007603498678476979
86	0x3f69bb906f43fb69	0.0031411953915489355
87	0xbf7cf1c3933a8799	-0.007066501584320672
88	0x3f634f2a2756e309	0.0023570845903261345
89	0xbf642073ae2aada9	-0.0024568805104842784
90	0xbf7031e14a48dcf1	-0.003953819312804572
91	0x3f5f4cb5e0cdaf3e	0.00191037904297793
92	0xbf55ccfe0b61dcd4	-0.0013306122687291493
93	0xbf46945042a4d619	-0.0006890670677310334
94	0x3f6840da9fdd8a8f	0.002960612297941374
95	0x3f72153bdd1980f6	0.0044147814201951265
96	0x3f6031e14a492acd	0.00197690965641093
97	0x3f70fe2f29548cbe	0.004148658966445838
98	0xbf76c624d0767dfe	-0.005560058408633049
99	0xbf6e0dcbeec748c4	-0.0036686881123638455
100	0xbf742073ae2ad497	-0.004913761020977201
101	0xbf5b542c2d5b5b06	-0.0016680175225951012
102	0xbf56bc2d80e6485b	-0.0013876385088207519
103	0xbf5452483bfb1e1f	-0.0012403207219210466
104	0x3f5f38c741aca840	0.0019056268562942652
105	0x3f4031e14a49c685	0.0004942274141070546
106	0xbf70819bc6ca8a05	-0.0040298542996049
107	0x3f589a8c6bef1f6b	0.0015016909890039575
108	0x3f53ee9f205a3d34	0.001216559788563232
109	0x3f493a0164f1ddde	0.000769854241197739
110	0x3f4fc44d9b9032de	0.0009694460815140268
111	0xbf721a3784e19bc7	-0.004419533606870147
112	0x3f4dbe1172454dd3	0.0009076676547387592
113	0xbf70d156434be93e	-0.004105889286387941
114	0xbf5b681acc7b2a94	-0.0016727697092614778
115	0xbf5a3d1f79957d3c	-0.0016014869091448133
116	0x3f32afb52e5388de	0.00028513120044072564
117	0x3f6ec12f86eac059	0.003754227472505572
118	0xbf6b0e690069e394	-0.0033027697384650587
119	0xbf76d517c7cef560	-0.005574314968666755
120	0xbf7291cf3fa3aa9d	-0.004533586087044708
121	0x3f668061a385068c	0.0027467638975913807
122	0x3f74167c5e9a9ef4	0.004904256647627159
123	0xbf6b99ef5a4c849d	-0.0033693003519067025
124	0xbf475ba279ea3e3e	-0.0007128280011147803

weights_minus_real f8 [125]
0	0x3fef858ed0633417	0.9850534505909562
1	0x3f81ed5e9ed8d158	0.00875352785360721
2	0x3f877c063c7ddc0d	0.011467026444490736
3	0x3f733b3b88369eb2	0.004695160433960831
4	0x3f58c269aa2f5a3e	0.0015111953623453546
5	0x3f61ca7d08603c8d	0.0021717493100435526
6	0x3f648e14195cadca	0.0025091545639008605
7	0xbf63ee9f2059a17c	-0.0024331195771091756
8	0xbf30819bc6ca3c29	-0.00025186589372422574
9	0x3f34ddce95df4475	0.00031839650716586977
10	0xbf5ee90cc52b96e4	-0.0018866181096028273
11	0xbf6a96d145a7adcf	-0.0032457434983734555
12	0x3f657d438ee07d9b	0.0026232070440667782
13	0xbf40819bc6ca3c29	-0.0005037317874484515
14	0xbf61ca7d08603c8d	-0.0021717493100435526
15	0xbf654b6f010fbf49	-0.002599446110700319
16	0x3f5e4997cc28d871	0.0018486006162113067
17	0x3f6d1e9c794378f5	0.0035546356321979286
18	0x3f63ee9f2059ef58	0.0024331195771178198
19	0x3f7e71750a691343	0.0074324199582108145
20	0x3f56945042a60d89	0.001378134135479355
21	0xbf6b7c096b9be3b4	-0.0033550437918816404
22	0x3f78cc60f9bfb6cf	0.006054285822740104
23	0x8000000000000000	-0.0
24	0x3f5adc947298d765	0.0016395044025449776
25	0xbf74c4e44ef586ee	-0.00507058318120966
26	0xbf5ca704be814330	-0.0017488046960531627
27	0xbf4aa0c89536f9de	-0.000812623921255636
28	0xbf5b2c4eef1a847b	-0.00165851314924506
29	0x3f6e71750a691343	0.0037162099791054073
30	0x3f6872af2dae48e1	0.002984373231307833
31	0xbf5de5eeb086c015	-0.0018248396828362036
32	0xbf6db41a22b601c4	-0.0036259184323059485
33	0x3f6890951c5e9bed	0.0029986297913242505
34	0x3f781df90964a7e8	0.00588795928914896
35	0x3f779c69ff12636f	0.005764402435624357
36	0x3f64841cc9ccc604	0.0025044023772344843
37	0xbf5e4997cc283cb9	-0.0018486006162026626
38	0xbf0170cb3c5ddcaf	-3.326530672514407e-05
39	0xbf1170cb3c54212b	-6.653061344164396e-05
40	0x3f65ccfe0b622ab0	0.0026612245374669427
41	0xbf40d156434ab1ce	-0.0005132361607898485
42	0xbf529bc68f33b951	-0.0011357726150965262
43	0xbf3c078fc57e84be	-0.0004276968006654106
44	0xbf60c75ef3bb65c0	-0.002048192456510306
45	0xbf4fc44d9b8efb6d	-0.0009694460815053825
46	0xbf74bfe8a72d6c1b	-0.005065830994534638
47	0x3f71cf78b028575f	0.004348250806762126
48	0xbf66ee020eb75489	-0.002799037951016607
49	0x3f70a47d5d42f7e3	0.0040631196063127565
50	0x3f3031e14a488f14	0.0002471137070492052
51	0xbf6840da9fdd3cb3	-0.0029606122979327298
52	0x3f53dab081393636	0.001211807601879567
53	0xbf6c891ecfd0546c	-0.0034833528320726195
54	0xbf8036dcf2111eaf	-0.007917142998976471
55	0x3f55e0ecaa824819	0.0013353644554041698
56	0x3f6b22579f8a4ed8	0.0033122741118150993
57	0xbf6c1b7e649e544b	-0.0034310787786560374
58	0x3f548e14195cfba6	0.0012545772819547523
59	0x3f69b1991fb413a2	0.003136443204882559
60	0xbf6d4679b78401a3	-0.0035736443788893664
61	0xbf6eb738375a3cd9	-0.003749475285821907
62	0xbf7d0aadda22bfd3	-0.007090262517678486
63	0x3f4f9c705d4f5c53	0.0009646938948390061
64	0x3f3e35a92d07d173	0.0004609621073819105
65	0xbf4c2f6d03be23d8	-0.0008601457879971975
66	0xbf5d328b1863965e	-0.0017820700027696627
67	0x3f2170cb3c4a65a7	0.00013306122686599956
68	0x3f40a979050b12b4	0.0005084839741234721
69	0x3f2de5eeb088933e	0.00022810496035776702
70	0xbf17ab5cf6622fd0	-9.029154679945852e-05
71	0xbf6d4679b78401a3	-0.0035736443788893664
72	0xbf6152e54d9e06c9	-0.00211472306995195
73	0x3f66945042a60d89	0.00275626827095871
74	0xbf4031e14a488f14	-0.0004942274140984104
75	0x3f580f06120c3086	0.0014684256822788135
76	0x3f4de5eeb0875bce	0.000912419841422424
77	0x3f4ccee1fcc2b573	0.000879154534705924
78	0x3f5b18604ffa1936	0.0016537609625700395
79	0xbf776a9571417e31	-0.0057168805688827965
80	0xbf6b5e237ceb42cd	-0.003340787231856579
81	0xbf73274ce9165a5b	-0.004676151687269393
82	0x3f7b81051363fe86	0.006714839770438302
83	0x3f5d6e56f5c4d82e	0.0017963265627947245
84	0xbf65556650a042c8	-0.002604198297383984
85	0xbf670be7fd67f571	-0.0028132945110416687
86	0x3f684ad1ef6d7256	0.0029653644846077505
87	0xbf25ccfe0b61dcd4	-0.00016632653359114366
88	0x3f5ce2d09be1e948	0.0017630612560695803
89	0xbf60b370549b4857	-0.002038688083168909
90	0xbf3170cb3c4f4369	-0.0002661224537492875
91	0x3f669e479235f550	0.0027610204576250866
92	0xbf621a3784e19bc7	-0.0022097668034350734
93	0xbf548e14195cfba6	-0.0012545772819547523
94	0xbf6b2c4eef1a847b	-0.00331702629849012
95	0xbf312110bfcd9654	-0.0002613702670742669
96	0xbf625ffab1d2c55d	-0.002243032110151573
97	0x3f357d438ee02fbf	0.00032790088050726676
98	0x3f78b8725a9f7278	0.006035277076048666
99	0x3f50a979050bae6d	0.0010169679482555885
100	0xbf55b90f6c420d46	-0.0013258600820627727
101	0xbf63dab081398412	-0.0024236152037677783
102	0xbf599daa80935a81	-0.0015634694157619369
103	0xbf6a5b05684707b8	-0.0032172303783406207
104	0x3f08ea46e85f28a2	4.752186673291746e-05
105	0x3f40f933818cbfc9	0.0005179883474735132
106	0x3f792612c5d14bab	0.006139825182873186
107	0x3f27ab5cf66beb54	0.0001805830936162054
108	0xbf63b2d342f8ad88	-0.0024046064570676963
109	0x3f72bea825ac750b	0.004576355767111249
110	0xbf7738c0e370bfdf	-0.005669358702149878
111	0xbf724214c3224b63	-0.004457551100261667
112	0x3f5fec2ad9cfd1f8	0.0019483965363608063
113	0x3f4d963434047748	0.0009029154680637386
114	0x3f2989bbe1711c13	0.00019483965363262297
115	0x3f5273e950f2e2c7	0.0011262682417464852
116	0x3f5b0471b0da49a9	0.0016490087759036631
117	0x3efde5eeb0530beb	2.851312003283514e-05
118	0x3f629bc68f33b951	0.0022715452301930524
119	0xbf584ad1ef6d7256	-0.0014826822423038752
120	0x3f6fe2338a3f9c55	0.003892040886046592
121	0x3f7854c93efda7f9	0.005940233342565542
122	0x3f566c73046536fe	0.0013686297621293138
123	0xbf2d4679b7853913	-0.00022335277368274643
124	0xbf3a2930da74763e	-0.0003991836806152871
