qua_calibration/optimal_weights.npz (npz, 2872 bytes, 4 tensors)

weights_real f8 [48]
0	0x3fe1062c08e4dd0f	0.5320034192763233
1	0xbfde3d990dd99244	-0.47250963547256597
2	0xbfe65b76228a99dd	-0.6986647295605583
3	0xbfda4e9c1b35707c	-0.41104796082596073
4	0xbfdecf34e0c44d60	-0.4813968844402634
5	0xbfe802a9a78e6dfa	-0.750325038202788
6	0xbfdb304da22145b8	-0.42482319672589197
7	0xbfe4c06dcf27306f	-0.6484898611029289
8	0xbfca7e73e08290c3	-0.2069840284576739
9	0xbfda65b2fca77612	-0.4124572245908392
10	0xbfd751bf874ad4e4	-0.36436451160564176
11	0xbfe3761af0ac4911	-0.6081671429294905
12	0xbfce2d2a360be150	-0.23575332297310547
13	0xbfd2feea0405bdcd	-0.2968087233811872
14	0xbfe5935a80ae69e8	-0.674237490969344
15	0xbfdfab489f8d7b31	-0.49482932645144034
16	0xbfdbdc545b5030b1	-0.4353228465777291
17	0xbfd759dc530b1c08	-0.36485965833384215
18	0xbfbab274abd665cb	-0.10428551860095252
19	0xbfc5025e6eab16c5	-0.16413479236341835
20	0xbfed1ebfae57f392	-0.9100035100124038
21	0xbfd52c2deb3b4a48	-0.33082149478756095
22	0xbfe5ab61037b8b57	-0.6771702831286842
23	0xbfe042540d35f34f	-0.508096719553217
24	0xbfeb38352d946a3a	-0.8506112947682773
25	0xbfd8a718b5bde868	-0.38519876239991513
26	0xbfcd56147e7df2f3	-0.22918945480696315
27	0xbfa016a54def87fb	-0.03142277313578742
28	0xbfcd1deaad236901	-0.2274754853631933
29	0xbfe716ac31b865df	-0.7215176554774948
30	0xbfd31d7df050a289	-0.29867504566440367
31	0x3fa2e5895f433b22	0.03690747535585205
32	0xbfce0d2187a50a1d	-0.23477572558665907
33	0xbfdaf1b1076f89be	-0.4210016796697821
34	0xbfd65e5fa6c27ee2	-0.34951010975963304
35	0xbfde679dcab6e871	-0.47507424160324435
36	0xbfca3466753e6344	-0.20472412800588746
37	0x3fb6a68dcf507488	0.08847891150840514
38	0xbfda8e7837b5fc5d	-0.41494565430179425
39	0xbfd3ae44c206d313	-0.3075115103522858
40	0xbfd9ce0ee0ffce41	-0.4032017895944798
41	0xbfbdceba2d4070c8	-0.11643565754679053
42	0xbfe797540c149973	-0.7372226940104113
43	0xbfd65b76228a99da	-0.34933236478027896
44	0xbfdf795c573d008e	-0.4917822696625159
45	0xbfd33df11f51bf10	-0.30065563257720473
46	0x3f7903743b85ff8a	0.006106809647803755
47	0xbfd2bfe2e8b9bc89	-0.2929618141851696

weights_minus_imag f8 [48]
0	0x3fca22ed5bef052e	0.20419089306782595
1	0x3fd324fafb2981bc	0.2991321041827424
2	0xbfe0532d659de984	-0.5101534828857415
3	0xbf80f3f88e8785a9	-0.00827783760991248
4	0xbfd806ed4dbbb431	-0.375422788535448
5	0xbfde393ac785bab9	-0.4722430180035349
6	0x3fbd324d4aaaac24	0.114048796395466
7	0xbfd4c282522a8ae4	-0.3243718912510032
8	0xbfc6f2afbd97fc61	-0.17928120381836535
9	0xbfdc0bc1a0030b9d	-0.4382175505272075
10	0xbfd8d39c7638de53	-0.3879157213700399
11	0xbfd0324fb60287b1	-0.25307076239016185
12	0xbfd9c44812d671f4	-0.4026050743066485
13	0xbfd8f265a2d0e5b5	-0.38979473972321027
14	0xbfca5902aa4634bb	-0.20584138216182687
15	0xbfb6fd164ca8c099	-0.08979930278360583
16	0xbfe32924013036a0	-0.598772051163639
17	0xbfd50f4401597aaf	-0.32905674106397503
18	0xbfd4c1e2914322f5	-0.3243338030411416
19	0xbfc057212b577bc2	-0.12765898338599696
20	0xbfd46bf9d4d23ecc	-0.31909032615020005
21	0xbfcbe366e58eca99	-0.21787725647808
22	0xbfe69818da5f8cb9	-0.706066538343655
23	0xbfddf9fe6bec96cf	-0.4683834127375634
24	0xbfe0d3501f39467e	-0.525795041068889
25	0xbfd5bcf4bcf17acb	-0.3396579594754427
26	0xbfe7235c8419a72d	-0.7230665760118647
27	0xbfe754de4bcfdc8d	-0.7291099053098989
28	0xbfe160c2ec1d4cb7	-0.5430616962061298
29	0x3fa14dd510b1fc1b	0.03379693821715809
30	0xbfe3bf6dfae27d3c	-0.6171178722469572
31	0xbfd1ac7a59ca8f4a	-0.2761522175662675
32	0xbfe08e0b7ae335e4	-0.5173394584796225
33	0xbfdd1742a37f145f	-0.45454469648786316
34	0xbfc22196c36dc01d	-0.14165005247514353
35	0xbfc17ac351c73746	-0.1365589284236483
36	0xbfd35d5a0cd12e61	-0.3025727391402367
37	0xbfdadf2dac9e7e66	-0.4198717294438893
38	0xbfc8d75afba54def	-0.1940721253146047
39	0xbfe01296e80f646a	-0.5022692234443984
40	0x3fa1ab0597ae9cc7	0.034507918134573816
41	0xbfd7f1eaef4d091c	-0.3741404854701089
42	0xbfe16b93fbc8563a	-0.5443820874813305
43	0xbfd4461e1dfb9d82	-0.3167796414185987
44	0xbfb4c4cc157b07fb	-0.0811278870051239
45	0xbfdc4ebc81089f21	-0.4423056850523484
46	0xbfbdcc3b29a2d10a	-0.11639756933692894
47	0xbfe0ae994a0ae3c1	-0.5213133283751789

weights_imag f8 [48]
0	0xbfca22ed5bef052e	-0.20419089306782595
1	0xbfd324fafb2981bc	-0.2991321041827424
2	0x3fe0532d659de984	0.5101534828857415
3	0x3f80f3f88e8785a9	0.00827783760991248
4	0x3fd806ed4dbbb431	0.375422788535448
5	0x3fde393ac785bab9	0.4722430180035349
6	0xbfbd324d4aaaac24	-0.114048796395466
7	0x3fd4c282522a8ae4	0.3243718912510032
8	0x3fc6f2afbd97fc61	0.17928120381836535
9	0x3fdc0bc1a0030b9d	0.4382175505272075
10	0x3fd8d39c7638de53	0.3879157213700399
11	0x3fd0324fb60287b1	0.25307076239016185
12	0x3fd9c44812d671f4	0.4026050743066485
13	0x3fd8f265a2d0e5b5	0.38979473972321027
14	0x3fca5902aa4634bb	0.20584138216182687
15	0x3fb6fd164ca8c099	0.08979930278360583
16	0x3fe32924013036a0	0.598772051163639
17	0x3fd50f4401597aaf	0.32905674106397503
18	0x3fd4c1e2914322f5	0.3243338030411416
19	0x3fc057212b577bc2	0.12765898338599696
20	0x3fd46bf9d4d23ecc	0.31909032615020005
21	0x3fcbe366e58eca99	0.21787725647808
22	0x3fe69818da5f8cb9	0.706066538343655
23	0x3fddf9fe6bec96cf	0.4683834127375634
24	0x3fe0d3501f39467e	0.525795041068889
25	0x3fd5bcf4bcf17acb	0.3396579594754427
26	0x3fe7235c8419a72d	0.7230665760118647
27	0x3fe754de4bcfdc8d	0.7291099053098989
28	0x3fe160c2ec1d4cb7	0.5430616962061298
29	0xbfa14dd510b1fc1b	-0.03379693821715809
30	0x3fe3bf6dfae27d3c	0.6171178722469572
31	0x3fd1ac7a59ca8f4a	0.2761522175662675
32	0x3fe08e0b7ae335e4	0.5173394584796225
33	0x3fdd1742a37f145f	0.45454469648786316
34	0x3fc22196c36dc01d	0.14165005247514353
35	0x3fc17ac351c73746	0.1365589284236483
36	0x3fd35d5a0cd12e61	0.3025727391402367
37	0x3fdadf2dac9e7e66	0.4198717294438893
38	0x3fc8d75afba54def	0.1940721253146047
39	0x3fe01296e80f646a	0.5022692234443984
40	0xbfa1ab0597ae9cc7	-0.034507918134573816
41	0x3fd7f1eaef4d091c	0.3741404854701089
42	0x3fe16b93fbc8563a	0.5443820874813305
43	0x3fd4461e1dfb9d82	0.3167796414185987
44	0x3fb4c4cc157b07fb	0.0811278870051239
45	0x3fdc4ebc81089f21	0.4423056850523484
46	0x3fbdcc3b29a2d10a	0.11639756933692894
47	0x3fe0ae994a0ae3c1	0.5213133283751789

weights_minus_real f8 [48]
0	0xbfe1062c08e4dd0f	-0.5320034192763233
1	0x3fde3d990dd99244	0.47250963547256597
2	0x3fe65b76228a99dd	0.6986647295605583
3	0x3fda4e9c1b35707c	0.41104796082596073
4	0x3fdecf34e0c44d60	0.4813968844402634
5	0x3fe802a9a78e6dfa	0.750325038202788
6	0x3fdb304da22145b8	0.42482319672589197
7	0x3fe4c06dcf27306f	0.6484898611029289
8	0x3fca7e73e08290c3	0.2069840284576739
9	0x3fda65b2fca77612	0.4124572245908392
10	0x3fd751bf874ad4e4	0.36436451160564176
11	0x3fe3761af0ac4911	0.6081671429294905
12	0x3fce2d2a360be150	0.23575332297310547
13	0x3fd2feea0405bdcd	0.2968087233811872
14	0x3fe5935a80ae69e8	0.674237490969344
15	0x3fdfab489f8d7b31	0.49482932645144034
16	0x3fdbdc545b5030b1	0.4353228465777291
17	0x3fd759dc530b1c08	0.36485965833384215
18	0x3fbab274abd665cb	0.10428551860095252
19	0x3fc5025e6eab16c5	0.16413479236341835
20	0x3fed1ebfae57f392	0.9100035100124038
21	0x3fd52c2deb3b4a48	0.33082149478756095
22	0x3fe5ab61037b8b57	0.6771702831286842
23	0x3fe042540d35f34f	0.508096719553217
24	0x3feb38352d946a3a	0.8506112947682773
25	0x3fd8a718b5bde868	0.38519876239991513
26	0x3fcd56147e7df2f3	0.22918945480696315
27	0x3fa016a54def87fb	0.03142277313578742
28	0x3fcd1deaad236901	0.2274754853631933
29	0x3fe716ac31b865df	0.7215176554774948
30	0x3fd31d7df050a289	0.29867504566440367
31	0xbfa2e5895f433b22	-0.03690747535585205
32	0x3fce0d2187a50a1d	0.23477572558665907
33	0x3fdaf1b1076f89be	0.4210016796697821
34	0x3fd65e5fa6c27ee2	0.34951010975963304
35	0x3fde679dcab6e871	0.47507424160324435
36	0x3fca3466753e6344	0.20472412800588746
37	0xbfb6a68dcf507488	-0.08847891150840514
38	0x3fda8e7837b5fc5d	0.41494565430179425
39	0x3fd3ae44c206d313	0.3075115103522858
40	0x3fd9ce0ee0ffce41	0.4032017895944798
41	0x3fbdceba2d4070c8	0.11643565754679053
42	0x3fe797540c149973	0.7372226940104113
43	0x3fd65b76228a99da	0.34933236478027896
44	0x3fdf795c573d008e	0.4917822696625159
45	0x3fd33df11f51bf10	0.30065563257720473
46	0xbf7903743b85ff8a	-0.006106809647803755
47	0x3fd2bfe2e8b9bc89	0.2929618141851696
