Single-Flux-Tunable-Transmon/optimal_weights.npz (npz, 2136 bytes, 4 tensors)

weights_real f8 [25]
00000000: 1112 3d7e e976 e2bf cf43 8f47 d846 d6bf
00000010: c03f 9895 7c21 d4bf bec8 9406 2544 e93f
00000020: 1f6b 7710 1329 d83f 85fd bc64 57e6 cbbf
00000030: 5354 4776 9606 d3bf 032f d01b 8148 d2bf
00000040: b1be 4a09 59b2 e33f 529a 3df2 c73c b93f
00000050: 20ad 8baf f916 dcbf a460 9a3f d18b e33f
00000060: 35c1 92e7 8c13 cc3f 00c5 a882 a09d c33f
00000070: 3d2a 6a2f 60ed cc3f 8b14 b490 1256 d53f
00000080: 3955 3ee9 8c9f e6bf 4664 fe1d b7a5 c63f
00000090: 6c3f eb62 2275 8a3f d028 fa47 d8e9 943f
000000a0: 8960 fd57 b4f8 ce3f 6173 d327 f288 c6bf
000000b0: 2679 1628 25dc c4bf 3216 eb09 d9a6 c13f
000000c0: 7c29 e16f 9169 d3bf
-0.577015635070497 -0.3480740259956833 -0.31454386338100093 0.7895684364832716 0.3775069866948559 -0.21796696108684102 -0.29727708387992385 -0.2856753131497813
0.6155209714397271 0.0985836950691035 -0.43890230315328616 0.610817550873453 0.21934663111961475 0.15324789409491046 0.22599413218661538 0.3333784497375027
-0.7069763713394998 0.17693222965752592 0.012918728488699315 0.02042329730333209 0.24196485802054138 -0.17605425781848807 -0.16296829659854345 0.13790429100315432
-0.30331836629616027

weights_minus_imag f8 [25]
00000000: 9aa6 bfef f73f a4bf 6f50 4b3a 671d c63f
00000010: fbde 1c65 88a7 c1bf fe13 f712 7b90 d6bf
00000020: 9265 445b 1def ce3f c234 cf12 ae40 d63f
00000030: 69d5 c3c9 41ca cbbf 7544 3266 8b6b cabf
00000040: 6461 23ff 9f0f cdbf fd17 d9ef c5d8 b83f
00000050: 7c89 8fd7 b004 b2bf 1b91 d592 e166 d7bf
00000060: 62cf 9fb2 c6db d2bf bcd8 be7e d392 af3f
00000070: b0f7 648f 13b6 bdbf b805 04a7 2569 eabf
00000080: cab1 54b4 fdde ccbf 522d c8d6 af75 d0bf
00000090: bfe2 37b0 94a2 cfbf 30f0 487e 040e b8bf
000000a0: 1aa9 65c9 a873 df3f 8908 caf0 2b22 d43f
000000b0: 57f4 25d1 7b92 ef3f afc9 138c 2793 e13f
000000c0: 3de2 0245 0993 c53f
-0.039550540939513115 0.17277231546779911 -0.13792519509456 -0.3525684056479007 0.2416722007408621 0.34769775235038136 -0.21710989333920885 -0.20640699853950975
-0.22703933675689847 0.09705769639649016 -0.07038407576286504 -0.3656543668678453 -0.2946640724542161 0.06166706964670385 -0.11605951548423721 -0.8253353368783598
-0.22555514626709644 -0.25718303656386354 -0.24714907268914563 -0.09396389086845214 0.4914342848557155 0.3145856715638123 0.9866313061644502 0.5492131935009662
0.16854968900385528

weights_imag f8 [25]
00000000: 9aa6 bfef f73f a43f 6f50 4b3a 671d c6bf
00000010: fbde 1c65 88a7 c13f fe13 f712 7b90 d63f
00000020: 9265 445b 1def cebf c234 cf12 ae40 d6bf
00000030: 69d5 c3c9 41ca cb3f 7544 3266 8b6b ca3f
00000040: 6461 23ff 9f0f cd3f fd17 d9ef c5d8 b8bf
00000050: 7c89 8fd7 b004 b23f 1b91 d592 e166 d73f
00000060: 62cf 9fb2 c6db d23f bcd8 be7e d392 afbf
00000070: b0f7 648f 13b6 bd3f b805 04a7 2569 ea3f
00000080: cab1 54b4 fdde cc3f 522d c8d6 af75 d03f
00000090: bfe2 37b0 94a2 cf3f 30f0 487e 040e b83f
000000a0: 1aa9 65c9 a873 dfbf 8908 caf0 2b22 d4bf
000000b0: 57f4 25d1 7b92 efbf afc9 138c 2793 e1bf
000000c0: 3de2 0245 0993 c5bf
0.039550540939513115 -0.17277231546779911 0.13792519509456 0.3525684056479007 -0.2416722007408621 -0.34769775235038136 0.21710989333920885 0.20640699853950975
0.22703933675689847 -0.09705769639649016 0.07038407576286504 0.3656543668678453 0.2946640724542161 -0.06166706964670385 0.11605951548423721 0.8253353368783598
0.22555514626709644 0.25718303656386354 0.24714907268914563 0.09396389086845214 -0.4914342848557155 -0.3145856715638123 -0.9866313061644502 -0.5492131935009662
-0.16854968900385528

weights_minus_real f8 [25]
00000000: 1112 3d7e e976 e23f cf43 8f47 d846 d63f
00000010: c03f 9895 7c21 d43f bec8 9406 2544 e9bf
00000020: 1f6b 7710 1329 d8bf 85fd bc64 57e6 cb3f
00000030: 5354 4776 9606 d33f 032f d01b 8148 d23f
00000040: b1be 4a09 59b2 e3bf 529a 3df2 c73c b9bf
00000050: 20ad 8baf f916 dc3f a460 9a3f d18b e3bf
00000060: 35c1 92e7 8c13 ccbf 00c5 a882 a09d c3bf
00000070: 3d2a 6a2f 60ed ccbf 8b14 b490 1256 d5bf
00000080: 3955 3ee9 8c9f e63f 4664 fe1d b7a5 c6bf
00000090: 6c3f eb62 2275 8abf d028 fa47 d8e9 94bf
000000a0: 8960 fd57 b4f8 cebf 6173 d327 f288 c63f
000000b0: 2679 1628 25dc c43f 3216 eb09 d9a6 c1bf
000000c0: 7c29 e16f 9169 d33f
0.577015635070497 0.3480740259956833 0.31454386338100093 -0.7895684364832716 -0.3775069866948559 0.21796696108684102 0.29727708387992385 0.2856753131497813
-0.6155209714397271 -0.0985836950691035 0.43890230315328616 -0.610817550873453 -0.21934663111961475 -0.15324789409491046 -0.22599413218661538 -0.3333784497375027
0.7069763713394998 -0.17693222965752592 -0.012918728488699315 -0.02042329730333209 -0.24196485802054138 0.17605425781848807 0.16296829659854345 -0.13790429100315432
0.30331836629616027
