qua_new/optimal_weights_rr1.npz (npz, 7736 bytes, 4 tensors)

weights_real f8 [200]
-0.24964099723138067 0.20782675243091014 -0.4549165829408336 0.21280463871668046 0.057743480914935516 0.24497422883847103 0.04262315132190823 -0.025947232264577704
-0.38105719517571673 0.018107061364489474 0.13222510446577368 -0.08848192872956714 -0.04181424480047055 0.46250785952663326 -0.1910263862164354 -0.46754796939097576
0.1655147190018626 -0.28000610357457956 -0.20303553688085624 0.20154217099512514 -0.16582583689472322 -0.2562366965600264 -0.28461064838891714 0.10932682755123029
0.11610919761559232 -0.01524477675017153 -0.48963733978408136 -0.35896782478261097 0.08188622940092148 -0.2796949856817189 -0.2790105263174255 0.16091017418752504
0.29755315273191985 -0.09265090849389976 -0.11150465280125477 0.13844746232298658 0.09065975397959163 -0.5987774965995952 0.020782675243091048 -0.02165380534310081
0.2573567209743246 0.040320878914739455 -0.3358828771323512 -0.6422095544429414 0.022027146814533584 -0.6233558101355863 -0.12009150664420856 -0.39070184985439665
0.0790861683651757 -0.3307183201108645 -0.2301650171383044 -0.3049577585820032 -0.17049260528763285 -0.3740259307970661 -0.11834924644418897 -0.14834101131595503
0.2915796891889955 0.4060710737617125 0.41671130569754644 -0.31553576693926505 -0.5480030564847381 -0.3510654303039506 0.1225804497870937 0.21915144373103762
0.056810127236353584 0.015182553171599425 -0.15531005211603346 -0.4890151039983601 0.26165014789580154 0.21585359406671475 0.012258044978709375 0.07410828207940537
-0.45746774966229087 -0.2528143997385593 0.11026018122981221 0.14690986900879607 0.2828683881888974 -0.14429647870876663 0.04523654162193762 -0.26917920090302916
-0.5447674303989875 -0.22829830978114055 -0.08848192872956714 0.17677718672341788 0.1531944504445811 0.29991764871766075 -0.040445326071883704 0.09333536785819319
0.28025499788886804 0.1688747922447575 -0.0706237616793662 0.33644288933950034 -0.08929083525100481 0.37875492276854794 0.18418179257350123 -0.1615324099732463
0.6593832621288487 -0.04853439128626044 0.11268690079412524 -0.4366228508406277 -0.4126667730903581 0.2557389079314493 -0.4956108033270058 -0.2726637213030683
0.08512185548667214 -0.0853707498009607 -0.02078267524309102 -0.41061339499747784 -0.1496477064659697 0.39599085403302764 0.18965746748784856 -0.07572609512228073
-0.5993997323853165 0.17615495093769662 0.04000976102187882 0.4794948964768245 -0.558954406313433 0.05979685900781575 0.2563611437171706 0.23408510258834847
0.03901418376472474 -0.16794143856617558 -0.0228982769145434 0.23078725292402566 -0.2770815953816895 0.2546811070957231 0.08505963190810005 0.7611188130942793
0.141060852623016 0.10914015681551388 -0.2426719564313023 0.29276193718186594 -0.0570590215506421 -0.4680457580195528 -0.31335794168924064 -0.2923885957104332
0.4987842058341843 -0.3180247100821502 0.11399359594413995 0.2256849194811111 0.4990953237270449 0.21423578102383942 0.1288650312228787 0.3162202263035585
-0.10192222170114694 0.0814506643509166 0.236262927838373 -0.16464358890185277 0.5765014554707731 0.09526429879392917 -0.1671325320447379 -0.060232424057820665
0.28461064838891714 0.49629526269129914 -0.09433094511534725 0.35237212545396535 -0.3761415324685185 -0.17683941030199 -0.06060576552925343 -0.0028622846143179265
-0.36145676792549614 -0.2574189445528968 0.874427949674126 0.47899710784824745 0.1867951828735306 0.24708983050992342 -0.14398536081590602 -0.8612365510168346
0.3780082398256824 0.19867988638080722 0.14666097469450753 0.23060058218830928 0.2708592375244766 -0.8630410347954262 -0.002488943142885147 0.11057129912267286
-0.3298471900108547 0.03447186252895935 0.1729193248519459 0.003048955350034311 0.2888418517318218 0.21840476078817206 0.5310782431131192 -0.2862906850103646
-0.2713570261530536 -0.32661156392510404 -0.038889736607580494 -0.0432453871076295 0.41870246021185453 -0.035716334100401925 0.232405065966901 0.13962971031585697
0.3893951547043819 -0.5772481384136389 0.028809516878895627 0.18430623973064544 -0.11940704727991515 -0.43195608244771805 -0.26886808301016846 0.09090864829388015
00000000: e8bf 6c77 3cf4 cfbf da5a 7628 119a ca3f
00000010: 96e4 8871 5a1d ddbf 99d4 dcb1 2e3d cb3f
00000020: 5e77 2cb4 8d90 ad3f c6ad 9cc6 505b cf3f
00000030: c5c9 f5a1 b3d2 a53f f707 fe47 e991 9abf
00000040: 31da cbb7 3d63 d8bf 6070 8c51 a88a 923f
00000050: da01 b291 c0ec c03f d634 2e6e c0a6 b6bf
00000060: 3c94 d93b ad68 a5bf 9dd4 b390 ba99 dd3f
00000070: f77f bc78 8d73 c8bf da1b 7651 4eec ddbf
00000080: 0650 8f18 962f c53f 1420 62b8 9eeb d1bf
00000090: 461f 6a87 11fd c9bf f32d 9844 22cc c93f
000000a0: a1b7 25f1 c739 c5bf 37aa f099 2e66 d0bf
000000b0: ca1e bb94 0f37 d2bf 7370 e8cc d7fc bb3f
000000c0: ce15 8616 55b9 bd3f 744d 9d4c a738 8fbf
000000d0: f779 51da 3756 dfbf 117c f02e 54f9 d6bf
000000e0: cf0b 45f5 7ef6 b43f 46ec 16cc 85e6 d1bf
000000f0: 4e7a 71f7 4edb d1bf 9b52 dd5f b498 c43f
00000100: da89 f360 1c0b d33f 8e0d ed4d f8b7 b7bf
00000110: f81a 22a5 918b bcbf 091a 727d a5b8 c13f
00000120: 5bdf 6746 7a35 b73f 7f3b af6c 2f29 e3bf
00000130: b848 f8b9 0d48 953f 8459 2147 6a2c 96bf
00000140: b464 ff52 8878 d03f f0ce 9130 f0a4 a43f
00000150: 2c78 24e5 1a7f d5bf 765b 300d fb8c e4bf
00000160: 2a3c c5cc 488e 963f c8b9 49e2 87f2 e3bf
00000170: 3272 9025 51be bebf 2120 e754 4201 d9bf
00000180: d9c2 b1ba fd3e b43f 371c 442c 7d2a d5bf
00000190: fc69 a51a 0c76 cdbf cd5a f18b 6d84 d3bf
000001a0: c3c9 f5a1 b3d2 c5bf 6747 2875 0af0 d7bf
000001b0: c7e9 fbde 224c bebf cdf8 2098 d6fc c2bf
000001c0: 35a7 4fdb 3da9 d23f 461f 6a87 11fd d93f
000001d0: fc0a 76e5 65ab da3f 273c eeed bc31 d4bf
000001e0: 3fb8 b6b4 3d89 e1bf 3b58 7a23 db77 d6bf
000001f0: f0eb f6ae 6e61 bf3f 3a16 d98d 270d cc3f
00000200: 0f9c 1f8d 3716 ad3f f501 bcca 0718 8f3f
00000210: a509 4a25 33e1 c3bf 5c12 bb01 064c dfbf
00000220: 9c2f 0d43 e0be d03f f7cb 9e2f 17a1 cb3f
00000230: 2923 5ff2 be1a 893f 5acf e4a7 c2f8 b23f
00000240: 628d f1cf 2647 ddbf 5d70 b572 1c2e d0bf
00000250: 1ade 6ee0 023a bc3f 331c 6d4d f1cd c23f
00000260: adfc 1503 841a d23f e1b5 7d98 4e78 c2bf
00000270: 0663 b375 3e29 a73f 4815 2966 3b3a d1bf
00000280: ddaa 2f1b bc6e e1bf 55fc 1e07 e138 cdbf
00000290: d634 2e6e c0a6 b6bf abf6 d385 a2a0 c63f
000002a0: 1b49 4b31 e09b c33f 9113 2fcb d931 d33f
000002b0: b574 82f1 3fb5 a4bf 70d5 82a0 d3e4 b73f
000002c0: 8549 9ea8 b2ef d13f feae e76e b09d c53f
000002d0: 85be bb1a 6614 b2bf 6bd5 abc1 4788 d53f
000002e0: 9a4f 3ca1 c3db b6bf d65a 9f49 853d d83f
000002f0: 9198 cfdb 4493 c73f d221 0a11 18ad c4bf
00000300: 42f1 4bed aa19 e53f 0c8c 9cee 7fd9 a8bf
00000310: 682e 9979 0cd9 bc3f 7afe 42f8 a0f1 dbbf
00000320: 8769 a4e5 2169 dabf 5357 78b9 065e d03f
00000330: 9e5c f55f 16b8 dfbf 7d59 7389 5273 d1bf
00000340: de76 7dc1 8bca b53f a71c 6e82 dbda b5bf
00000350: b048 f8b9 0d48 95bf 9e13 b467 7d47 dabf
00000360: f4ab 98f2 a727 c3bf cf90 e505 ea57 d93f
00000370: 16b8 2626 b246 c83f e404 010e c962 b3bf
00000380: 4d6f fa58 482e e3bf 7427 a7d4 3e8c c63f
00000390: 8230 38ce 287c a43f 25e1 bd5c 0bb0 de3f
000003a0: 0348 e259 f4e2 e1bf a326 afa3 b19d ae3f
000003b0: efbe 0e92 3868 d03f 7483 0c2a 80f6 cd3f
000003c0: 4d02 b3c6 aaf9 a33f 2b78 24e5 1a7f c5bf
000003d0: 064d ee59 a572 97bf 3339 d2cb 6f8a cd3f
000003e0: 1e39 9f71 b4bb d1bf 30a7 78fc b14c d03f
000003f0: 6f4d 41d1 77c6 b53f 4d87 53d7 155b e83f
00000400: 5a80 6132 480e c23f 1df4 33fc 9bf0 bb3f
00000410: 12af 43ea df0f cfbf 106c 6d90 9cbc d23f
00000420: 9ce7 000f d736 adbf bd6e ee31 76f4 ddbf
00000430: 87d1 df77 0e0e d4bf e62d 13a8 7eb6 d2bf
00000440: 056d f496 14ec df3f 97da 4750 845a d4bf
00000450: b994 882e af2e bd3f 0396 2f52 3ee3 cc3f
00000460: d2a0 3f83 2df1 df3f 33b1 90fc 136c cb3f
00000470: dfa2 593b a67e c03f 20ae 93c2 f33c d43f
00000480: a72c f120 9317 babf b5e9 9f63 f3d9 b43f
00000490: b858 2916 dd3d ce3f ea2d ea86 0a13 c5bf
000004a0: e5fc 2a2e b372 e23f 30da cbb7 3d63 b83f
000004b0: c96a 9d4b 9964 c5bf db6a f9c6 c8d6 aebf
000004c0: ca1e bb94 0f37 d23f 95ce 9a34 4dc3 df3f
000004d0: 896c 45a4 1226 b8bf d031 b6d0 438d d63f
000004e0: ada7 27ef b312 d8bf 630b f27d aca2 c6bf
000004f0: 2d5c cb09 b807 afbf 094d ee59 a572 67bf
00000500: 811a 4a91 1b22 d7bf 126f 0e4f 8d79 d0bf
00000510: e9e0 d152 50fb eb3f 428e 457c e3a7 de3f
00000520: e1fe be90 e7e8 c73f 516e 9bba a3a0 cf3f
00000530: 464e e7bf 1c6e c2bf a796 97f4 3f8f ebbf
00000540: 81de ea78 4931 d83f bf74 30af 576e c93f
00000550: 4fc9 f46c c9c5 c23f 09fb 77e3 5184 cd3f
00000560: 062d bffb c155 d13f e1ac 713b 089e ebbf
00000570: cc37 cf2c b163 64bf 52ad 9b91 664e bc3f
00000580: 2a8b 7163 371c d5bf 895f 63c4 4ba6 a13f
00000590: eaf1 8a6e 3822 c63f 9bd7 7d70 1ffa 683f
000005a0: 53df b988 627c d23f 901d 70ec aff4 cb3f
000005b0: 2b37 b9cc 97fe e03f 8836 512a 9652 d2bf
000005c0: e97f 37dc e95d d1bf 6670 6330 34e7 d4bf
000005d0: 885c c205 5be9 a3bf a206 a966 4224 a6bf
000005e0: 8856 5767 05cc da3f 48d9 c94d 6949 a2bf
000005f0: f753 e0fe 72bf cd3f bea3 ade7 62df c13f
00000600: 8c46 aba7 d9eb d83f 113b 8516 d178 e2bf
00000610: 97d1 3bf3 3d80 9d3f 01c2 0bcc 5897 c73f
00000620: 51aa fad2 7591 bebf 69f5 da1f 2ba5 dbbf
00000630: 79e1 dd79 2235 d1bf 2285 5807 ca45 b73f

weights_minus_imag f8 [200]
0.018729297150210773 0.1472209869016567 -0.08269513592235916 0.07697056669372332 -0.12961171416574427 -0.23831630593125327 0.8631654819525706 -0.11778923423703978
0.05805459880779616 0.5061888116842677 -0.012569162871570012 -0.004044532607188368 0.009395760364391449 0.16041238555894802 -0.11038462838695648 -0.2468409361956349
0.4641878961480807 -0.2763971360173961 -0.44141406639068165 0.03814305366471492 -0.32611377529652696 -0.2291072163025782 -0.26214793652437857 -0.2714192497316258
-0.44222297291211926 0.4078755575403042 -0.10702455514406152 -0.18772853655211252 0.03509409831468063 0.19233308136645008 -0.44234742006926353 0.04144090332903778
-0.17634162167341297 0.316966909246424 0.1584212310446399 -0.5516120240419217 -0.013440292971579816 0.24522312315275954 0.0016800366214474855 0.2571078266600361
-0.4350050377977523 -0.12108708390136261 0.024702760693135144 0.13228732804434581 0.2491432086028037 0.2935708437033036 0.39885313864734556 -0.2735970749816503
-0.1230160148370986 0.21342687450240172 -0.1711770646519263 -0.29879762430336243 -0.48745951453405695 0.42206253345474953 0.46574348561238404 0.43581394431919007
0.39082629701154087 -0.30159768533910825 0.25648559087431483 -0.2643879853529752 0.3911996384829736 -0.033849626743238034 -0.006533475750073521 0.5241092023130408
-0.4743303394553378 0.2781393962174157 0.3920707685829835 0.33270947462517264 0.4663657213981052 0.32424706793936303 0.4640634489909365 0.004791215550053914
-0.30296660406769504 0.00037334147143277304 -0.5984041551281625 0.015058106014455166 0.3340161697751874 0.3641323818040977 0.4631923188909267 0.16607473120901173
-0.15095440161598445 -0.11878481149419386 0.1655769425804347 -0.07641055448657415 -0.14149641767302087 0.17279487769480165 0.2870373679532301 0.15194997887313852
-0.7358560401939951 -0.3027799333319787 -0.42660485469051496 -0.2828683881888975 -0.2291072163025782 -0.2603434527457868 0.617942358799811 0.5743236302207487
0.016178130428753473 -0.6424584487572298 0.047849931921967036 -0.2021644067808464 0.399537598011639 0.13440292971579818 -0.013129175078719166 -0.10148665665114202
-0.25076102164567904 -0.3302827550608596 -0.006533475750073521 0.23900076529554667 -0.7065487346865222 0.10248223390829612 0.37010584534702207 -0.03627634630755109
0.46014336354089236 0.19444868303790244 -0.11250023005840884 0.21062681346665596 -0.11100686417267774 0.2660680219744227 0.9665810695394486 0.08138844077234446
-0.1406875111515832 0.21417355744526728 -0.10945127470837455 0.17522159725911465 -0.02725392741459239 0.12482049861569036 0.10472228273689276 -0.2959353396890445
0.3306560965322924 -0.12320268557281501 0.1839951218377848 0.16819033288046414 -0.6794192544290742 -0.4765703882839344 0.3783193577185431 0.0451743180433655
-0.11113131132982204 0.025947232264577718 0.09607320531536685 0.48167272172684894 0.022462711864538493 -0.2399963425527007 0.31734025071785676 0.06745035917218763
0.12842946617287385 -0.17752386966628345 0.6414006479215035 0.07865060331517076 -0.1307939621586147 0.16451914174470852 0.1984932156450908 -0.18306176815920291
-0.09750434762252581 -0.10391337621545507 0.06981485515792848 0.3388073853252413 0.21075126062380023 -0.04237425700761971 0.06956596084363999 0.12506939292997885
0.4501875909693518 0.16725697920188218 -0.16003904408751526 0.08387738391522961 0.42878267994053954 0.2820594816674598 -0.3002909901890935 -0.035031874736108505
0.14242977135160279 0.700139706093593 -0.04878328560054896 -0.2775171604316944 0.12637608807999356 0.28000610357457956 0.5165801493058132 0.02264938260025488
-0.18368400394492418 -0.12463382787997397 -0.06838371285076954 0.2517565989028331 0.02706725667887601 0.4537965585265352 0.46711240434097084 -0.26457465608869163
0.2611523592672245 -0.1309806328943311 0.32306481994649267 -0.22282263486679318 0.19849321564509087 -0.05761903375779127 -0.2450364524170432 0.03129846002178077
0.03689858209327237 -0.3114912343320767 -0.18019948354488496 0.07385938776511687 0.4104889478403336 -0.1575501009446301 0.11685588055845786 0.35143877177538335
00000000: 22ea f2da c52d 933f ce83 0326 23d8 c23f
00000010: 9426 5328 822b b5bf c441 b4d2 57b4 b33f
00000020: 899b c2dc 1d97 c0bf 8b04 0a12 2681 cebf
00000030: 3fb7 8037 0d9f eb3f c774 de6c 6f27 bebf
00000040: ce15 8616 55b9 ad3f fc1e f9e0 b232 e03f
00000050: e49c c57b dcbd 89bf 5b5d 68f4 ff90 70bf
00000060: e78f e39b 153e 833f d5ac ec9e 6488 c43f
00000070: fe30 e7c0 2a42 bcbf 6e1b 23da 7b98 cfbf
00000080: 5bec 4926 41b5 dd3f 25c7 f99c 7db0 d1bf
00000090: 451c c9c8 2040 dcbf de79 1e80 7c87 a33f
000000a0: 821d eb4f 0cdf d4bf b609 a6a0 6253 cdbf
000000b0: 7f82 8523 08c7 d0bf 468a 46d8 ee5e d1bf
000000c0: f5a2 8c95 614d dcbf bd4b 1e15 a21a da3f
000000d0: 0973 3614 f665 bbbf b435 821a 7d07 c8bf
000000e0: 689c 1689 daf7 a13f 1f33 34d3 5e9e c83f
000000f0: aeb7 aa8d 6b4f dcbf e9a2 07f9 bd37 a53f
00000100: 9d65 01bd 5c92 c6bf 742a 4893 2f49 d43f
00000110: bc15 2a9b 2547 c43f b7e4 6a42 cea6 e1bf
00000120: 94be 1796 9586 8bbf a900 15a7 7863 cf3f
00000130: bbbe 1796 9586 5b3f 433b c362 7474 d03f
00000140: 17f1 bb5e 1fd7 dbbf 4a09 5329 90ff bebf
00000150: 7e14 3135 ae4b 993f 9316 d089 caee c03f
00000160: 241a 7cb6 ece3 cf3f c1f2 305d ddc9 d23f
00000170: 696d 9950 cf86 d93f e8f4 544e 9d82 d1bf
00000180: 0b0e 9c40 fa7d bfbf d0a3 0963 9251 cb3f
00000190: b5ad 404b 21e9 c5bf 1259 2012 801f d3bf
000001a0: 570f 4364 8932 dfbf 0686 8392 1203 db3f
000001b0: 63ef c1c3 bdce dd3f ca77 7f2b 60e4 db3f
000001c0: d934 054d 4c03 d93f 502b c560 604d d3bf
000001d0: a7d3 2c8a 426a d03f 7df7 a295 bbeb d0bf
000001e0: 0373 5f35 6a09 d93f a622 b0ff bc54 a1bf
000001f0: 48f9 cf8a d8c2 7abf f5f2 6ea9 80c5 e03f
00000200: 3185 dda3 6d5b debf 40e9 9e2e 09cd d13f
00000210: 1204 32fe af17 d93f c467 25ae 1c4b d53f
00000220: fd56 589c efd8 dd3f ade6 27c6 76c0 d43f
00000230: a3d7 2b2e 37b3 dd3f 8872 8721 f49f 733f
00000240: 400f 100a ce63 d3bf 6ea9 f868 a177 383f
00000250: 6a1c 8278 2026 e3bf db6a f9c6 c8d6 8e3f
00000260: 5941 615b 8560 d53f 06d8 d0e7 f14d d73f
00000270: 9646 5965 f1a4 dd3f 840a 9ed1 ef41 c53f
00000280: 1e5f 104d 7952 c3bf e10b a170 ae68 bebf
00000290: be64 ad10 a031 c53f c5cc 9660 a48f b3bf
000002a0: 6711 34fb 8d1c c2bf 79c8 4e7e 241e c63f
000002b0: dcb2 05fb d15e d23f abaa f1ce 1873 c33f
000002c0: 0a50 66f7 218c e7bf 2cf0 e215 bf60 d3bf
000002d0: 5f7a cd72 7e4d dbbf aefc 1503 841a d2bf
000002e0: b609 a6a0 6253 cdbf 0756 d195 77a9 d0bf
000002f0: 1477 bb0d 2fc6 e33f 95c7 23f3 db60 e23f
00000300: 5b5d 68f4 ff90 903f 2e70 4e05 058f e4bf
00000310: 4bfc 7049 c97f a83f 2afd c4f5 85e0 c9bf
00000320: 62df 3e25 0692 d93f 1dd7 ce7d 1d34 c13f
00000330: d244 b10c 78e3 8abf 8b0a 4c8f 07fb b9bf
00000340: 741a c5f4 770c d0bf b0d3 da47 5a23 d5bf
00000350: 48f9 cf8a d8c2 7abf 7be8 54bb 9397 ce3f
00000360: 0a48 9017 0c9c e6bf a7a1 0e93 463c ba3f
00000370: acba 746d d0af d73f 45c3 0432 d092 a2bf
00000380: e64a 7826 fd72 dd3f a9f3 32c7 b1e3 c83f
00000390: 12b2 e4a8 d0cc bcbf 56ff bfc5 d1f5 ca3f
000003a0: 6ccf 4023 f26a bcbf 3c0f 392b 4207 d13f
000003b0: 2859 536c 3bee ee3f 43c0 6373 dfd5 b43f
000003c0: 0504 ad61 0c02 c2bf 7a9c 7204 0a6a cb3f
000003d0: 57c3 60ad ff04 bcbf 9ff0 e34a a96d c63f
000003e0: 35a1 bb1b 74e8 9bbf eabf 6c77 3cf4 bf3f
000003f0: 9f75 845b 14cf ba3f 787c 6cc7 9af0 d2bf
00000400: db11 3530 7829 d53f 618a 5011 368a bfbf
00000410: 655a 75f3 268d c73f 10cb 9cc5 4287 c53f
00000420: 5e75 c172 cdbd e5bf 2efa fa15 2180 debf
00000430: 5012 3665 6236 d83f 2410 3b95 1621 a73f
00000440: 5222 b903 1a73 bcbf fb07 fe47 e991 9a3f
00000450: f5f4 d9ea 4098 b83f c64b ccd2 b9d3 de3f
00000460: 98c4 5913 7700 973f 0634 363d 33b8 cebf
00000470: 9e68 a27b 4d4f d43f e57c bf3e 6d44 b13f
00000480: d311 8772 6070 c03f 55ef 3c27 1ab9 c6bf
00000490: 1c98 cea6 5a86 e43f bca0 0c29 7222 b43f
000004a0: 3f25 fe46 dbbd c0bf 7904 ae96 f60e c53f
000004b0: 9336 d6c6 3968 c93f 9323 b269 916e c7bf
000004c0: 29ae 4180 0bf6 b8bf da5a 7628 119a babf
000004d0: bea3 ade7 62df b13f 235f e72b 05af d53f
000004e0: c828 fcb5 e5f9 ca3f 387e 1420 14b2 a5bf
000004f0: f9fd bc26 13cf b13f d7b2 2e1c 4602 c03f
00000500: 28d1 119d dfcf dc3f 3b94 d93b ad68 c53f
00000510: 8130 38ce 287c c4bf 023a cafc fc78 b53f
00000520: 02e5 dbe8 2c71 db3f fd75 5236 430d d23f
00000530: bb51 89b3 f737 d3bf 8549 9ea8 b2ef a1bf
00000540: 3a48 f784 233b c23f 74b2 8962 8b67 e63f
00000550: 99d7 7d70 1ffa a8bf a481 0856 d7c2 d1bf
00000560: 0066 a676 172d c03f 1420 62b8 9eeb d13f
00000570: 1f00 e117 d387 e03f ebb5 2b56 6631 973f
00000580: caf2 de1a f582 c7bf 9543 b8a6 00e8 bfbf
00000590: 8bea 4552 9881 b1bf 3ac0 b5b5 c71c d03f
000005a0: e4af e9d8 84b7 9b3f 162a 7ab8 000b dd3f
000005b0: 53d3 0c6d 2be5 dd3f 9316 d089 caee d0bf
000005c0: b9dc 9462 b8b6 d03f 6a63 582f f9c3 c0bf
000005d0: d321 0a11 18ad d43f cfdc c7bc 7385 ccbf
000005e0: 9636 d6c6 3968 c93f 99d1 3bf3 3d80 adbf
000005f0: 80c2 babe 5a5d cfbf 48dc 6a0c 5a06 a03f
00000600: 2300 b8f6 5ee4 a23f b29a 1cee 78ef d3bf
00000610: 5e6a 4ad4 c610 c7bf 9529 f4e6 72e8 b23f
00000620: e5fe 956f 7345 da3f a1f3 8409 9a2a c4bf
00000630: 2007 5859 44ea bd3f 6596 d40b f97d d63f

weights_imag f8 [200]
-0.018729297150210773 -0.1472209869016567 0.08269513592235916 -0.07697056669372332 0.12961171416574427 0.23831630593125327 -0.8631654819525706 0.11778923423703978
-0.05805459880779616 -0.5061888116842677 0.012569162871570012 0.004044532607188368 -0.009395760364391449 -0.16041238555894802 0.11038462838695648 0.2468409361956349
-0.4641878961480807 0.2763971360173961 0.44141406639068165 -0.03814305366471492 0.32611377529652696 0.2291072163025782 0.26214793652437857 0.2714192497316258
0.44222297291211926 -0.4078755575403042 0.10702455514406152 0.18772853655211252 -0.03509409831468063 -0.19233308136645008 0.44234742006926353 -0.04144090332903778
0.17634162167341297 -0.316966909246424 -0.1584212310446399 0.5516120240419217 0.013440292971579816 -0.24522312315275954 -0.0016800366214474855 -0.2571078266600361
0.4350050377977523 0.12108708390136261 -0.024702760693135144 -0.13228732804434581 -0.2491432086028037 -0.2935708437033036 -0.39885313864734556 0.2735970749816503
0.1230160148370986 -0.21342687450240172 0.1711770646519263 0.29879762430336243 0.48745951453405695 -0.42206253345474953 -0.46574348561238404 -0.43581394431919007
-0.39082629701154087 0.30159768533910825 -0.25648559087431483 0.2643879853529752 -0.3911996384829736 0.033849626743238034 0.006533475750073521 -0.5241092023130408
0.4743303394553378 -0.2781393962174157 -0.3920707685829835 -0.33270947462517264 -0.4663657213981052 -0.32424706793936303 -0.4640634489909365 -0.004791215550053914
0.30296660406769504 -0.00037334147143277304 0.5984041551281625 -0.015058106014455166 -0.3340161697751874 -0.3641323818040977 -0.4631923188909267 -0.16607473120901173
0.15095440161598445 0.11878481149419386 -0.1655769425804347 0.07641055448657415 0.14149641767302087 -0.17279487769480165 -0.2870373679532301 -0.15194997887313852
0.7358560401939951 0.3027799333319787 0.42660485469051496 0.2828683881888975 0.2291072163025782 0.2603434527457868 -0.617942358799811 -0.5743236302207487
-0.016178130428753473 0.6424584487572298 -0.047849931921967036 0.2021644067808464 -0.399537598011639 -0.13440292971579818 0.013129175078719166 0.10148665665114202
0.25076102164567904 0.3302827550608596 0.006533475750073521 -0.23900076529554667 0.7065487346865222 -0.10248223390829612 -0.37010584534702207 0.03627634630755109
-0.46014336354089236 -0.19444868303790244 0.11250023005840884 -0.21062681346665596 0.11100686417267774 -0.2660680219744227 -0.9665810695394486 -0.08138844077234446
0.1406875111515832 -0.21417355744526728 0.10945127470837455 -0.17522159725911465 0.02725392741459239 -0.12482049861569036 -0.10472228273689276 0.2959353396890445
-0.3306560965322924 0.12320268557281501 -0.1839951218377848 -0.16819033288046414 0.6794192544290742 0.4765703882839344 -0.3783193577185431 -0.0451743180433655
0.11113131132982204 -0.025947232264577718 -0.09607320531536685 -0.48167272172684894 -0.022462711864538493 0.2399963425527007 -0.31734025071785676 -0.06745035917218763
-0.12842946617287385 0.17752386966628345 -0.6414006479215035 -0.07865060331517076 0.1307939621586147 -0.16451914174470852 -0.1984932156450908 0.18306176815920291
0.09750434762252581 0.10391337621545507 -0.06981485515792848 -0.3388073853252413 -0.21075126062380023 0.04237425700761971 -0.06956596084363999 -0.12506939292997885
-0.4501875909693518 -0.16725697920188218 0.16003904408751526 -0.08387738391522961 -0.42878267994053954 -0.2820594816674598 0.3002909901890935 0.035031874736108505
-0.14242977135160279 -0.700139706093593 0.04878328560054896 0.2775171604316944 -0.12637608807999356 -0.28000610357457956 -0.5165801493058132 -0.02264938260025488
0.18368400394492418 0.12463382787997397 0.06838371285076954 -0.2517565989028331 -0.02706725667887601 -0.4537965585265352 -0.46711240434097084 0.26457465608869163
-0.2611523592672245 0.1309806328943311 -0.32306481994649267 0.22282263486679318 -0.19849321564509087 0.05761903375779127 0.2450364524170432 -0.03129846002178077
-0.03689858209327237 0.3114912343320767 0.18019948354488496 -0.07385938776511687 -0.4104889478403336 0.1575501009446301 -0.11685588055845786 -0.35143877177538335
00000000: 22ea f2da c52d 93bf ce83 0326 23d8 c2bf
00000010: 9426 5328 822b b53f c441 b4d2 57b4 b3bf
00000020: 899b c2dc 1d97 c03f 8b04 0a12 2681 ce3f
00000030: 3fb7 8037 0d9f ebbf c774 de6c 6f27 be3f
00000040: ce15 8616 55b9 adbf fc1e f9e0 b232 e0bf
00000050: e49c c57b dcbd 893f 5b5d 68f4 ff90 703f
00000060: e78f e39b 153e 83bf d5ac ec9e 6488 c4bf
00000070: fe30 e7c0 2a42 bc3f 6e1b 23da 7b98 cf3f
00000080: 5bec 4926 41b5 ddbf 25c7 f99c 7db0 d13f
00000090: 451c c9c8 2040 dc3f de79 1e80 7c87 a3bf
000000a0: 821d eb4f 0cdf d43f b609 a6a0 6253 cd3f
000000b0: 7f82 8523 08c7 d03f 468a 46d8 ee5e d13f
000000c0: f5a2 8c95 614d dc3f bd4b 1e15 a21a dabf
000000d0: 0973 3614 f665 bb3f b435 821a 7d07 c83f
000000e0: 689c 1689 daf7 a1bf 1f33 34d3 5e9e c8bf
000000f0: aeb7 aa8d 6b4f dc3f e9a2 07f9 bd37 a5bf
00000100: 9d65 01bd 5c92 c63f 742a 4893 2f49 d4bf
00000110: bc15 2a9b 2547 c4bf b7e4 6a42 cea6 e13f
00000120: 94be 1796 9586 8b3f a900 15a7 7863 cfbf
00000130: bbbe 1796 9586 5bbf 433b c362 7474 d0bf
00000140: 17f1 bb5e 1fd7 db3f 4a09 5329 90ff be3f
00000150: 7e14 3135 ae4b 99bf 9316 d089 caee c0bf
00000160: 241a 7cb6 ece3 cfbf c1f2 305d ddc9 d2bf
00000170: 696d 9950 cf86 d9bf e8f4 544e 9d82 d13f
00000180: 0b0e 9c40 fa7d bf3f d0a3 0963 9251 cbbf
00000190: b5ad 404b 21e9 c53f 1259 2012 801f d33f
000001a0: 570f 4364 8932 df3f 0686 8392 1203 dbbf
000001b0: 63ef c1c3 bdce ddbf ca77 7f2b 60e4 dbbf
000001c0: d934 054d 4c03 d9bf 502b c560 604d d33f
000001d0: a7d3 2c8a 426a d0bf 7df7 a295 bbeb d03f
000001e0: 0373 5f35 6a09 d9bf a622 b0ff bc54 a13f
000001f0: 48f9 cf8a d8c2 7a3f f5f2 6ea9 80c5 e0bf
00000200: 3185 dda3 6d5b de3f 40e9 9e2e 09cd d1bf
00000210: 1204 32fe af17 d9bf c467 25ae 1c4b d5bf
00000220: fd56 589c efd8 ddbf ade6 27c6 76c0 d4bf
00000230: a3d7 2b2e 37b3 ddbf 8872 8721 f49f 73bf
00000240: 400f 100a ce63 d33f 6ea9 f868 a177 38bf
00000250: 6a1c 8278 2026 e33f db6a f9c6 c8d6 8ebf
00000260: 5941 615b 8560 d5bf 06d8 d0e7 f14d d7bf
00000270: 9646 5965 f1a4 ddbf 840a 9ed1 ef41 c5bf
00000280: 1e5f 104d 7952 c33f e10b a170 ae68 be3f
00000290: be64 ad10 a031 c5bf c5cc 9660 a48f b33f
000002a0: 6711 34fb 8d1c c23f 79c8 4e7e 241e c6bf
000002b0: dcb2 05fb d15e d2bf abaa f1ce 1873 c3bf
000002c0: 0a50 66f7 218c e73f 2cf0 e215 bf60 d33f
000002d0: 5f7a cd72 7e4d db3f aefc 1503 841a d23f
000002e0: b609 a6a0 6253 cd3f 0756 d195 77a9 d03f
000002f0: 1477 bb0d 2fc6 e3bf 95c7 23f3 db60 e2bf
00000300: 5b5d 68f4 ff90 90bf 2e70 4e05 058f e43f
00000310: 4bfc 7049 c97f a8bf 2afd c4f5 85e0 c93f
00000320: 62df 3e25 0692 d9bf 1dd7 ce7d 1d34 c1bf
00000330: d244 b10c 78e3 8a3f 8b0a 4c8f 07fb b93f
00000340: 741a c5f4 770c d03f b0d3 da47 5a23 d53f
00000350: 48f9 cf8a d8c2 7a3f 7be8 54bb 9397 cebf
00000360: 0a48 9017 0c9c e63f a7a1 0e93 463c babf
00000370: acba 746d d0af d7bf 45c3 0432 d092 a23f
00000380: e64a 7826 fd72 ddbf a9f3 32c7 b1e3 c8bf
00000390: 12b2 e4a8 d0cc bc3f 56ff bfc5 d1f5 cabf
000003a0: 6ccf 4023 f26a bc3f 3c0f 392b 4207 d1bf
000003b0: 2859 536c 3bee eebf 43c0 6373 dfd5 b4bf
000003c0: 0504 ad61 0c02 c23f 7a9c 7204 0a6a cbbf
000003d0: 57c3 60ad ff04 bc3f 9ff0 e34a a96d c6bf
000003e0: 35a1 bb1b 74e8 9b3f eabf 6c77 3cf4 bfbf
000003f0: 9f75 845b 14cf babf 787c 6cc7 9af0 d23f
00000400: db11 3530 7829 d5bf 618a 5011 368a bf3f
00000410: 655a 75f3 268d c7bf 10cb 9cc5 4287 c5bf
00000420: 5e75 c172 cdbd e53f 2efa fa15 2180 de3f
00000430: 5012 3665 6236 d8bf 2410 3b95 1621 a7bf
00000440: 5222 b903 1a73 bc3f fb07 fe47 e991 9abf
00000450: f5f4 d9ea 4098 b8bf c64b ccd2 b9d3 debf
00000460: 98c4 5913 7700 97bf 0634 363d 33b8 ce3f
00000470: 9e68 a27b 4d4f d4bf e57c bf3e 6d44 b1bf
00000480: d311 8772 6070 c0bf 55ef 3c27 1ab9 c63f
00000490: 1c98 cea6 5a86 e4bf bca0 0c29 7222 b4bf
000004a0: 3f25 fe46 dbbd c03f 7904 ae96 f60e c5bf
000004b0: 9336 d6c6 3968 c9bf 9323 b269 916e c73f
000004c0: 29ae 4180 0bf6 b83f da5a 7628 119a ba3f
000004d0: bea3 ade7 62df b1bf 235f e72b 05af d5bf
000004e0: c828 fcb5 e5f9 cabf 387e 1420 14b2 a53f
000004f0: f9fd bc26 13cf b1bf d7b2 2e1c 4602 c0bf
00000500: 28d1 119d dfcf dcbf 3b94 d93b ad68 c5bf
00000510: 8130 38ce 287c c43f 023a cafc fc78 b5bf
00000520: 02e5 dbe8 2c71 dbbf fd75 5236 430d d2bf
00000530: bb51 89b3 f737 d33f 8549 9ea8 b2ef a13f
00000540: 3a48 f784 233b c2bf 74b2 8962 8b67 e6bf
00000550: 99d7 7d70 1ffa a83f a481 0856 d7c2 d13f
00000560: 0066 a676 172d c0bf 1420 62b8 9eeb d1bf
00000570: 1f00 e117 d387 e0bf ebb5 2b56 6631 97bf
00000580: caf2 de1a f582 c73f 9543 b8a6 00e8 bf3f
00000590: 8bea 4552 9881 b13f 3ac0 b5b5 c71c d0bf
000005a0: e4af e9d8 84b7 9bbf 162a 7ab8 000b ddbf
000005b0: 53d3 0c6d 2be5 ddbf 9316 d089 caee d03f
000005c0: b9dc 9462 b8b6 d0bf 6a63 582f f9c3 c03f
000005d0: d321 0a11 18ad d4bf cfdc c7bc 7385 cc3f
000005e0: 9636 d6c6 3968 c9bf 99d1 3bf3 3d80 ad3f
000005f0: 80c2 babe 5a5d cf3f 48dc 6a0c 5a06 a0bf
00000600: 2300 b8f6 5ee4 a2bf b29a 1cee 78ef d33f
00000610: 5e6a 4ad4 c610 c73f 9529 f4e6 72e8 b2bf
00000620: e5fe 956f 7345 dabf a1f3 8409 9a2a c43f
00000630: 2007 5859 44ea bdbf 6596 d40b f97d d6bf

weights_minus_real f8 [200]
0.24964099723138067 -0.20782675243091014 0.4549165829408336 -0.21280463871668046 -0.057743480914935516 -0.24497422883847103 -0.04262315132190823 0.025947232264577704
0.38105719517571673 -0.018107061364489474 -0.13222510446577368 0.08848192872956714 0.04181424480047055 -0.46250785952663326 0.1910263862164354 0.46754796939097576
-0.1655147190018626 0.28000610357457956 0.20303553688085624 -0.20154217099512514 0.16582583689472322 0.2562366965600264 0.28461064838891714 -0.10932682755123029
-0.11610919761559232 0.01524477675017153 0.48963733978408136 0.35896782478261097 -0.08188622940092148 0.2796949856817189 0.2790105263174255 -0.16091017418752504
-0.29755315273191985 0.09265090849389976 0.11150465280125477 -0.13844746232298658 -0.09065975397959163 0.5987774965995952 -0.020782675243091048 0.02165380534310081
-0.2573567209743246 -0.040320878914739455 0.3358828771323512 0.6422095544429414 -0.022027146814533584 0.6233558101355863 0.12009150664420856 0.39070184985439665
-0.0790861683651757 0.3307183201108645 0.2301650171383044 0.3049577585820032 0.17049260528763285 0.3740259307970661 0.11834924644418897 0.14834101131595503
-0.2915796891889955 -0.4060710737617125 -0.41671130569754644 0.31553576693926505 0.5480030564847381 0.3510654303039506 -0.1225804497870937 -0.21915144373103762
-0.056810127236353584 -0.015182553171599425 0.15531005211603346 0.4890151039983601 -0.26165014789580154 -0.21585359406671475 -0.012258044978709375 -0.07410828207940537
0.45746774966229087 0.2528143997385593 -0.11026018122981221 -0.14690986900879607 -0.2828683881888974 0.14429647870876663 -0.04523654162193762 0.26917920090302916
0.5447674303989875 0.22829830978114055 0.08848192872956714 -0.17677718672341788 -0.1531944504445811 -0.29991764871766075 0.040445326071883704 -0.09333536785819319
-0.28025499788886804 -0.1688747922447575 0.0706237616793662 -0.33644288933950034 0.08929083525100481 -0.37875492276854794 -0.18418179257350123 0.1615324099732463
-0.6593832621288487 0.04853439128626044 -0.11268690079412524 0.4366228508406277 0.4126667730903581 -0.2557389079314493 0.4956108033270058 0.2726637213030683
-0.08512185548667214 0.0853707498009607 0.02078267524309102 0.41061339499747784 0.1496477064659697 -0.39599085403302764 -0.18965746748784856 0.07572609512228073
0.5993997323853165 -0.17615495093769662 -0.04000976102187882 -0.4794948964768245 0.558954406313433 -0.05979685900781575 -0.2563611437171706 -0.23408510258834847
-0.03901418376472474 0.16794143856617558 0.0228982769145434 -0.23078725292402566 0.2770815953816895 -0.2546811070957231 -0.08505963190810005 -0.7611188130942793
-0.141060852623016 -0.10914015681551388 0.2426719564313023 -0.29276193718186594 0.0570590215506421 0.4680457580195528 0.31335794168924064 0.2923885957104332
-0.4987842058341843 0.3180247100821502 -0.11399359594413995 -0.2256849194811111 -0.4990953237270449 -0.21423578102383942 -0.1288650312228787 -0.3162202263035585
0.10192222170114694 -0.0814506643509166 -0.236262927838373 0.16464358890185277 -0.5765014554707731 -0.09526429879392917 0.1671325320447379 0.060232424057820665
-0.28461064838891714 -0.49629526269129914 0.09433094511534725 -0.35237212545396535 0.3761415324685185 0.17683941030199 0.06060576552925343 0.0028622846143179265
0.36145676792549614 0.2574189445528968 -0.874427949674126 -0.47899710784824745 -0.1867951828735306 -0.24708983050992342 0.14398536081590602 0.8612365510168346
-0.3780082398256824 -0.19867988638080722 -0.14666097469450753 -0.23060058218830928 -0.2708592375244766 0.8630410347954262 0.002488943142885147 -0.11057129912267286
0.3298471900108547 -0.03447186252895935 -0.1729193248519459 -0.003048955350034311 -0.2888418517318218 -0.21840476078817206 -0.5310782431131192 0.2862906850103646
0.2713570261530536 0.32661156392510404 0.038889736607580494 0.0432453871076295 -0.41870246021185453 0.035716334100401925 -0.232405065966901 -0.13962971031585697
-0.3893951547043819 0.5772481384136389 -0.028809516878895627 -0.18430623973064544 0.11940704727991515 0.43195608244771805 0.26886808301016846 -0.09090864829388015
00000000: e8bf 6c77 3cf4 cf3f da5a 7628 119a cabf
00000010: 96e4 8871 5a1d dd3f 99d4 dcb1 2e3d cbbf
00000020: 5e77 2cb4 8d90 adbf c6ad 9cc6 505b cfbf
00000030: c5c9 f5a1 b3d2 a5bf f707 fe47 e991 9a3f
00000040: 31da cbb7 3d63 d83f 6070 8c51 a88a 92bf
00000050: da01 b291 c0ec c0bf d634 2e6e c0a6 b63f
00000060: 3c94 d93b ad68 a53f 9dd4 b390 ba99 ddbf
00000070: f77f bc78 8d73 c83f da1b 7651 4eec dd3f
00000080: 0650 8f18 962f c5bf 1420 62b8 9eeb d13f
00000090: 461f 6a87 11fd c93f f32d 9844 22cc c9bf
000000a0: a1b7 25f1 c739 c53f 37aa f099 2e66 d03f
000000b0: ca1e bb94 0f37 d23f 7370 e8cc d7fc bbbf
000000c0: ce15 8616 55b9 bdbf 744d 9d4c a738 8f3f
000000d0: f779 51da 3756 df3f 117c f02e 54f9 d63f
000000e0: cf0b 45f5 7ef6 b4bf 46ec 16cc 85e6 d13f
000000f0: 4e7a 71f7 4edb d13f 9b52 dd5f b498 c4bf
00000100: da89 f360 1c0b d3bf 8e0d ed4d f8b7 b73f
00000110: f81a 22a5 918b bc3f 091a 727d a5b8 c1bf
00000120: 5bdf 6746 7a35 b7bf 7f3b af6c 2f29 e33f
00000130: b848 f8b9 0d48 95bf 8459 2147 6a2c 963f
00000140: b464 ff52 8878 d0bf f0ce 9130 f0a4 a4bf
00000150: 2c78 24e5 1a7f d53f 765b 300d fb8c e43f
00000160: 2a3c c5cc 488e 96bf c8b9 49e2 87f2 e33f
00000170: 3272 9025 51be be3f 2120 e754 4201 d93f
00000180: d9c2 b1ba fd3e b4bf 371c 442c 7d2a d53f
00000190: fc69 a51a 0c76 cd3f cd5a f18b 6d84 d33f
000001a0: c3c9 f5a1 b3d2 c53f 6747 2875 0af0 d73f
000001b0: c7e9 fbde 224c be3f cdf8 2098 d6fc c23f
000001c0: 35a7 4fdb 3da9 d2bf 461f 6a87 11fd d9bf
000001d0: fc0a 76e5 65ab dabf 273c eeed bc31 d43f
000001e0: 3fb8 b6b4 3d89 e13f 3b58 7a23 db77 d63f
000001f0: f0eb f6ae 6e61 bfbf 3a16 d98d 270d ccbf
00000200: 0f9c 1f8d 3716 adbf f501 bcca 0718 8fbf
00000210: a509 4a25 33e1 c33f 5c12 bb01 064c df3f
00000220: 9c2f 0d43 e0be d0bf f7cb 9e2f 17a1 cbbf
00000230: 2923 5ff2 be1a 89bf 5acf e4a7 c2f8 b2bf
00000240: 628d f1cf 2647 dd3f 5d70 b572 1c2e d03f
00000250: 1ade 6ee0 023a bcbf 331c 6d4d f1cd c2bf
00000260: adfc 1503 841a d2bf e1b5 7d98 4e78 c23f
00000270: 0663 b375 3e29 a7bf 4815 2966 3b3a d13f
00000280: ddaa 2f1b bc6e e13f 55fc 1e07 e138 cd3f
00000290: d634 2e6e c0a6 b63f abf6 d385 a2a0 c6bf
000002a0: 1b49 4b31 e09b c3bf 9113 2fcb d931 d3bf
000002b0: b574 82f1 3fb5 a43f 70d5 82a0 d3e4 b7bf
000002c0: 8549 9ea8 b2ef d1bf feae e76e b09d c5bf
000002d0: 85be bb1a 6614 b23f 6bd5 abc1 4788 d5bf
000002e0: 9a4f 3ca1 c3db b63f d65a 9f49 853d d8bf
000002f0: 9198 cfdb 4493 c7bf d221 0a11 18ad c43f
00000300: 42f1 4bed aa19 e5bf 0c8c 9cee 7fd9 a83f
00000310: 682e 9979 0cd9 bcbf 7afe 42f8 a0f1 db3f
00000320: 8769 a4e5 2169 da3f 5357 78b9 065e d0bf
00000330: 9e5c f55f 16b8 df3f 7d59 7389 5273 d13f
00000340: de76 7dc1 8bca b5bf a71c 6e82 dbda b53f
00000350: b048 f8b9 0d48 953f 9e13 b467 7d47 da3f
00000360: f4ab 98f2 a727 c33f cf90 e505 ea57 d9bf
00000370: 16b8 2626 b246 c8bf e404 010e c962 b33f
00000380: 4d6f fa58 482e e33f 7427 a7d4 3e8c c6bf
00000390: 8230 38ce 287c a4bf 25e1 bd5c 0bb0 debf
000003a0: 0348 e259 f4e2 e13f a326 afa3 b19d aebf
000003b0: efbe 0e92 3868 d0bf 7483 0c2a 80f6 cdbf
000003c0: 4d02 b3c6 aaf9 a3bf 2b78 24e5 1a7f c53f
000003d0: 064d ee59 a572 973f 3339 d2cb 6f8a cdbf
000003e0: 1e39 9f71 b4bb d13f 30a7 78fc b14c d0bf
000003f0: 6f4d 41d1 77c6 b5bf 4d87 53d7 155b e8bf
00000400: 5a80 6132 480e c2bf 1df4 33fc 9bf0 bbbf
00000410: 12af 43ea df0f cf3f 106c 6d90 9cbc d2bf
00000420: 9ce7 000f d736 ad3f bd6e ee31 76f4 dd3f
00000430: 87d1 df77 0e0e d43f e62d 13a8 7eb6 d23f
00000440: 056d f496 14ec dfbf 97da 4750 845a d43f
00000450: b994 882e af2e bdbf 0396 2f52 3ee3 ccbf
00000460: d2a0 3f83 2df1 dfbf 33b1 90fc 136c cbbf
00000470: dfa2 593b a67e c0bf 20ae 93c2 f33c d4bf
00000480: a72c f120 9317 ba3f b5e9 9f63 f3d9 b4bf
00000490: b858 2916 dd3d cebf ea2d ea86 0a13 c53f
000004a0: e5fc 2a2e b372 e2bf 30da cbb7 3d63 b8bf
000004b0: c96a 9d4b 9964 c53f db6a f9c6 c8d6 ae3f
000004c0: ca1e bb94 0f37 d2bf 95ce 9a34 4dc3 dfbf
000004d0: 896c 45a4 1226 b83f d031 b6d0 438d d6bf
000004e0: ada7 27ef b312 d83f 630b f27d aca2 c63f
000004f0: 2d5c cb09 b807 af3f 094d ee59 a572 673f
00000500: 811a 4a91 1b22 d73f 126f 0e4f 8d79 d03f
00000510: e9e0 d152 50fb ebbf 428e 457c e3a7 debf
00000520: e1fe be90 e7e8 c7bf 516e 9bba a3a0 cfbf
00000530: 464e e7bf 1c6e c23f a796 97f4 3f8f eb3f
00000540: 81de ea78 4931 d8bf bf74 30af 576e c9bf
00000550: 4fc9 f46c c9c5 c2bf 09fb 77e3 5184 cdbf
00000560: 062d bffb c155 d1bf e1ac 713b 089e eb3f
00000570: cc37 cf2c b163 643f 52ad 9b91 664e bcbf
00000580: 2a8b 7163 371c d53f 895f 63c4 4ba6 a1bf
00000590: eaf1 8a6e 3822 c6bf 9bd7 7d70 1ffa 68bf
000005a0: 53df b988 627c d2bf 901d 70ec aff4 cbbf
000005b0: 2b37 b9cc 97fe e0bf 8836 512a 9652 d23f
000005c0: e97f 37dc e95d d13f 6670 6330 34e7 d43f
000005d0: 885c c205 5be9 a33f a206 a966 4224 a63f
000005e0: 8856 5767 05cc dabf 48d9 c94d 6949 a23f
000005f0: f753 e0fe 72bf cdbf bea3 ade7 62df c1bf
00000600: 8c46 aba7 d9eb d8bf 113b 8516 d178 e23f
00000610: 97d1 3bf3 3d80 9dbf 01c2 0bcc 5897 c7bf
00000620: 51aa fad2 7591 be3f 69f5 da1f 2ba5 db3f
00000630: 79e1 dd79 2235 d13f 2285 5807 ca45 b7bf
