programs/data/2025-10-10/#17_allxy_121441/optimal_weights_r1.npz (npz, 5336 bytes, 4 tensors)

weights_real f8 [125]
000000 d8 62 26 8a 7f d1 c1 bf 0a c6 10 bf fd 8b 58 3f
       -0.13920587773897952 0.0014982202521988141
000010 af 5e 33 6f 8c 69 84 bf b3 4a 6b 6d 46 e7 82 bf
       -0.00996694292409414 -0.009230184759336657
000020 3f b8 70 5e b5 2d 78 bf ff 4e 01 9c 3c 7e 6d 3f
       -0.005902965996069708 0.0036002334382291275
000030 7b 67 31 b0 2c 6c 89 3f ec bd ff 9f 00 07 6d 3f
       0.012413357855780785 0.003543378086753304
000040 73 54 a3 44 a9 22 78 3f 6d dd 17 20 67 c4 44 bf
       0.005892430499632717 -0.0006337646047417774
000050 96 a5 25 aa d8 ca 68 3f 24 24 8a 78 86 6a 41 3f
       0.0030264121752920465 0.0005314976306901626
000060 a0 d5 3c 8f f1 ad 62 3f f1 e8 7c 14 c1 68 78 3f
       0.002280208393041064 0.005959276408072465
000070 11 e6 52 78 06 37 7a 3f 11 ba 3d da 92 30 37 bf
       0.006400132440086207 -0.0003538473631498349
000080 2e 24 73 1c 32 d0 66 bf 2e f9 12 a5 ec e8 5a 3f
       -0.002784822343163038 0.0016424475655153026
000090 30 2f 7a 7e 1a 72 66 bf 1f 12 c7 54 a7 33 53 3f
       -0.002739955660052383 0.0011719831555733263
0000a0 c5 7f f6 57 29 08 6b 3f f5 66 32 0e 3a db 28 bf
       0.0032997901432309817 -0.0001896389358975664
0000b0 bf 5f 97 8d 1e 7e 74 3f b2 1d 41 0d e9 c5 66 3f
       0.005003089283000805 0.0027799178879239434
0000c0 71 a5 fb 35 90 53 6e bf f9 83 30 ed d0 c8 70 3f
       -0.003701955472810319 0.004097763175225027
0000d0 c4 3d cc e3 a8 73 32 bf 5e 43 46 eb 4f 11 6a 3f
       -0.00028155206000321184 0.0031820832175032806
0000e0 5f 0e 69 39 0d f7 66 3f 34 fc 7b a1 e5 48 4e bf
       0.002803350285178571 -0.0009242173427707113
0000f0 7b d1 17 be 31 db 6c bf 78 a7 00 62 a5 23 64 3f
       -0.0035224887403676997 0.0024584036000491714
000100 e0 7e c3 21 51 9e 33 3f 3b 06 c7 ca 63 81 50 bf
       0.00029935341605201275 -0.0010074114353390135
000110 75 23 3d dd d7 4f 53 3f 75 44 52 17 18 9a 67 bf
       0.0011787040757147125 -0.0028810949830320683
000120 2c e8 d9 a8 f8 20 65 bf 29 8c 8f cb 62 b7 5c 3f
       -0.0025791985161136757 0.0017527069851375288
000130 95 23 93 0f 27 66 80 bf 51 8e af d2 42 a3 74 3f
       -0.008007340586475379 0.005038510348615314
000140 1f bb 93 72 77 c7 42 bf f1 a3 4e bf 30 78 47 3f
       -0.0005730946769782786 0.0007162321113486342
000150 38 02 24 d6 72 ff 64 3f a8 95 91 62 ec 08 3b 3f
       0.0025632136249671665 0.0004125191795253066
000160 bc 3f 21 7b 46 be 48 bf ef 18 27 cd 6b 84 72 3f
       -0.0007551044602767047 0.004520817851192612
000170 96 30 64 e4 6a f4 62 bf d8 e7 ab 3f 7d da 65 bf
       -0.002313812993753282 -0.002667660356903117
000180 a1 20 80 6d 8b e5 64 3f ea 5d 29 02 c0 ec 58 bf
       0.00255086166362524 -0.0015212893564661109
000190 06 c8 bd aa 9a 4b 69 3f 40 17 f8 a1 4b 21 4c bf
       0.0030878086890249205 -0.0008584613132718091
0001a0 27 59 0f c2 42 ab 74 3f e0 4e e6 36 2e b0 68 bf
       0.005046139501209169 -0.003013696920968076
0001b0 5a af 1c d7 3e b0 60 3f 2b d9 9c 92 14 29 7f 3f
       0.002037165388989165 0.007607536661274043
0001c0 04 0e 59 2a 9b 30 23 bf 35 3d d5 7a 49 6f 71 bf
       -0.0001464070712008243 -0.004256522207767778
0001d0 6d 48 6a ff 28 55 05 bf 8c 21 62 39 92 5b 6d 3f
       -4.068881383036201e-05 0.003583703607606908
0001e0 25 be 5b d5 ab e6 56 bf 4c 01 83 2a 25 2d 77 bf
       -0.0013977697430468475 -0.00565828817360654
0001f0 93 47 95 6c ed 88 6a bf 42 c8 02 98 78 f5 6d 3f
       -0.003239120215462196 0.003657088789702307
000200 7b 31 b5 60 c5 79 30 3f 45 29 bb c5 2a 58 6a 3f
       0.0002513987426098413 0.003215869464701234
000210 db 1a cd e2 61 27 4d bf 4a f2 30 28 4b 7e 56 3f
       -0.0008897045096113125 0.001372884173874616
000220 4f 11 bd 85 a5 cd 7f 3f a6 ae 68 c4 cf 12 5d 3f
       0.007764479228914502 0.0017745045639782435
000230 20 89 e5 38 f4 65 71 bf b9 4e 7b 2c 70 47 76 bf
       -0.0042476215297446995 -0.005439222506271762
000240 8e 94 9c 7e f1 b5 62 3f 9d 7f f2 4e 6f d4 60 bf
       0.0022840229693366692 -0.0020544218055675426
000250 c5 83 41 f8 1a 15 4c 3f 27 55 6c 43 0e 77 76 bf
       0.0008570081413489186 -0.005484634128852839
000260 4c ce eb d8 37 eb 79 3f d2 b5 56 3f 73 aa ea 3e
       0.006327837136939584 1.2715254323970608e-05
000270 90 d1 08 5f db 9f 41 bf 2b 39 f1 79 26 ae 70 3f
       -0.0005378552578521479 0.0040723326665797295
000280 12 02 61 63 2e bd 72 3f 8f 33 8c e8 b8 79 56 3f
       0.0045749485053083894 0.0013717942949284833
000290 0d a3 9e dc 9a 33 59 3f 69 bb c8 01 b6 bc 6d 3f
       0.0015381824800703742 0.0036300234626404537
0002a0 13 fc b8 a4 5d 54 69 3f 90 8e 2f 6b b1 36 24 3f
       0.00309198655830257 0.00015421787028834346
0002b0 0d 14 b7 5a 9f 2c 71 bf 24 5c 8f 1a 90 a5 62 bf
       -0.004192945936158499 -0.002276212170254437
0002c0 4b 12 32 d5 21 ea 62 bf 19 88 6a be 0d b7 66 3f
       -0.002308908538511544 0.0027728336747978696
0002d0 10 9f 4b 17 9d fe 6d 3f 09 5a 8b 81 40 9e 1b bf
       0.003661448305468336 -0.0001053549643857747
0002e0 25 79 59 b4 de e2 55 3f 7b 34 2d 94 06 4c 54 3f
       0.001335828289846194 0.0012388290640104316
0002f0 08 5c 0d 2a 3a f0 62 3f 90 dd ae c6 7b 6d 1c 3f
       0.002311814882357325 0.00010844295472522123
000300 d1 59 97 3e b9 72 70 bf fd ea 2f a1 84 08 6e 3f
       -0.004015658961597572 0.0036661711142164087
000310 f8 fc 18 44 79 e7 51 3f 56 ae a1 d2 14 4f 63 3f
       0.0010927852857916514 0.002357044858447381
000320 10 c7 83 9e 1b c5 6b bf 33 fe 13 17 49 9f 71 3f
       -0.003389886802431692 0.0043022971233309
000330 26 66 b4 ec 06 ff 69 bf db 1b 66 b7 51 56 73 3f
       -0.0031733641859659377 0.004720992283529814
000340 5b 54 9e 10 bd 79 14 bf 30 8e 85 d4 b6 79 57 bf
       -7.810799084347188e-05 -0.0014328275156793129
000350 90 dd ae c6 7b 6d 1c bf 7b f7 09 e5 5a c9 74 3f
       -0.00010844295472522123 0.005074839646679648
000360 16 84 c7 c9 1c 35 5b bf 64 0f 60 2b 31 44 77 3f
       -0.0016606122145435046 0.00568026739893299
000370 fe f1 26 ba ff 97 77 3f ee 7a 9b 33 88 50 4c bf
       0.005760191854673467 -0.0008640923544723492
000380 c8 b7 44 2b 71 aa 5b bf e3 10 a0 d7 57 41 56 bf
       -0.001688585774057826 -0.0013583524546457108
000390 da 53 c3 37 9e b8 61 bf 31 57 b2 05 99 38 74 3f
       -0.002163228053272165 0.00493678831403148
0003a0 47 0f b2 90 5b 54 6a 3f 38 c2 28 7a 7a 0d 6d 3f
       0.0032140529997962994 0.0035464660770901067
0003b0 e8 94 a4 f2 9a 06 7f 3f 9f 0d 9a 0f 3e 10 71 bf
       0.00757465864652327 -0.004165880609096644
0003c0 6f 90 77 99 aa 7e 67 bf ad 81 12 1c 28 a0 6b bf
       -0.0028680164357286968 -0.00337226709287127
0003d0 05 e1 c8 27 40 0e 80 3f 1c ce 28 04 be bf 6f bf
       0.007839680875904262 -0.0038756095175587323
0003e0 3c 44 a6 9e f2 08 48 bf
       -0.0007334885279296553

weights_minus_imag f8 [125]
000000 26 55 cf ff 3c b0 ef 3f 38 de e6 ab 6b 94 52 3f
       0.9902634617125485 0.0011340190390977233
000010 c4 3b c7 a3 0c 3f 67 3f c4 cb ef 1b b5 4d 88 3f
       0.0028376814718522343 0.011866965212879672
000020 15 a8 38 c3 af 02 75 3f 69 b2 5f 54 22 68 5e bf
       0.005129515240279066 -0.0018558821916442542
000030 07 47 7a 6a 93 0d 71 bf 46 c8 4b c9 b6 5c 5d 3f
       -0.004163337558240838 0.0017921242735465955
000040 c6 7b 4c 51 fc 3b 59 bf 09 5a 8b 81 40 9e 3b 3f
       -0.0015401805914689744 0.0004214198575430988
000050 a3 39 af 23 6e 64 51 3f f5 4e 18 f8 90 18 68 3f
       0.0010615420894627213 0.0029414016178267396
000060 e3 1b 7b 8f c0 a8 78 bf 16 56 0d 65 18 97 61 3f
       -0.006020309628815365 0.002147243162123012
000070 54 a1 95 30 90 78 78 3f 41 5b e6 35 af 46 55 3f
       0.005974353066769151 0.001298590759324106
000080 77 4c c4 be 00 3d 71 bf 9a 98 ac 29 94 b1 80 bf
       -0.004208567534322963 -0.00815120460681511
000090 b5 c7 37 d9 98 2b 6a bf 65 f3 43 52 c8 ec 54 bf
       -0.0031946168253335857 -0.0012771564734627924
0000a0 d2 b7 3c 36 3e db 06 bf 1c f7 c6 2d b4 e2 72 3f
       -4.35951576761431e-05 0.004610732863907587
0000b0 1d 75 ff 04 b3 2c 5f 3f 1a fc 9a 4a 54 d4 5d 3f
       0.0019027469861535092 0.0018206427725286967
0000c0 59 4d 74 09 2a d5 44 bf c1 e0 ae 99 62 cf 6c bf
       -0.0006357627161456644 -0.0035168576991645166
0000d0 81 b9 6b 1d fe 80 62 bf 0c 09 2c e6 b0 76 54 bf
       -0.0022587741071823935 -0.0012490012674680221
0000e0 c2 65 28 04 22 b1 78 3f 8f 0b 04 1e c0 01 63 bf
       0.006028302074378046 -0.002320170620920554
0000f0 31 7a ae 39 f3 9b 5d bf b3 89 99 25 c3 47 7d 3f
       -0.0018072009322406375 0.007148515980221526
000100 e0 d7 1f 31 24 a5 67 bf e4 f1 78 95 e6 f5 77 3f
       -0.002886362731255851 0.005849743574398467
000110 df 0c 1b 29 e9 da 60 bf 6d 8b 61 b1 14 5f 53 bf
       -0.0020575097958911294 -0.0011823370055245822
000120 42 8d b8 7e e9 6c 7c 3f ff 47 9d 2e 45 5e 69 3f
       0.00693980416284329 0.0030967093670506425
000130 1d f3 47 be 36 73 6a bf 7f 58 63 ac d1 6c 60 bf
       -0.003228766365508297 -0.0020050139602104107
000140 1c e4 f5 bb 5c c4 79 bf 65 1c 90 aa 10 4f 25 bf
       -0.006290781252908519 -0.00016257360883306922
000150 a4 23 91 15 85 d0 6d 3f 90 69 34 e2 9f a6 5c 3f
       0.0036394690801313124 0.001748710762348258
000160 81 33 aa 56 49 5e 37 3f 67 8f e7 32 ce 18 72 bf
       0.0003565720605045939 -0.004418187584153666
000170 14 01 53 9f f9 87 7a bf cd 48 23 75 84 62 72 bf
       -0.006477332198471925 -0.004488484775906976
000180 b1 d1 da 7e 24 a2 71 bf f4 8a 18 f7 11 af 64 3f
       -0.004305021820688302 0.0025248862155121624
000190 82 79 61 9e 44 81 4f 3f f2 93 9e d7 57 41 46 3f
       0.0009614548732875124 0.0006791762273122821
0001a0 c6 9b 9d 41 4d 59 7b bf 9e f4 27 89 be 7f 2f bf
       -0.006676961691346633 -0.00024031830669449678
0001b0 21 8e 18 32 8c 64 7a 3f d0 2a 3c 6a fc 2f 79 bf
       0.006443545951273972 -0.006149278636949432
0001c0 9e 94 76 eb 54 a9 67 bf 84 04 98 b3 ca 82 3f 3f
       -0.0028883608426491644 0.0004808182598879456
0001d0 e0 e2 8d 1e 54 2e 72 3f 93 2a 7b 8f 24 9a 71 3f
       0.004438713637562514 0.004297392668102379
0001e0 f8 49 f2 c5 e2 a8 5f bf 17 88 13 7d de 1f 40 3f
       -0.0019323553640658835 0.0004920803422943124
0001f0 e1 62 cb 35 ef ac 79 bf f2 f8 7d 74 94 8d 50 3f
       -0.006268438734615884 0.001010317779190081
000200 b3 ba 49 7d 96 70 65 3f a6 b7 72 0b 28 a8 6b 3f
       0.002617162632581349 0.003376081669180092
000210 00 35 57 cd a8 39 4e 3f a8 92 03 5a 6b 99 88 bf
       0.0009224008778631332 -0.012011374172695113
000220 3f 49 5d 20 4d 69 6b bf 3d 94 57 cd a8 39 6e bf
       -0.0033461099982698135 -0.0036896035114631063
000230 5b 42 da 09 e7 bd 67 bf 1f 27 95 49 22 b2 42 3f
       -0.002898169753116781 0.0005705516261198285
000240 7a 76 cc f7 cb e6 7e bf d3 c9 d4 2a 01 09 31 3f
       -0.007544323682649451 0.0002599361276508758
000250 84 6c 6c 30 06 7c 54 3f c8 c2 d6 05 a8 99 4e bf
       0.0012502727929078203 -0.000933844606768452
000260 e0 29 d6 9f 76 0a 79 3f 6d d2 a9 32 37 3b 6a bf
       0.006113494278347592 -0.0032020643314417036
000270 56 ab 88 05 0f 3c 70 bf da 30 a9 bd c1 39 52 3f
       -0.003963526418867177 0.0011124031067480306
000280 1a 3f 49 a7 ce e0 71 3f 5e 91 b1 b9 b0 69 6a 3f
       0.004364783516009907 0.003224225203256533
000290 06 88 2a a9 59 61 15 3f a7 6f f8 02 50 28 84 bf
       8.155927415967609e-05 -0.009842515078211834
0002a0 49 fd 9e 15 7b 07 51 3f 30 c5 d4 90 ce a6 7d bf
       0.0010393812176373188 -0.007239157578895303
0002b0 1a f3 90 03 fc 3e 5f bf b2 97 20 e0 f8 e3 6a bf
       -0.0019071065019168943 -0.0032825337266499605
0002c0 95 c6 be f6 1e 29 7a bf 29 08 33 be 55 66 71 bf
       -0.0063868722462971 -0.004247984822713526
0002d0 39 9f 0e 00 9e 8e 7d bf 9e 9f e4 d8 84 32 62 bf
       -0.007216088474628007 -0.0022213549301745702
0002e0 14 be c2 88 01 97 6c bf 51 f2 03 ab 80 f0 3f 3f
       -0.003489974018598971 0.0004873575335435964
0002f0 c0 cc fd 69 2d 35 73 bf f2 46 2a 63 ae 89 5b bf
       -0.00468938579421091 -0.0016807749749755932
000300 c1 33 d9 0e 2a b0 6a bf 20 ac 98 b1 cc af 78 3f
       -0.003257829803976681 0.0060270305489593945
000310 aa 77 71 5c b7 5a 71 3f b8 23 82 b6 2e 95 52 3f
       0.004236904386827259 0.001134200685586102
000320 02 cd a1 a9 bf 39 43 3f f2 16 38 6a e5 85 38 3f
       0.0005867181637441434 0.0003741917700782325
000330 f7 6d 63 bf 75 76 79 3f 08 91 9a 98 02 59 50 3f
       0.006216487838368582 0.0009977841713544894
000340 92 de b4 87 54 d9 67 bf d7 73 0d 2a 3a f0 72 3f
       -0.0029112483004175094 0.0046236297647199364
000350 c6 6a 9e 65 c3 6d 81 3f be 7b 4d 24 47 8f 72 bf
       0.008510138071689776 -0.004531171701130652
000360 4d 69 ef 08 49 61 2d bf e0 be 83 c0 b4 79 18 bf
       -0.00022415176905960857 -9.336629603117928e-05
000370 e6 64 f4 fa fe f3 77 3f 22 8f 76 af f7 98 65 bf
       0.005847927109493533 -0.00263641716056097
000380 2f 3e 92 72 77 c7 42 3f 2a 8d 80 7e 95 0d 40 3f
       0.0005730946769677054 0.0004899005844020466
000390 dc a7 67 9e bf 1c 49 bf f8 a9 8f 68 76 47 43 bf
       -0.0007663665426751415 -0.0005883529821606994
0003a0 d3 d7 de 38 79 ca 67 bf 5d fb 0c b7 fa de 5f 3f
       -0.0029041640873072954 0.0019452522648888062
0003b0 71 11 3f 40 c4 bf 3c 3f d0 4e 0c ca ca bc 33 3f
       0.0004386762741399797 0.0003011698809569476
0003c0 77 10 98 15 00 6c 67 bf 94 f8 b6 aa e7 92 51 bf
       -0.002859115757702975 -0.001072622525370136
0003d0 0d e3 9f 23 78 2d 4e bf 86 4b bd 5a b6 d6 41 3f
       -0.0009209477059349561 0.0005443945314972255
0003e0 fa 3d d0 c4 54 de 61 3f
       0.002181211055819918

weights_imag f8 [125]
000000 26 55 cf ff 3c b0 ef bf 38 de e6 ab 6b 94 52 bf
       -0.9902634617125485 -0.0011340190390977233
000010 c4 3b c7 a3 0c 3f 67 bf c4 cb ef 1b b5 4d 88 bf
       -0.0028376814718522343 -0.011866965212879672
000020 15 a8 38 c3 af 02 75 bf 69 b2 5f 54 22 68 5e 3f
       -0.005129515240279066 0.0018558821916442542
000030 07 47 7a 6a 93 0d 71 3f 46 c8 4b c9 b6 5c 5d bf
       0.004163337558240838 -0.0017921242735465955
000040 c6 7b 4c 51 fc 3b 59 3f 09 5a 8b 81 40 9e 3b bf
       0.0015401805914689744 -0.0004214198575430988
000050 a3 39 af 23 6e 64 51 bf f5 4e 18 f8 90 18 68 bf
       -0.0010615420894627213 -0.0029414016178267396
000060 e3 1b 7b 8f c0 a8 78 3f 16 56 0d 65 18 97 61 bf
       0.006020309628815365 -0.002147243162123012
000070 54 a1 95 30 90 78 78 bf 41 5b e6 35 af 46 55 bf
       -0.005974353066769151 -0.001298590759324106
000080 77 4c c4 be 00 3d 71 3f 9a 98 ac 29 94 b1 80 3f
       0.004208567534322963 0.00815120460681511
000090 b5 c7 37 d9 98 2b 6a 3f 65 f3 43 52 c8 ec 54 3f
       0.0031946168253335857 0.0012771564734627924
0000a0 d2 b7 3c 36 3e db 06 3f 1c f7 c6 2d b4 e2 72 bf
       4.35951576761431e-05 -0.004610732863907587
0000b0 1d 75 ff 04 b3 2c 5f bf 1a fc 9a 4a 54 d4 5d bf
       -0.0019027469861535092 -0.0018206427725286967
0000c0 59 4d 74 09 2a d5 44 3f c1 e0 ae 99 62 cf 6c 3f
       0.0006357627161456644 0.0035168576991645166
0000d0 81 b9 6b 1d fe 80 62 3f 0c 09 2c e6 b0 76 54 3f
       0.0022587741071823935 0.0012490012674680221
0000e0 c2 65 28 04 22 b1 78 bf 8f 0b 04 1e c0 01 63 3f
       -0.006028302074378046 0.002320170620920554
0000f0 31 7a ae 39 f3 9b 5d 3f b3 89 99 25 c3 47 7d bf
       0.0018072009322406375 -0.007148515980221526
000100 e0 d7 1f 31 24 a5 67 3f e4 f1 78 95 e6 f5 77 bf
       0.002886362731255851 -0.005849743574398467
000110 df 0c 1b 29 e9 da 60 3f 6d 8b 61 b1 14 5f 53 3f
       0.0020575097958911294 0.0011823370055245822
000120 42 8d b8 7e e9 6c 7c bf ff 47 9d 2e 45 5e 69 bf
       -0.00693980416284329 -0.0030967093670506425
000130 1d f3 47 be 36 73 6a 3f 7f 58 63 ac d1 6c 60 3f
       0.003228766365508297 0.0020050139602104107
000140 1c e4 f5 bb 5c c4 79 3f 65 1c 90 aa 10 4f 25 3f
       0.006290781252908519 0.00016257360883306922
000150 a4 23 91 15 85 d0 6d bf 90 69 34 e2 9f a6 5c bf
       -0.0036394690801313124 -0.001748710762348258
000160 81 33 aa 56 49 5e 37 bf 67 8f e7 32 ce 18 72 3f
       -0.0003565720605045939 0.004418187584153666
000170 14 01 53 9f f9 87 7a 3f cd 48 23 75 84 62 72 3f
       0.006477332198471925 0.004488484775906976
000180 b1 d1 da 7e 24 a2 71 3f f4 8a 18 f7 11 af 64 bf
       0.004305021820688302 -0.0025248862155121624
000190 82 79 61 9e 44 81 4f bf f2 93 9e d7 57 41 46 bf
       -0.0009614548732875124 -0.0006791762273122821
0001a0 c6 9b 9d 41 4d 59 7b 3f 9e f4 27 89 be 7f 2f 3f
       0.006676961691346633 0.00024031830669449678
0001b0 21 8e 18 32 8c 64 7a bf d0 2a 3c 6a fc 2f 79 3f
       -0.006443545951273972 0.006149278636949432
0001c0 9e 94 76 eb 54 a9 67 3f 84 04 98 b3 ca 82 3f bf
       0.0028883608426491644 -0.0004808182598879456
0001d0 e0 e2 8d 1e 54 2e 72 bf 93 2a 7b 8f 24 9a 71 bf
       -0.004438713637562514 -0.004297392668102379
0001e0 f8 49 f2 c5 e2 a8 5f 3f 17 88 13 7d de 1f 40 bf
       0.0019323553640658835 -0.0004920803422943124
0001f0 e1 62 cb 35 ef ac 79 3f f2 f8 7d 74 94 8d 50 bf
       0.006268438734615884 -0.001010317779190081
000200 b3 ba 49 7d 96 70 65 bf a6 b7 72 0b 28 a8 6b bf
       -0.002617162632581349 -0.003376081669180092
000210 00 35 57 cd a8 39 4e bf a8 92 03 5a 6b 99 88 3f
       -0.0009224008778631332 0.012011374172695113
000220 3f 49 5d 20 4d 69 6b 3f 3d 94 57 cd a8 39 6e 3f
       0.0033461099982698135 0.0036896035114631063
000230 5b 42 da 09 e7 bd 67 3f 1f 27 95 49 22 b2 42 bf
       0.002898169753116781 -0.0005705516261198285
000240 7a 76 cc f7 cb e6 7e 3f d3 c9 d4 2a 01 09 31 bf
       0.007544323682649451 -0.0002599361276508758
000250 84 6c 6c 30 06 7c 54 bf c8 c2 d6 05 a8 99 4e 3f
       -0.0012502727929078203 0.000933844606768452
000260 e0 29 d6 9f 76 0a 79 bf 6d d2 a9 32 37 3b 6a 3f
       -0.006113494278347592 0.0032020643314417036
000270 56 ab 88 05 0f 3c 70 3f da 30 a9 bd c1 39 52 bf
       0.003963526418867177 -0.0011124031067480306
000280 1a 3f 49 a7 ce e0 71 bf 5e 91 b1 b9 b0 69 6a bf
       -0.004364783516009907 -0.003224225203256533
000290 06 88 2a a9 59 61 15 bf a7 6f f8 02 50 28 84 3f
       -8.155927415967609e-05 0.009842515078211834
0002a0 49 fd 9e 15 7b 07 51 bf 30 c5 d4 90 ce a6 7d 3f
       -0.0010393812176373188 0.007239157578895303
0002b0 1a f3 90 03 fc 3e 5f 3f b2 97 20 e0 f8 e3 6a 3f
       0.0019071065019168943 0.0032825337266499605
0002c0 95 c6 be f6 1e 29 7a 3f 29 08 33 be 55 66 71 3f
       0.0063868722462971 0.004247984822713526
0002d0 39 9f 0e 00 9e 8e 7d 3f 9e 9f e4 d8 84 32 62 3f
       0.007216088474628007 0.0022213549301745702
0002e0 14 be c2 88 01 97 6c 3f 51 f2 03 ab 80 f0 3f bf
       0.003489974018598971 -0.0004873575335435964
0002f0 c0 cc fd 69 2d 35 73 3f f2 46 2a 63 ae 89 5b 3f
       0.00468938579421091 0.0016807749749755932
000300 c1 33 d9 0e 2a b0 6a 3f 20 ac 98 b1 cc af 78 bf
       0.003257829803976681 -0.0060270305489593945
000310 aa 77 71 5c b7 5a 71 bf b8 23 82 b6 2e 95 52 bf
       -0.004236904386827259 -0.001134200685586102
000320 02 cd a1 a9 bf 39 43 bf f2 16 38 6a e5 85 38 bf
       -0.0005867181637441434 -0.0003741917700782325
000330 f7 6d 63 bf 75 76 79 bf 08 91 9a 98 02 59 50 bf
       -0.006216487838368582 -0.0009977841713544894
000340 92 de b4 87 54 d9 67 3f d7 73 0d 2a 3a f0 72 bf
       0.0029112483004175094 -0.0046236297647199364
000350 c6 6a 9e 65 c3 6d 81 bf be 7b 4d 24 47 8f 72 3f
       -0.008510138071689776 0.004531171701130652
000360 4d 69 ef 08 49 61 2d 3f e0 be 83 c0 b4 79 18 3f
       0.00022415176905960857 9.336629603117928e-05
000370 e6 64 f4 fa fe f3 77 bf 22 8f 76 af f7 98 65 3f
       -0.005847927109493533 0.00263641716056097
000380 2f 3e 92 72 77 c7 42 bf 2a 8d 80 7e 95 0d 40 bf
       -0.0005730946769677054 -0.0004899005844020466
000390 dc a7 67 9e bf 1c 49 3f f8 a9 8f 68 76 47 43 3f
       0.0007663665426751415 0.0005883529821606994
0003a0 d3 d7 de 38 79 ca 67 3f 5d fb 0c b7 fa de 5f bf
       0.0029041640873072954 -0.0019452522648888062
0003b0 71 11 3f 40 c4 bf 3c bf d0 4e 0c ca ca bc 33 bf
       -0.0004386762741399797 -0.0003011698809569476
0003c0 77 10 98 15 00 6c 67 3f 94 f8 b6 aa e7 92 51 3f
       0.002859115757702975 0.001072622525370136
0003d0 0d e3 9f 23 78 2d 4e 3f 86 4b bd 5a b6 d6 41 bf
       0.0009209477059349561 -0.0005443945314972255
0003e0 fa 3d d0 c4 54 de 61 bf
       -0.002181211055819918

weights_minus_real f8 [125]
000000 d8 62 26 8a 7f d1 c1 3f 0a c6 10 bf fd 8b 58 bf
       0.13920587773897952 -0.0014982202521988141
000010 af 5e 33 6f 8c 69 84 3f b3 4a 6b 6d 46 e7 82 3f
       0.00996694292409414 0.009230184759336657
000020 3f b8 70 5e b5 2d 78 3f ff 4e 01 9c 3c 7e 6d bf
       0.005902965996069708 -0.0036002334382291275
000030 7b 67 31 b0 2c 6c 89 bf ec bd ff 9f 00 07 6d bf
       -0.012413357855780785 -0.003543378086753304
000040 73 54 a3 44 a9 22 78 bf 6d dd 17 20 67 c4 44 3f
       -0.005892430499632717 0.0006337646047417774
000050 96 a5 25 aa d8 ca 68 bf 24 24 8a 78 86 6a 41 bf
       -0.0030264121752920465 -0.0005314976306901626
000060 a0 d5 3c 8f f1 ad 62 bf f1 e8 7c 14 c1 68 78 bf
       -0.002280208393041064 -0.005959276408072465
000070 11 e6 52 78 06 37 7a bf 11 ba 3d da 92 30 37 3f
       -0.006400132440086207 0.0003538473631498349
000080 2e 24 73 1c 32 d0 66 3f 2e f9 12 a5 ec e8 5a bf
       0.002784822343163038 -0.0016424475655153026
000090 30 2f 7a 7e 1a 72 66 3f 1f 12 c7 54 a7 33 53 bf
       0.002739955660052383 -0.0011719831555733263
0000a0 c5 7f f6 57 29 08 6b bf f5 66 32 0e 3a db 28 3f
       -0.0032997901432309817 0.0001896389358975664
0000b0 bf 5f 97 8d 1e 7e 74 bf b2 1d 41 0d e9 c5 66 bf
       -0.005003089283000805 -0.0027799178879239434
0000c0 71 a5 fb 35 90 53 6e 3f f9 83 30 ed d0 c8 70 bf
       0.003701955472810319 -0.004097763175225027
0000d0 c4 3d cc e3 a8 73 32 3f 5e 43 46 eb 4f 11 6a bf
       0.00028155206000321184 -0.0031820832175032806
0000e0 5f 0e 69 39 0d f7 66 bf 34 fc 7b a1 e5 48 4e 3f
       -0.002803350285178571 0.0009242173427707113
0000f0 7b d1 17 be 31 db 6c 3f 78 a7 00 62 a5 23 64 bf
       0.0035224887403676997 -0.0024584036000491714
000100 e0 7e c3 21 51 9e 33 bf 3b 06 c7 ca 63 81 50 3f
       -0.00029935341605201275 0.0010074114353390135
000110 75 23 3d dd d7 4f 53 bf 75 44 52 17 18 9a 67 3f
       -0.0011787040757147125 0.0028810949830320683
000120 2c e8 d9 a8 f8 20 65 3f 29 8c 8f cb 62 b7 5c bf
       0.0025791985161136757 -0.0017527069851375288
000130 95 23 93 0f 27 66 80 3f 51 8e af d2 42 a3 74 bf
       0.008007340586475379 -0.005038510348615314
000140 1f bb 93 72 77 c7 42 3f f1 a3 4e bf 30 78 47 bf
       0.0005730946769782786 -0.0007162321113486342
000150 38 02 24 d6 72 ff 64 bf a8 95 91 62 ec 08 3b bf
       -0.0025632136249671665 -0.0004125191795253066
000160 bc 3f 21 7b 46 be 48 3f ef 18 27 cd 6b 84 72 bf
       0.0007551044602767047 -0.004520817851192612
000170 96 30 64 e4 6a f4 62 3f d8 e7 ab 3f 7d da 65 3f
       0.002313812993753282 0.002667660356903117
000180 a1 20 80 6d 8b e5 64 bf ea 5d 29 02 c0 ec 58 3f
       -0.00255086166362524 0.0015212893564661109
000190 06 c8 bd aa 9a 4b 69 bf 40 17 f8 a1 4b 21 4c 3f
       -0.0030878086890249205 0.0008584613132718091
0001a0 27 59 0f c2 42 ab 74 bf e0 4e e6 36 2e b0 68 3f
       -0.005046139501209169 0.003013696920968076
0001b0 5a af 1c d7 3e b0 60 bf 2b d9 9c 92 14 29 7f bf
       -0.002037165388989165 -0.007607536661274043
0001c0 04 0e 59 2a 9b 30 23 3f 35 3d d5 7a 49 6f 71 3f
       0.0001464070712008243 0.004256522207767778
0001d0 6d 48 6a ff 28 55 05 3f 8c 21 62 39 92 5b 6d bf
       4.068881383036201e-05 -0.003583703607606908
0001e0 25 be 5b d5 ab e6 56 3f 4c 01 83 2a 25 2d 77 3f
       0.0013977697430468475 0.00565828817360654
0001f0 93 47 95 6c ed 88 6a 3f 42 c8 02 98 78 f5 6d bf
       0.003239120215462196 -0.003657088789702307
000200 7b 31 b5 60 c5 79 30 bf 45 29 bb c5 2a 58 6a bf
       -0.0002513987426098413 -0.003215869464701234
000210 db 1a cd e2 61 27 4d 3f 4a f2 30 28 4b 7e 56 bf
       0.0008897045096113125 -0.001372884173874616
000220 4f 11 bd 85 a5 cd 7f bf a6 ae 68 c4 cf 12 5d bf
       -0.007764479228914502 -0.0017745045639782435
000230 20 89 e5 38 f4 65 71 3f b9 4e 7b 2c 70 47 76 3f
       0.0042476215297446995 0.005439222506271762
000240 8e 94 9c 7e f1 b5 62 bf 9d 7f f2 4e 6f d4 60 3f
       -0.0022840229693366692 0.0020544218055675426
000250 c5 83 41 f8 1a 15 4c bf 27 55 6c 43 0e 77 76 3f
       -0.0008570081413489186 0.005484634128852839
000260 4c ce eb d8 37 eb 79 bf d2 b5 56 3f 73 aa ea be
       -0.006327837136939584 -1.2715254323970608e-05
000270 90 d1 08 5f db 9f 41 3f 2b 39 f1 79 26 ae 70 bf
       0.0005378552578521479 -0.0040723326665797295
000280 12 02 61 63 2e bd 72 bf 8f 33 8c e8 b8 79 56 bf
       -0.0045749485053083894 -0.0013717942949284833
000290 0d a3 9e dc 9a 33 59 bf 69 bb c8 01 b6 bc 6d bf
       -0.0015381824800703742 -0.0036300234626404537
0002a0 13 fc b8 a4 5d 54 69 bf 90 8e 2f 6b b1 36 24 bf
       -0.00309198655830257 -0.00015421787028834346
0002b0 0d 14 b7 5a 9f 2c 71 3f 24 5c 8f 1a 90 a5 62 3f
       0.004192945936158499 0.002276212170254437
0002c0 4b 12 32 d5 21 ea 62 3f 19 88 6a be 0d b7 66 bf
       0.002308908538511544 -0.0027728336747978696
0002d0 10 9f 4b 17 9d fe 6d bf 09 5a 8b 81 40 9e 1b 3f
       -0.003661448305468336 0.0001053549643857747
0002e0 25 79 59 b4 de e2 55 bf 7b 34 2d 94 06 4c 54 bf
       -0.001335828289846194 -0.0012388290640104316
0002f0 08 5c 0d 2a 3a f0 62 bf 90 dd ae c6 7b 6d 1c bf
       -0.002311814882357325 -0.00010844295472522123
000300 d1 59 97 3e b9 72 70 3f fd ea 2f a1 84 08 6e bf
       0.004015658961597572 -0.0036661711142164087
000310 f8 fc 18 44 79 e7 51 bf 56 ae a1 d2 14 4f 63 bf
       -0.0010927852857916514 -0.002357044858447381
000320 10 c7 83 9e 1b c5 6b 3f 33 fe 13 17 49 9f 71 bf
       0.003389886802431692 -0.0043022971233309
000330 26 66 b4 ec 06 ff 69 3f db 1b 66 b7 51 56 73 bf
       0.0031733641859659377 -0.004720992283529814
000340 5b 54 9e 10 bd 79 14 3f 30 8e 85 d4 b6 79 57 3f
       7.810799084347188e-05 0.0014328275156793129
000350 90 dd ae c6 7b 6d 1c 3f 7b f7 09 e5 5a c9 74 bf
       0.00010844295472522123 -0.005074839646679648
000360 16 84 c7 c9 1c 35 5b 3f 64 0f 60 2b 31 44 77 bf
       0.0016606122145435046 -0.00568026739893299
000370 fe f1 26 ba ff 97 77 bf ee 7a 9b 33 88 50 4c 3f
       -0.005760191854673467 0.0008640923544723492
000380 c8 b7 44 2b 71 aa 5b 3f e3 10 a0 d7 57 41 56 3f
       0.001688585774057826 0.0013583524546457108
000390 da 53 c3 37 9e b8 61 3f 31 57 b2 05 99 38 74 bf
       0.002163228053272165 -0.00493678831403148
0003a0 47 0f b2 90 5b 54 6a bf 38 c2 28 7a 7a 0d 6d bf
       -0.0032140529997962994 -0.0035464660770901067
0003b0 e8 94 a4 f2 9a 06 7f bf 9f 0d 9a 0f 3e 10 71 3f
       -0.00757465864652327 0.004165880609096644
0003c0 6f 90 77 99 aa 7e 67 3f ad 81 12 1c 28 a0 6b 3f
       0.0028680164357286968 0.00337226709287127
0003d0 05 e1 c8 27 40 0e 80 bf 1c ce 28 04 be bf 6f 3f
       -0.007839680875904262 0.0038756095175587323
0003e0 3c 44 a6 9e f2 08 48 3f
       0.0007334885279296553
